…
======
TEST-> belectron_full5x5sigmaietaieta
--SKIP FOLLOWING VARS
['belectron_full5x5sigmaietaieta']
sigcut-> (belectron_charge*bjet_partonFlavour < 0)&&(Has_bElectron)
bkgcut-> (belectron_charge*bjet_partonFlavour > 0)&&(Has_bElectron)
<sig cut>= (belectron_charge*bjet_partonFlavour < 0)&&(Has_bElectron)
<bkg cut>= (belectron_charge*bjet_partonFlavour > 0)&&(Has_bElectron)
_________________________________________________________________
Layer (type)                 Output Shape              Param #   
=================================================================
dense_1 (Dense)              (None, 128)               3200      
_________________________________________________________________
batch_normalization_1 (Batch (None, 128)               512       
_________________________________________________________________
activation_1 (Activation)    (None, 128)               0         
_________________________________________________________________
dropout_1 (Dropout)          (None, 128)               0         
_________________________________________________________________
dense_2 (Dense)              (None, 128)               16512     
_________________________________________________________________
batch_normalization_2 (Batch (None, 128)               512       
_________________________________________________________________
activation_2 (Activation)    (None, 128)               0         
_________________________________________________________________
dropout_2 (Dropout)          (None, 128)               0         
_________________________________________________________________
dense_3 (Dense)              (None, 128)               16512     
_________________________________________________________________
batch_normalization_3 (Batch (None, 128)               512       
_________________________________________________________________
activation_3 (Activation)    (None, 128)               0         
_________________________________________________________________
dropout_3 (Dropout)          (None, 128)               0         
_________________________________________________________________
dense_4 (Dense)              (None, 128)               16512     
_________________________________________________________________
batch_normalization_4 (Batch (None, 128)               512       
_________________________________________________________________
activation_4 (Activation)    (None, 128)               0         
_________________________________________________________________
dropout_4 (Dropout)          (None, 128)               0         
_________________________________________________________________
dense_5 (Dense)              (None, 128)               16512     
_________________________________________________________________
batch_normalization_5 (Batch (None, 128)               512       
_________________________________________________________________
activation_5 (Activation)    (None, 128)               0         
_________________________________________________________________
dropout_5 (Dropout)          (None, 128)               0         
_________________________________________________________________
dense_6 (Dense)              (None, 2)                 258       
_________________________________________________________________
activation_6 (Activation)    (None, 2)                 0         
=================================================================
Total params: 72,066
Trainable params: 70,786
Non-trainable params: 1,280
_________________________________________________________________
---sig_test---
<self.testtree_sig> OutTree/sig
/data6/Users/jhchoi/TMVA/TMVA_TOOL/inputs/EEMu_MuMuE_Method/v2405.4/2018/EEMu_MuMuE_Method_DYJetsToEE_MiNNLO.root
/data6/Users/jhchoi/TMVA/TMVA_TOOL/inputs/EEMu_MuMuE_Method/v2405.4/2018/EEMu_MuMuE_Method_DYJetsToMuMu_MiNNLO.root
…
TEST-> fabs(belectron_detaseed)
--SKIP FOLLOWING VARS
['belectron_full5x5sigmaietaieta', 'fabs(belectron_detaseed)']
sigcut-> (belectron_charge*bjet_partonFlavour < 0)&&(Has_bElectron)
bkgcut-> (belectron_charge*bjet_partonFlavour > 0)&&(Has_bElectron)
<sig cut>= (belectron_charge*bjet_partonFlavour < 0)&&(Has_bElectron)
<bkg cut>= (belectron_charge*bjet_partonFlavour > 0)&&(Has_bElectron)
_________________________________________________________________
Layer (type)                 Output Shape              Param #   
=================================================================
dense_7 (Dense)              (None, 128)               3072      
_________________________________________________________________
batch_normalization_6 (Batch (None, 128)               512       
_________________________________________________________________
activation_7 (Activation)    (None, 128)               0         
_________________________________________________________________
dropout_6 (Dropout)          (None, 128)               0         
_________________________________________________________________
dense_8 (Dense)              (None, 128)               16512     
_________________________________________________________________
batch_normalization_7 (Batch (None, 128)               512       
_________________________________________________________________
activation_8 (Activation)    (None, 128)               0         
_________________________________________________________________
dropout_7 (Dropout)          (None, 128)               0         
_________________________________________________________________
dense_9 (Dense)              (None, 128)               16512     
_________________________________________________________________
batch_normalization_8 (Batch (None, 128)               512       
_________________________________________________________________
activation_9 (Activation)    (None, 128)               0         
_________________________________________________________________
dropout_8 (Dropout)          (None, 128)               0         
_________________________________________________________________
dense_10 (Dense)             (None, 128)               16512     
_________________________________________________________________
batch_normalization_9 (Batch (None, 128)               512       
_________________________________________________________________
activation_10 (Activation)   (None, 128)               0         
_________________________________________________________________
dropout_9 (Dropout)          (None, 128)               0         
_________________________________________________________________
dense_11 (Dense)             (None, 128)               16512     
_________________________________________________________________
batch_normalization_10 (Batc (None, 128)               512       
_________________________________________________________________
activation_11 (Activation)   (None, 128)               0         
_________________________________________________________________
dropout_10 (Dropout)         (None, 128)               0         
_________________________________________________________________
dense_12 (Dense)             (None, 2)                 258       
_________________________________________________________________
activation_12 (Activation)   (None, 2)                 0         
=================================================================
Total params: 71,938
Trainable params: 70,658
Non-trainable params: 1,280
_________________________________________________________________
---sig_test---
<self.testtree_sig> OutTree/sig
/data6/Users/jhchoi/TMVA/TMVA_TOOL/inputs/EEMu_MuMuE_Method/v2405.4/2018/EEMu_MuMuE_Method_DYJetsToEE_MiNNLO.root
/data6/Users/jhchoi/TMVA/TMVA_TOOL/inputs/EEMu_MuMuE_Method/v2405.4/2018/EEMu_MuMuE_Method_DYJetsToMuMu_MiNNLO.root
…
--SKIP FOLLOWING VARS
['belectron_full5x5sigmaietaieta', 'fabs(belectron_detaseed)', 'belectron_HoverE']
sigcut-> (belectron_charge*bjet_partonFlavour < 0)&&(Has_bElectron)
bkgcut-> (belectron_charge*bjet_partonFlavour > 0)&&(Has_bElectron)
<sig cut>= (belectron_charge*bjet_partonFlavour < 0)&&(Has_bElectron)
<bkg cut>= (belectron_charge*bjet_partonFlavour > 0)&&(Has_bElectron)
_________________________________________________________________
Layer (type)                 Output Shape              Param #   
=================================================================
dense_13 (Dense)             (None, 128)               2944      
_________________________________________________________________
batch_normalization_11 (Batc (None, 128)               512       
_________________________________________________________________
activation_13 (Activation)   (None, 128)               0         
_________________________________________________________________
dropout_11 (Dropout)         (None, 128)               0         
_________________________________________________________________
dense_14 (Dense)             (None, 128)               16512     
_________________________________________________________________
batch_normalization_12 (Batc (None, 128)               512       
_________________________________________________________________
activation_14 (Activation)   (None, 128)               0         
_________________________________________________________________
dropout_12 (Dropout)         (None, 128)               0         
_________________________________________________________________
dense_15 (Dense)             (None, 128)               16512     
_________________________________________________________________
batch_normalization_13 (Batc (None, 128)               512       
_________________________________________________________________
activation_15 (Activation)   (None, 128)               0         
_________________________________________________________________
dropout_13 (Dropout)         (None, 128)               0         
_________________________________________________________________
dense_16 (Dense)             (None, 128)               16512     
_________________________________________________________________
batch_normalization_14 (Batc (None, 128)               512       
_________________________________________________________________
activation_16 (Activation)   (None, 128)               0         
_________________________________________________________________
dropout_14 (Dropout)         (None, 128)               0         
_________________________________________________________________
dense_17 (Dense)             (None, 128)               16512     
_________________________________________________________________
batch_normalization_15 (Batc (None, 128)               512       
_________________________________________________________________
activation_17 (Activation)   (None, 128)               0         
_________________________________________________________________
dropout_15 (Dropout)         (None, 128)               0         
_________________________________________________________________
dense_18 (Dense)             (None, 2)                 258       
_________________________________________________________________
activation_18 (Activation)   (None, 2)                 0         
=================================================================
Total params: 71,810
Trainable params: 70,530
Non-trainable params: 1,280
_________________________________________________________________
---sig_test---
<self.testtree_sig> OutTree/sig
/data6/Users/jhchoi/TMVA/TMVA_TOOL/inputs/EEMu_MuMuE_Method/v2405.4/2018/EEMu_MuMuE_Method_DYJetsToEE_MiNNLO.root
/data6/Users/jhchoi/TMVA/TMVA_TOOL/inputs/EEMu_MuMuE_Method/v2405.4/2018/EEMu_MuMuE_Method_DYJetsToMuMu_MiNNLO.root
…
['belectron_full5x5sigmaietaieta', 'fabs(belectron_detaseed)', 'belectron_HoverE', 'belectron_InvEminusInvP']
sigcut-> (belectron_charge*bjet_partonFlavour < 0)&&(Has_bElectron)
bkgcut-> (belectron_charge*bjet_partonFlavour > 0)&&(Has_bElectron)
<sig cut>= (belectron_charge*bjet_partonFlavour < 0)&&(Has_bElectron)
<bkg cut>= (belectron_charge*bjet_partonFlavour > 0)&&(Has_bElectron)
_________________________________________________________________
Layer (type)                 Output Shape              Param #   
=================================================================
dense_19 (Dense)             (None, 128)               2816      
_________________________________________________________________
batch_normalization_16 (Batc (None, 128)               512       
_________________________________________________________________
activation_19 (Activation)   (None, 128)               0         
_________________________________________________________________
dropout_16 (Dropout)         (None, 128)               0         
_________________________________________________________________
dense_20 (Dense)             (None, 128)               16512     
_________________________________________________________________
batch_normalization_17 (Batc (None, 128)               512       
_________________________________________________________________
activation_20 (Activation)   (None, 128)               0         
_________________________________________________________________
dropout_17 (Dropout)         (None, 128)               0         
_________________________________________________________________
dense_21 (Dense)             (None, 128)               16512     
_________________________________________________________________
batch_normalization_18 (Batc (None, 128)               512       
_________________________________________________________________
activation_21 (Activation)   (None, 128)               0         
_________________________________________________________________
dropout_18 (Dropout)         (None, 128)               0         
_________________________________________________________________
dense_22 (Dense)             (None, 128)               16512     
_________________________________________________________________
batch_normalization_19 (Batc (None, 128)               512       
_________________________________________________________________
activation_22 (Activation)   (None, 128)               0         
_________________________________________________________________
dropout_19 (Dropout)         (None, 128)               0         
_________________________________________________________________
dense_23 (Dense)             (None, 128)               16512     
_________________________________________________________________
batch_normalization_20 (Batc (None, 128)               512       
_________________________________________________________________
activation_23 (Activation)   (None, 128)               0         
_________________________________________________________________
dropout_20 (Dropout)         (None, 128)               0         
_________________________________________________________________
dense_24 (Dense)             (None, 2)                 258       
_________________________________________________________________
activation_24 (Activation)   (None, 2)                 0         
=================================================================
Total params: 71,682
Trainable params: 70,402
Non-trainable params: 1,280
_________________________________________________________________
---sig_test---
<self.testtree_sig> OutTree/sig
/data6/Users/jhchoi/TMVA/TMVA_TOOL/inputs/EEMu_MuMuE_Method/v2405.4/2018/EEMu_MuMuE_Method_DYJetsToEE_MiNNLO.root
/data6/Users/jhchoi/TMVA/TMVA_TOOL/inputs/EEMu_MuMuE_Method/v2405.4/2018/EEMu_MuMuE_Method_DYJetsToMuMu_MiNNLO.root
…
['belectron_full5x5sigmaietaieta', 'fabs(belectron_detaseed)', 'belectron_HoverE', 'belectron_reltrkiso', 'belectron_reliso']
sigcut-> (belectron_charge*bjet_partonFlavour < 0)&&(Has_bElectron)
bkgcut-> (belectron_charge*bjet_partonFlavour > 0)&&(Has_bElectron)
<sig cut>= (belectron_charge*bjet_partonFlavour < 0)&&(Has_bElectron)
<bkg cut>= (belectron_charge*bjet_partonFlavour > 0)&&(Has_bElectron)
_________________________________________________________________
Layer (type)                 Output Shape              Param #   
=================================================================
dense_61 (Dense)             (None, 128)               2688      
_________________________________________________________________
batch_normalization_51 (Batc (None, 128)               512       
_________________________________________________________________
activation_61 (Activation)   (None, 128)               0         
_________________________________________________________________
dropout_51 (Dropout)         (None, 128)               0         
_________________________________________________________________
dense_62 (Dense)             (None, 128)               16512     
_________________________________________________________________
batch_normalization_52 (Batc (None, 128)               512       
_________________________________________________________________
activation_62 (Activation)   (None, 128)               0         
_________________________________________________________________
dropout_52 (Dropout)         (None, 128)               0         
_________________________________________________________________
dense_63 (Dense)             (None, 128)               16512     
_________________________________________________________________
batch_normalization_53 (Batc (None, 128)               512       
_________________________________________________________________
activation_63 (Activation)   (None, 128)               0         
_________________________________________________________________
dropout_53 (Dropout)         (None, 128)               0         
_________________________________________________________________
dense_64 (Dense)             (None, 128)               16512     
_________________________________________________________________
batch_normalization_54 (Batc (None, 128)               512       
_________________________________________________________________
activation_64 (Activation)   (None, 128)               0         
_________________________________________________________________
dropout_54 (Dropout)         (None, 128)               0         
_________________________________________________________________
dense_65 (Dense)             (None, 128)               16512     
_________________________________________________________________
batch_normalization_55 (Batc (None, 128)               512       
_________________________________________________________________
activation_65 (Activation)   (None, 128)               0         
_________________________________________________________________
dropout_55 (Dropout)         (None, 128)               0         
_________________________________________________________________
dense_66 (Dense)             (None, 2)                 258       
_________________________________________________________________
activation_66 (Activation)   (None, 2)                 0         
=================================================================
Total params: 71,554
Trainable params: 70,274
Non-trainable params: 1,280
_________________________________________________________________
---sig_test---
<self.testtree_sig> OutTree/sig
/data6/Users/jhchoi/TMVA/TMVA_TOOL/inputs/EEMu_MuMuE_Method/v2405.4/2018/EEMu_MuMuE_Method_DYJetsToEE_MiNNLO.root
/data6/Users/jhchoi/TMVA/TMVA_TOOL/inputs/EEMu_MuMuE_Method/v2405.4/2018/EEMu_MuMuE_Method_DYJetsToMuMu_MiNNLO.root
…
['belectron_full5x5sigmaietaieta', 'fabs(belectron_detaseed)', 'belectron_HoverE', 'belectron_reltrkiso', 'belectron_reliso', 'belectron_aeta']
sigcut-> (belectron_charge*bjet_partonFlavour < 0)&&(Has_bElectron)
bkgcut-> (belectron_charge*bjet_partonFlavour > 0)&&(Has_bElectron)
<sig cut>= (belectron_charge*bjet_partonFlavour < 0)&&(Has_bElectron)
<bkg cut>= (belectron_charge*bjet_partonFlavour > 0)&&(Has_bElectron)
_________________________________________________________________
Layer (type)                 Output Shape              Param #   
=================================================================
dense_67 (Dense)             (None, 128)               2560      
_________________________________________________________________
batch_normalization_56 (Batc (None, 128)               512       
_________________________________________________________________
activation_67 (Activation)   (None, 128)               0         
_________________________________________________________________
dropout_56 (Dropout)         (None, 128)               0         
_________________________________________________________________
dense_68 (Dense)             (None, 128)               16512     
_________________________________________________________________
batch_normalization_57 (Batc (None, 128)               512       
_________________________________________________________________
activation_68 (Activation)   (None, 128)               0         
_________________________________________________________________
dropout_57 (Dropout)         (None, 128)               0         
_________________________________________________________________
dense_69 (Dense)             (None, 128)               16512     
_________________________________________________________________
batch_normalization_58 (Batc (None, 128)               512       
_________________________________________________________________
activation_69 (Activation)   (None, 128)               0         
_________________________________________________________________
dropout_58 (Dropout)         (None, 128)               0         
_________________________________________________________________
dense_70 (Dense)             (None, 128)               16512     
_________________________________________________________________
batch_normalization_59 (Batc (None, 128)               512       
_________________________________________________________________
activation_70 (Activation)   (None, 128)               0         
_________________________________________________________________
dropout_59 (Dropout)         (None, 128)               0         
_________________________________________________________________
dense_71 (Dense)             (None, 128)               16512     
_________________________________________________________________
batch_normalization_60 (Batc (None, 128)               512       
_________________________________________________________________
activation_71 (Activation)   (None, 128)               0         
_________________________________________________________________
dropout_60 (Dropout)         (None, 128)               0         
_________________________________________________________________
dense_72 (Dense)             (None, 2)                 258       
_________________________________________________________________
activation_72 (Activation)   (None, 2)                 0         
=================================================================
Total params: 71,426
Trainable params: 70,146
Non-trainable params: 1,280
_________________________________________________________________
---sig_test---
<self.testtree_sig> OutTree/sig
/data6/Users/jhchoi/TMVA/TMVA_TOOL/inputs/EEMu_MuMuE_Method/v2405.4/2018/EEMu_MuMuE_Method_DYJetsToEE_MiNNLO.root
/data6/Users/jhchoi/TMVA/TMVA_TOOL/inputs/EEMu_MuMuE_Method/v2405.4/2018/EEMu_MuMuE_Method_DYJetsToMuMu_MiNNLO.root
…
['belectron_full5x5sigmaietaieta', 'fabs(belectron_detaseed)', 'belectron_HoverE', 'belectron_reltrkiso', 'belectron_reliso', 'belectron_aeta', 'belectron_pt']
sigcut-> (belectron_charge*bjet_partonFlavour < 0)&&(Has_bElectron)
bkgcut-> (belectron_charge*bjet_partonFlavour > 0)&&(Has_bElectron)
<sig cut>= (belectron_charge*bjet_partonFlavour < 0)&&(Has_bElectron)
<bkg cut>= (belectron_charge*bjet_partonFlavour > 0)&&(Has_bElectron)
_________________________________________________________________
Layer (type)                 Output Shape              Param #   
=================================================================
dense_73 (Dense)             (None, 128)               2432      
_________________________________________________________________
batch_normalization_61 (Batc (None, 128)               512       
_________________________________________________________________
activation_73 (Activation)   (None, 128)               0         
_________________________________________________________________
dropout_61 (Dropout)         (None, 128)               0         
_________________________________________________________________
dense_74 (Dense)             (None, 128)               16512     
_________________________________________________________________
batch_normalization_62 (Batc (None, 128)               512       
_________________________________________________________________
activation_74 (Activation)   (None, 128)               0         
_________________________________________________________________
dropout_62 (Dropout)         (None, 128)               0         
_________________________________________________________________
dense_75 (Dense)             (None, 128)               16512     
_________________________________________________________________
batch_normalization_63 (Batc (None, 128)               512       
_________________________________________________________________
activation_75 (Activation)   (None, 128)               0         
_________________________________________________________________
dropout_63 (Dropout)         (None, 128)               0         
_________________________________________________________________
dense_76 (Dense)             (None, 128)               16512     
_________________________________________________________________
batch_normalization_64 (Batc (None, 128)               512       
_________________________________________________________________
activation_76 (Activation)   (None, 128)               0         
_________________________________________________________________
dropout_64 (Dropout)         (None, 128)               0         
_________________________________________________________________
dense_77 (Dense)             (None, 128)               16512     
_________________________________________________________________
batch_normalization_65 (Batc (None, 128)               512       
_________________________________________________________________
activation_77 (Activation)   (None, 128)               0         
_________________________________________________________________
dropout_65 (Dropout)         (None, 128)               0         
_________________________________________________________________
dense_78 (Dense)             (None, 2)                 258       
_________________________________________________________________
activation_78 (Activation)   (None, 2)                 0         
=================================================================
Total params: 71,298
Trainable params: 70,018
Non-trainable params: 1,280
_________________________________________________________________
---sig_test---
<self.testtree_sig> OutTree/sig
/data6/Users/jhchoi/TMVA/TMVA_TOOL/inputs/EEMu_MuMuE_Method/v2405.4/2018/EEMu_MuMuE_Method_DYJetsToEE_MiNNLO.root
/data6/Users/jhchoi/TMVA/TMVA_TOOL/inputs/EEMu_MuMuE_Method/v2405.4/2018/EEMu_MuMuE_Method_DYJetsToMuMu_MiNNLO.root
…
['belectron_full5x5sigmaietaieta', 'fabs(belectron_detaseed)', 'belectron_HoverE', 'belectron_reltrkiso', 'belectron_reliso', 'belectron_aeta', 'belectron_pt', 'belectron_dR_l_j']
sigcut-> (belectron_charge*bjet_partonFlavour < 0)&&(Has_bElectron)
bkgcut-> (belectron_charge*bjet_partonFlavour > 0)&&(Has_bElectron)
<sig cut>= (belectron_charge*bjet_partonFlavour < 0)&&(Has_bElectron)
<bkg cut>= (belectron_charge*bjet_partonFlavour > 0)&&(Has_bElectron)
_________________________________________________________________
Layer (type)                 Output Shape              Param #   
=================================================================
dense_85 (Dense)             (None, 128)               2304      
_________________________________________________________________
batch_normalization_71 (Batc (None, 128)               512       
_________________________________________________________________
activation_85 (Activation)   (None, 128)               0         
_________________________________________________________________
dropout_71 (Dropout)         (None, 128)               0         
_________________________________________________________________
dense_86 (Dense)             (None, 128)               16512     
_________________________________________________________________
batch_normalization_72 (Batc (None, 128)               512       
_________________________________________________________________
activation_86 (Activation)   (None, 128)               0         
_________________________________________________________________
dropout_72 (Dropout)         (None, 128)               0         
_________________________________________________________________
dense_87 (Dense)             (None, 128)               16512     
_________________________________________________________________
batch_normalization_73 (Batc (None, 128)               512       
_________________________________________________________________
activation_87 (Activation)   (None, 128)               0         
_________________________________________________________________
dropout_73 (Dropout)         (None, 128)               0         
_________________________________________________________________
dense_88 (Dense)             (None, 128)               16512     
_________________________________________________________________
batch_normalization_74 (Batc (None, 128)               512       
_________________________________________________________________
activation_88 (Activation)   (None, 128)               0         
_________________________________________________________________
dropout_74 (Dropout)         (None, 128)               0         
_________________________________________________________________
dense_89 (Dense)             (None, 128)               16512     
_________________________________________________________________
batch_normalization_75 (Batc (None, 128)               512       
_________________________________________________________________
activation_89 (Activation)   (None, 128)               0         
_________________________________________________________________
dropout_75 (Dropout)         (None, 128)               0         
_________________________________________________________________
dense_90 (Dense)             (None, 2)                 258       
_________________________________________________________________
activation_90 (Activation)   (None, 2)                 0         
=================================================================
Total params: 71,170
Trainable params: 69,890
Non-trainable params: 1,280
_________________________________________________________________
---sig_test---
<self.testtree_sig> OutTree/sig
/data6/Users/jhchoi/TMVA/TMVA_TOOL/inputs/EEMu_MuMuE_Method/v2405.4/2018/EEMu_MuMuE_Method_DYJetsToEE_MiNNLO.root
/data6/Users/jhchoi/TMVA/TMVA_TOOL/inputs/EEMu_MuMuE_Method/v2405.4/2018/EEMu_MuMuE_Method_DYJetsToMuMu_MiNNLO.root
…
['belectron_full5x5sigmaietaieta', 'fabs(belectron_detaseed)', 'belectron_HoverE', 'belectron_reltrkiso', 'belectron_reliso', 'belectron_aeta', 'belectron_pt', 'belectron_dR_l_j', 'belectron_palongjet']
sigcut-> (belectron_charge*bjet_partonFlavour < 0)&&(Has_bElectron)
bkgcut-> (belectron_charge*bjet_partonFlavour > 0)&&(Has_bElectron)
<sig cut>= (belectron_charge*bjet_partonFlavour < 0)&&(Has_bElectron)
<bkg cut>= (belectron_charge*bjet_partonFlavour > 0)&&(Has_bElectron)
_________________________________________________________________
Layer (type)                 Output Shape              Param #   
=================================================================
dense_91 (Dense)             (None, 128)               2176      
_________________________________________________________________
batch_normalization_76 (Batc (None, 128)               512       
_________________________________________________________________
activation_91 (Activation)   (None, 128)               0         
_________________________________________________________________
dropout_76 (Dropout)         (None, 128)               0         
_________________________________________________________________
dense_92 (Dense)             (None, 128)               16512     
_________________________________________________________________
batch_normalization_77 (Batc (None, 128)               512       
_________________________________________________________________
activation_92 (Activation)   (None, 128)               0         
_________________________________________________________________
dropout_77 (Dropout)         (None, 128)               0         
_________________________________________________________________
dense_93 (Dense)             (None, 128)               16512     
_________________________________________________________________
batch_normalization_78 (Batc (None, 128)               512       
_________________________________________________________________
activation_93 (Activation)   (None, 128)               0         
_________________________________________________________________
dropout_78 (Dropout)         (None, 128)               0         
_________________________________________________________________
dense_94 (Dense)             (None, 128)               16512     
_________________________________________________________________
batch_normalization_79 (Batc (None, 128)               512       
_________________________________________________________________
activation_94 (Activation)   (None, 128)               0         
_________________________________________________________________
dropout_79 (Dropout)         (None, 128)               0         
_________________________________________________________________
dense_95 (Dense)             (None, 128)               16512     
_________________________________________________________________
batch_normalization_80 (Batc (None, 128)               512       
_________________________________________________________________
activation_95 (Activation)   (None, 128)               0         
_________________________________________________________________
dropout_80 (Dropout)         (None, 128)               0         
_________________________________________________________________
dense_96 (Dense)             (None, 2)                 258       
_________________________________________________________________
activation_96 (Activation)   (None, 2)                 0         
=================================================================
Total params: 71,042
Trainable params: 69,762
Non-trainable params: 1,280
_________________________________________________________________
---sig_test---
<self.testtree_sig> OutTree/sig
/data6/Users/jhchoi/TMVA/TMVA_TOOL/inputs/EEMu_MuMuE_Method/v2405.4/2018/EEMu_MuMuE_Method_DYJetsToEE_MiNNLO.root
/data6/Users/jhchoi/TMVA/TMVA_TOOL/inputs/EEMu_MuMuE_Method/v2405.4/2018/EEMu_MuMuE_Method_DYJetsToMuMu_MiNNLO.root
…
['belectron_full5x5sigmaietaieta', 'fabs(belectron_detaseed)', 'belectron_HoverE', 'belectron_reltrkiso', 'belectron_reliso', 'belectron_aeta', 'belectron_pt', 'belectron_dR_l_j', 'belectron_palongjet', 'belectron_palongjetratio']
sigcut-> (belectron_charge*bjet_partonFlavour < 0)&&(Has_bElectron)
bkgcut-> (belectron_charge*bjet_partonFlavour > 0)&&(Has_bElectron)
<sig cut>= (belectron_charge*bjet_partonFlavour < 0)&&(Has_bElectron)
<bkg cut>= (belectron_charge*bjet_partonFlavour > 0)&&(Has_bElectron)
_________________________________________________________________
Layer (type)                 Output Shape              Param #   
=================================================================
dense_103 (Dense)            (None, 128)               2048      
_________________________________________________________________
batch_normalization_86 (Batc (None, 128)               512       
_________________________________________________________________
activation_103 (Activation)  (None, 128)               0         
_________________________________________________________________
dropout_86 (Dropout)         (None, 128)               0         
_________________________________________________________________
dense_104 (Dense)            (None, 128)               16512     
_________________________________________________________________
batch_normalization_87 (Batc (None, 128)               512       
_________________________________________________________________
activation_104 (Activation)  (None, 128)               0         
_________________________________________________________________
dropout_87 (Dropout)         (None, 128)               0         
_________________________________________________________________
dense_105 (Dense)            (None, 128)               16512     
_________________________________________________________________
batch_normalization_88 (Batc (None, 128)               512       
_________________________________________________________________
activation_105 (Activation)  (None, 128)               0         
_________________________________________________________________
dropout_88 (Dropout)         (None, 128)               0         
_________________________________________________________________
dense_106 (Dense)            (None, 128)               16512     
_________________________________________________________________
batch_normalization_89 (Batc (None, 128)               512       
_________________________________________________________________
activation_106 (Activation)  (None, 128)               0         
_________________________________________________________________
dropout_89 (Dropout)         (None, 128)               0         
_________________________________________________________________
dense_107 (Dense)            (None, 128)               16512     
_________________________________________________________________
batch_normalization_90 (Batc (None, 128)               512       
_________________________________________________________________
activation_107 (Activation)  (None, 128)               0         
_________________________________________________________________
dropout_90 (Dropout)         (None, 128)               0         
_________________________________________________________________
dense_108 (Dense)            (None, 2)                 258       
_________________________________________________________________
activation_108 (Activation)  (None, 2)                 0         
=================================================================
Total params: 70,914
Trainable params: 69,634
Non-trainable params: 1,280
_________________________________________________________________
---sig_test---
<self.testtree_sig> OutTree/sig
/data6/Users/jhchoi/TMVA/TMVA_TOOL/inputs/EEMu_MuMuE_Method/v2405.4/2018/EEMu_MuMuE_Method_DYJetsToEE_MiNNLO.root
/data6/Users/jhchoi/TMVA/TMVA_TOOL/inputs/EEMu_MuMuE_Method/v2405.4/2018/EEMu_MuMuE_Method_DYJetsToMuMu_MiNNLO.root
…
['belectron_full5x5sigmaietaieta', 'fabs(belectron_detaseed)', 'belectron_HoverE', 'belectron_reltrkiso', 'belectron_reliso', 'belectron_aeta', 'belectron_pt', 'belectron_dR_l_j', 'belectron_palongjet', 'belectron_P_jetrest', 'bjet_charge*belectron_charge']
sigcut-> (belectron_charge*bjet_partonFlavour < 0)&&(Has_bElectron)
bkgcut-> (belectron_charge*bjet_partonFlavour > 0)&&(Has_bElectron)
<sig cut>= (belectron_charge*bjet_partonFlavour < 0)&&(Has_bElectron)
<bkg cut>= (belectron_charge*bjet_partonFlavour > 0)&&(Has_bElectron)
_________________________________________________________________
Layer (type)                 Output Shape              Param #   
=================================================================
dense_145 (Dense)            (None, 128)               1920      
_________________________________________________________________
batch_normalization_121 (Bat (None, 128)               512       
_________________________________________________________________
activation_145 (Activation)  (None, 128)               0         
_________________________________________________________________
dropout_121 (Dropout)        (None, 128)               0         
_________________________________________________________________
dense_146 (Dense)            (None, 128)               16512     
_________________________________________________________________
batch_normalization_122 (Bat (None, 128)               512       
_________________________________________________________________
activation_146 (Activation)  (None, 128)               0         
_________________________________________________________________
dropout_122 (Dropout)        (None, 128)               0         
_________________________________________________________________
dense_147 (Dense)            (None, 128)               16512     
_________________________________________________________________
batch_normalization_123 (Bat (None, 128)               512       
_________________________________________________________________
activation_147 (Activation)  (None, 128)               0         
_________________________________________________________________
dropout_123 (Dropout)        (None, 128)               0         
_________________________________________________________________
dense_148 (Dense)            (None, 128)               16512     
_________________________________________________________________
batch_normalization_124 (Bat (None, 128)               512       
_________________________________________________________________
activation_148 (Activation)  (None, 128)               0         
_________________________________________________________________
dropout_124 (Dropout)        (None, 128)               0         
_________________________________________________________________
dense_149 (Dense)            (None, 128)               16512     
_________________________________________________________________
batch_normalization_125 (Bat (None, 128)               512       
_________________________________________________________________
activation_149 (Activation)  (None, 128)               0         
_________________________________________________________________
dropout_125 (Dropout)        (None, 128)               0         
_________________________________________________________________
dense_150 (Dense)            (None, 2)                 258       
_________________________________________________________________
activation_150 (Activation)  (None, 2)                 0         
=================================================================
Total params: 70,786
Trainable params: 69,506
Non-trainable params: 1,280
_________________________________________________________________
---sig_test---
<self.testtree_sig> OutTree/sig
/data6/Users/jhchoi/TMVA/TMVA_TOOL/inputs/EEMu_MuMuE_Method/v2405.4/2018/EEMu_MuMuE_Method_DYJetsToEE_MiNNLO.root
/data6/Users/jhchoi/TMVA/TMVA_TOOL/inputs/EEMu_MuMuE_Method/v2405.4/2018/EEMu_MuMuE_Method_DYJetsToMuMu_MiNNLO.root
…
['belectron_full5x5sigmaietaieta', 'fabs(belectron_detaseed)', 'belectron_HoverE', 'belectron_reltrkiso', 'belectron_reliso', 'belectron_aeta', 'belectron_pt', 'belectron_dR_l_j', 'belectron_palongjet', 'belectron_P_jetrest', 'bjet_ChargedHadronEnergyFraction', 'bjet_NeutralHadronEnergyFraction']
sigcut-> (belectron_charge*bjet_partonFlavour < 0)&&(Has_bElectron)
bkgcut-> (belectron_charge*bjet_partonFlavour > 0)&&(Has_bElectron)
<sig cut>= (belectron_charge*bjet_partonFlavour < 0)&&(Has_bElectron)
<bkg cut>= (belectron_charge*bjet_partonFlavour > 0)&&(Has_bElectron)
_________________________________________________________________
Layer (type)                 Output Shape              Param #   
=================================================================
dense_169 (Dense)            (None, 128)               1792      
_________________________________________________________________
batch_normalization_141 (Bat (None, 128)               512       
_________________________________________________________________
activation_169 (Activation)  (None, 128)               0         
_________________________________________________________________
dropout_141 (Dropout)        (None, 128)               0         
_________________________________________________________________
dense_170 (Dense)            (None, 128)               16512     
_________________________________________________________________
batch_normalization_142 (Bat (None, 128)               512       
_________________________________________________________________
activation_170 (Activation)  (None, 128)               0         
_________________________________________________________________
dropout_142 (Dropout)        (None, 128)               0         
_________________________________________________________________
dense_171 (Dense)            (None, 128)               16512     
_________________________________________________________________
batch_normalization_143 (Bat (None, 128)               512       
_________________________________________________________________
activation_171 (Activation)  (None, 128)               0         
_________________________________________________________________
dropout_143 (Dropout)        (None, 128)               0         
_________________________________________________________________
dense_172 (Dense)            (None, 128)               16512     
_________________________________________________________________
batch_normalization_144 (Bat (None, 128)               512       
_________________________________________________________________
activation_172 (Activation)  (None, 128)               0         
_________________________________________________________________
dropout_144 (Dropout)        (None, 128)               0         
_________________________________________________________________
dense_173 (Dense)            (None, 128)               16512     
_________________________________________________________________
batch_normalization_145 (Bat (None, 128)               512       
_________________________________________________________________
activation_173 (Activation)  (None, 128)               0         
_________________________________________________________________
dropout_145 (Dropout)        (None, 128)               0         
_________________________________________________________________
dense_174 (Dense)            (None, 2)                 258       
_________________________________________________________________
activation_174 (Activation)  (None, 2)                 0         
=================================================================
Total params: 70,658
Trainable params: 69,378
Non-trainable params: 1,280
_________________________________________________________________
---sig_test---
<self.testtree_sig> OutTree/sig
/data6/Users/jhchoi/TMVA/TMVA_TOOL/inputs/EEMu_MuMuE_Method/v2405.4/2018/EEMu_MuMuE_Method_DYJetsToEE_MiNNLO.root
/data6/Users/jhchoi/TMVA/TMVA_TOOL/inputs/EEMu_MuMuE_Method/v2405.4/2018/EEMu_MuMuE_Method_DYJetsToMuMu_MiNNLO.root
…
['belectron_full5x5sigmaietaieta', 'fabs(belectron_detaseed)', 'belectron_HoverE', 'belectron_reltrkiso', 'belectron_reliso', 'belectron_aeta', 'belectron_pt', 'belectron_dR_l_j', 'belectron_palongjet', 'belectron_P_jetrest', 'bjet_ChargedHadronEnergyFraction', 'bjet_MuonEnergyFraction', 'bjet_ChargedMultiplicity']
sigcut-> (belectron_charge*bjet_partonFlavour < 0)&&(Has_bElectron)
bkgcut-> (belectron_charge*bjet_partonFlavour > 0)&&(Has_bElectron)
<sig cut>= (belectron_charge*bjet_partonFlavour < 0)&&(Has_bElectron)
<bkg cut>= (belectron_charge*bjet_partonFlavour > 0)&&(Has_bElectron)
_________________________________________________________________
Layer (type)                 Output Shape              Param #   
=================================================================
dense_241 (Dense)            (None, 128)               1664      
_________________________________________________________________
batch_normalization_201 (Bat (None, 128)               512       
_________________________________________________________________
activation_241 (Activation)  (None, 128)               0         
_________________________________________________________________
dropout_201 (Dropout)        (None, 128)               0         
_________________________________________________________________
dense_242 (Dense)            (None, 128)               16512     
_________________________________________________________________
batch_normalization_202 (Bat (None, 128)               512       
_________________________________________________________________
activation_242 (Activation)  (None, 128)               0         
_________________________________________________________________
dropout_202 (Dropout)        (None, 128)               0         
_________________________________________________________________
dense_243 (Dense)            (None, 128)               16512     
_________________________________________________________________
batch_normalization_203 (Bat (None, 128)               512       
_________________________________________________________________
activation_243 (Activation)  (None, 128)               0         
_________________________________________________________________
dropout_203 (Dropout)        (None, 128)               0         
_________________________________________________________________
dense_244 (Dense)            (None, 128)               16512     
_________________________________________________________________
batch_normalization_204 (Bat (None, 128)               512       
_________________________________________________________________
activation_244 (Activation)  (None, 128)               0         
_________________________________________________________________
dropout_204 (Dropout)        (None, 128)               0         
_________________________________________________________________
dense_245 (Dense)            (None, 128)               16512     
_________________________________________________________________
batch_normalization_205 (Bat (None, 128)               512       
_________________________________________________________________
activation_245 (Activation)  (None, 128)               0         
_________________________________________________________________
dropout_205 (Dropout)        (None, 128)               0         
_________________________________________________________________
dense_246 (Dense)            (None, 2)                 258       
_________________________________________________________________
activation_246 (Activation)  (None, 2)                 0         
=================================================================
Total params: 70,530
Trainable params: 69,250
Non-trainable params: 1,280
_________________________________________________________________
---sig_test---
<self.testtree_sig> OutTree/sig
/data6/Users/jhchoi/TMVA/TMVA_TOOL/inputs/EEMu_MuMuE_Method/v2405.4/2018/EEMu_MuMuE_Method_DYJetsToEE_MiNNLO.root
/data6/Users/jhchoi/TMVA/TMVA_TOOL/inputs/EEMu_MuMuE_Method/v2405.4/2018/EEMu_MuMuE_Method_DYJetsToMuMu_MiNNLO.root
…
['belectron_full5x5sigmaietaieta', 'fabs(belectron_detaseed)', 'belectron_HoverE', 'belectron_reltrkiso', 'belectron_reliso', 'belectron_aeta', 'belectron_pt', 'belectron_dR_l_j', 'belectron_palongjet', 'belectron_P_jetrest', 'bjet_ChargedHadronEnergyFraction', 'bjet_MuonEnergyFraction', 'bjet_NeutralMultiplicity', 'bjet_pt']
sigcut-> (belectron_charge*bjet_partonFlavour < 0)&&(Has_bElectron)
bkgcut-> (belectron_charge*bjet_partonFlavour > 0)&&(Has_bElectron)
<sig cut>= (belectron_charge*bjet_partonFlavour < 0)&&(Has_bElectron)
<bkg cut>= (belectron_charge*bjet_partonFlavour > 0)&&(Has_bElectron)
_________________________________________________________________
Layer (type)                 Output Shape              Param #   
=================================================================
dense_277 (Dense)            (None, 128)               1536      
_________________________________________________________________
batch_normalization_231 (Bat (None, 128)               512       
_________________________________________________________________
activation_277 (Activation)  (None, 128)               0         
_________________________________________________________________
dropout_231 (Dropout)        (None, 128)               0         
_________________________________________________________________
dense_278 (Dense)            (None, 128)               16512     
_________________________________________________________________
batch_normalization_232 (Bat (None, 128)               512       
_________________________________________________________________
activation_278 (Activation)  (None, 128)               0         
_________________________________________________________________
dropout_232 (Dropout)        (None, 128)               0         
_________________________________________________________________
dense_279 (Dense)            (None, 128)               16512     
_________________________________________________________________
batch_normalization_233 (Bat (None, 128)               512       
_________________________________________________________________
activation_279 (Activation)  (None, 128)               0         
_________________________________________________________________
dropout_233 (Dropout)        (None, 128)               0         
_________________________________________________________________
dense_280 (Dense)            (None, 128)               16512     
_________________________________________________________________
batch_normalization_234 (Bat (None, 128)               512       
_________________________________________________________________
activation_280 (Activation)  (None, 128)               0         
_________________________________________________________________
dropout_234 (Dropout)        (None, 128)               0         
_________________________________________________________________
dense_281 (Dense)            (None, 128)               16512     
_________________________________________________________________
batch_normalization_235 (Bat (None, 128)               512       
_________________________________________________________________
activation_281 (Activation)  (None, 128)               0         
_________________________________________________________________
dropout_235 (Dropout)        (None, 128)               0         
_________________________________________________________________
dense_282 (Dense)            (None, 2)                 258       
_________________________________________________________________
activation_282 (Activation)  (None, 2)                 0         
=================================================================
Total params: 70,402
Trainable params: 69,122
Non-trainable params: 1,280
_________________________________________________________________
---sig_test---
<self.testtree_sig> OutTree/sig
/data6/Users/jhchoi/TMVA/TMVA_TOOL/inputs/EEMu_MuMuE_Method/v2405.4/2018/EEMu_MuMuE_Method_DYJetsToEE_MiNNLO.root
/data6/Users/jhchoi/TMVA/TMVA_TOOL/inputs/EEMu_MuMuE_Method/v2405.4/2018/EEMu_MuMuE_Method_DYJetsToMuMu_MiNNLO.root
…
