…
======
TEST-> belectron_full5x5sigmaietaieta
--SKIP FOLLOWING VARS
['belectron_full5x5sigmaietaieta']
sigcut-> (belectron_charge*bjet_partonFlavour < 0)&&(Has_bElectron)
bkgcut-> (belectron_charge*bjet_partonFlavour > 0)&&(Has_bElectron)
<sig cut>= (belectron_charge*bjet_partonFlavour < 0)&&(Has_bElectron)
<bkg cut>= (belectron_charge*bjet_partonFlavour > 0)&&(Has_bElectron)
_________________________________________________________________
Layer (type)                 Output Shape              Param #   
=================================================================
dense_1 (Dense)              (None, 128)               3200      
_________________________________________________________________
batch_normalization_1 (Batch (None, 128)               512       
_________________________________________________________________
activation_1 (Activation)    (None, 128)               0         
_________________________________________________________________
dropout_1 (Dropout)          (None, 128)               0         
_________________________________________________________________
dense_2 (Dense)              (None, 128)               16512     
_________________________________________________________________
batch_normalization_2 (Batch (None, 128)               512       
_________________________________________________________________
activation_2 (Activation)    (None, 128)               0         
_________________________________________________________________
dropout_2 (Dropout)          (None, 128)               0         
_________________________________________________________________
dense_3 (Dense)              (None, 128)               16512     
_________________________________________________________________
batch_normalization_3 (Batch (None, 128)               512       
_________________________________________________________________
activation_3 (Activation)    (None, 128)               0         
_________________________________________________________________
dropout_3 (Dropout)          (None, 128)               0         
_________________________________________________________________
dense_4 (Dense)              (None, 128)               16512     
_________________________________________________________________
batch_normalization_4 (Batch (None, 128)               512       
_________________________________________________________________
activation_4 (Activation)    (None, 128)               0         
_________________________________________________________________
dropout_4 (Dropout)          (None, 128)               0         
_________________________________________________________________
dense_5 (Dense)              (None, 128)               16512     
_________________________________________________________________
batch_normalization_5 (Batch (None, 128)               512       
_________________________________________________________________
activation_5 (Activation)    (None, 128)               0         
_________________________________________________________________
dropout_5 (Dropout)          (None, 128)               0         
_________________________________________________________________
dense_6 (Dense)              (None, 2)                 258       
_________________________________________________________________
activation_6 (Activation)    (None, 2)                 0         
=================================================================
Total params: 72,066
Trainable params: 70,786
Non-trainable params: 1,280
_________________________________________________________________
---sig_test---
<self.testtree_sig> OutTree/sig
/data6/Users/jhchoi/TMVA/TMVA_TOOL/inputs/EEMu_MuMuE_Method/v2405.4/2017/EEMu_MuMuE_Method_DYJetsToEE_MiNNLO.root
/data6/Users/jhchoi/TMVA/TMVA_TOOL/inputs/EEMu_MuMuE_Method/v2405.4/2017/EEMu_MuMuE_Method_DYJetsToMuMu_MiNNLO.root
…
TEST-> fabs(belectron_detaseed)
--SKIP FOLLOWING VARS
['belectron_full5x5sigmaietaieta', 'fabs(belectron_detaseed)']
sigcut-> (belectron_charge*bjet_partonFlavour < 0)&&(Has_bElectron)
bkgcut-> (belectron_charge*bjet_partonFlavour > 0)&&(Has_bElectron)
<sig cut>= (belectron_charge*bjet_partonFlavour < 0)&&(Has_bElectron)
<bkg cut>= (belectron_charge*bjet_partonFlavour > 0)&&(Has_bElectron)
_________________________________________________________________
Layer (type)                 Output Shape              Param #   
=================================================================
dense_7 (Dense)              (None, 128)               3072      
_________________________________________________________________
batch_normalization_6 (Batch (None, 128)               512       
_________________________________________________________________
activation_7 (Activation)    (None, 128)               0         
_________________________________________________________________
dropout_6 (Dropout)          (None, 128)               0         
_________________________________________________________________
dense_8 (Dense)              (None, 128)               16512     
_________________________________________________________________
batch_normalization_7 (Batch (None, 128)               512       
_________________________________________________________________
activation_8 (Activation)    (None, 128)               0         
_________________________________________________________________
dropout_7 (Dropout)          (None, 128)               0         
_________________________________________________________________
dense_9 (Dense)              (None, 128)               16512     
_________________________________________________________________
batch_normalization_8 (Batch (None, 128)               512       
_________________________________________________________________
activation_9 (Activation)    (None, 128)               0         
_________________________________________________________________
dropout_8 (Dropout)          (None, 128)               0         
_________________________________________________________________
dense_10 (Dense)             (None, 128)               16512     
_________________________________________________________________
batch_normalization_9 (Batch (None, 128)               512       
_________________________________________________________________
activation_10 (Activation)   (None, 128)               0         
_________________________________________________________________
dropout_9 (Dropout)          (None, 128)               0         
_________________________________________________________________
dense_11 (Dense)             (None, 128)               16512     
_________________________________________________________________
batch_normalization_10 (Batc (None, 128)               512       
_________________________________________________________________
activation_11 (Activation)   (None, 128)               0         
_________________________________________________________________
dropout_10 (Dropout)         (None, 128)               0         
_________________________________________________________________
dense_12 (Dense)             (None, 2)                 258       
_________________________________________________________________
activation_12 (Activation)   (None, 2)                 0         
=================================================================
Total params: 71,938
Trainable params: 70,658
Non-trainable params: 1,280
_________________________________________________________________
---sig_test---
<self.testtree_sig> OutTree/sig
/data6/Users/jhchoi/TMVA/TMVA_TOOL/inputs/EEMu_MuMuE_Method/v2405.4/2017/EEMu_MuMuE_Method_DYJetsToEE_MiNNLO.root
/data6/Users/jhchoi/TMVA/TMVA_TOOL/inputs/EEMu_MuMuE_Method/v2405.4/2017/EEMu_MuMuE_Method_DYJetsToMuMu_MiNNLO.root
…
--SKIP FOLLOWING VARS
['belectron_full5x5sigmaietaieta', 'fabs(belectron_detaseed)', 'belectron_HoverE']
sigcut-> (belectron_charge*bjet_partonFlavour < 0)&&(Has_bElectron)
bkgcut-> (belectron_charge*bjet_partonFlavour > 0)&&(Has_bElectron)
<sig cut>= (belectron_charge*bjet_partonFlavour < 0)&&(Has_bElectron)
<bkg cut>= (belectron_charge*bjet_partonFlavour > 0)&&(Has_bElectron)
_________________________________________________________________
Layer (type)                 Output Shape              Param #   
=================================================================
dense_19 (Dense)             (None, 128)               2944      
_________________________________________________________________
batch_normalization_16 (Batc (None, 128)               512       
_________________________________________________________________
activation_19 (Activation)   (None, 128)               0         
_________________________________________________________________
dropout_16 (Dropout)         (None, 128)               0         
_________________________________________________________________
dense_20 (Dense)             (None, 128)               16512     
_________________________________________________________________
batch_normalization_17 (Batc (None, 128)               512       
_________________________________________________________________
activation_20 (Activation)   (None, 128)               0         
_________________________________________________________________
dropout_17 (Dropout)         (None, 128)               0         
_________________________________________________________________
dense_21 (Dense)             (None, 128)               16512     
_________________________________________________________________
batch_normalization_18 (Batc (None, 128)               512       
_________________________________________________________________
activation_21 (Activation)   (None, 128)               0         
_________________________________________________________________
dropout_18 (Dropout)         (None, 128)               0         
_________________________________________________________________
dense_22 (Dense)             (None, 128)               16512     
_________________________________________________________________
batch_normalization_19 (Batc (None, 128)               512       
_________________________________________________________________
activation_22 (Activation)   (None, 128)               0         
_________________________________________________________________
dropout_19 (Dropout)         (None, 128)               0         
_________________________________________________________________
dense_23 (Dense)             (None, 128)               16512     
_________________________________________________________________
batch_normalization_20 (Batc (None, 128)               512       
_________________________________________________________________
activation_23 (Activation)   (None, 128)               0         
_________________________________________________________________
dropout_20 (Dropout)         (None, 128)               0         
_________________________________________________________________
dense_24 (Dense)             (None, 2)                 258       
_________________________________________________________________
activation_24 (Activation)   (None, 2)                 0         
=================================================================
Total params: 71,810
Trainable params: 70,530
Non-trainable params: 1,280
_________________________________________________________________
---sig_test---
<self.testtree_sig> OutTree/sig
/data6/Users/jhchoi/TMVA/TMVA_TOOL/inputs/EEMu_MuMuE_Method/v2405.4/2017/EEMu_MuMuE_Method_DYJetsToEE_MiNNLO.root
/data6/Users/jhchoi/TMVA/TMVA_TOOL/inputs/EEMu_MuMuE_Method/v2405.4/2017/EEMu_MuMuE_Method_DYJetsToMuMu_MiNNLO.root
…
['belectron_full5x5sigmaietaieta', 'fabs(belectron_detaseed)', 'belectron_HoverE', 'belectron_InvEminusInvP']
sigcut-> (belectron_charge*bjet_partonFlavour < 0)&&(Has_bElectron)
bkgcut-> (belectron_charge*bjet_partonFlavour > 0)&&(Has_bElectron)
<sig cut>= (belectron_charge*bjet_partonFlavour < 0)&&(Has_bElectron)
<bkg cut>= (belectron_charge*bjet_partonFlavour > 0)&&(Has_bElectron)
_________________________________________________________________
Layer (type)                 Output Shape              Param #   
=================================================================
dense_25 (Dense)             (None, 128)               2816      
_________________________________________________________________
batch_normalization_21 (Batc (None, 128)               512       
_________________________________________________________________
activation_25 (Activation)   (None, 128)               0         
_________________________________________________________________
dropout_21 (Dropout)         (None, 128)               0         
_________________________________________________________________
dense_26 (Dense)             (None, 128)               16512     
_________________________________________________________________
batch_normalization_22 (Batc (None, 128)               512       
_________________________________________________________________
activation_26 (Activation)   (None, 128)               0         
_________________________________________________________________
dropout_22 (Dropout)         (None, 128)               0         
_________________________________________________________________
dense_27 (Dense)             (None, 128)               16512     
_________________________________________________________________
batch_normalization_23 (Batc (None, 128)               512       
_________________________________________________________________
activation_27 (Activation)   (None, 128)               0         
_________________________________________________________________
dropout_23 (Dropout)         (None, 128)               0         
_________________________________________________________________
dense_28 (Dense)             (None, 128)               16512     
_________________________________________________________________
batch_normalization_24 (Batc (None, 128)               512       
_________________________________________________________________
activation_28 (Activation)   (None, 128)               0         
_________________________________________________________________
dropout_24 (Dropout)         (None, 128)               0         
_________________________________________________________________
dense_29 (Dense)             (None, 128)               16512     
_________________________________________________________________
batch_normalization_25 (Batc (None, 128)               512       
_________________________________________________________________
activation_29 (Activation)   (None, 128)               0         
_________________________________________________________________
dropout_25 (Dropout)         (None, 128)               0         
_________________________________________________________________
dense_30 (Dense)             (None, 2)                 258       
_________________________________________________________________
activation_30 (Activation)   (None, 2)                 0         
=================================================================
Total params: 71,682
Trainable params: 70,402
Non-trainable params: 1,280
_________________________________________________________________
---sig_test---
<self.testtree_sig> OutTree/sig
/data6/Users/jhchoi/TMVA/TMVA_TOOL/inputs/EEMu_MuMuE_Method/v2405.4/2017/EEMu_MuMuE_Method_DYJetsToEE_MiNNLO.root
/data6/Users/jhchoi/TMVA/TMVA_TOOL/inputs/EEMu_MuMuE_Method/v2405.4/2017/EEMu_MuMuE_Method_DYJetsToMuMu_MiNNLO.root
…
['belectron_full5x5sigmaietaieta', 'fabs(belectron_detaseed)', 'belectron_HoverE', 'belectron_reltrkiso', 'belectron_reliso']
sigcut-> (belectron_charge*bjet_partonFlavour < 0)&&(Has_bElectron)
bkgcut-> (belectron_charge*bjet_partonFlavour > 0)&&(Has_bElectron)
<sig cut>= (belectron_charge*bjet_partonFlavour < 0)&&(Has_bElectron)
<bkg cut>= (belectron_charge*bjet_partonFlavour > 0)&&(Has_bElectron)
_________________________________________________________________
Layer (type)                 Output Shape              Param #   
=================================================================
dense_67 (Dense)             (None, 128)               2688      
_________________________________________________________________
batch_normalization_56 (Batc (None, 128)               512       
_________________________________________________________________
activation_67 (Activation)   (None, 128)               0         
_________________________________________________________________
dropout_56 (Dropout)         (None, 128)               0         
_________________________________________________________________
dense_68 (Dense)             (None, 128)               16512     
_________________________________________________________________
batch_normalization_57 (Batc (None, 128)               512       
_________________________________________________________________
activation_68 (Activation)   (None, 128)               0         
_________________________________________________________________
dropout_57 (Dropout)         (None, 128)               0         
_________________________________________________________________
dense_69 (Dense)             (None, 128)               16512     
_________________________________________________________________
batch_normalization_58 (Batc (None, 128)               512       
_________________________________________________________________
activation_69 (Activation)   (None, 128)               0         
_________________________________________________________________
dropout_58 (Dropout)         (None, 128)               0         
_________________________________________________________________
dense_70 (Dense)             (None, 128)               16512     
_________________________________________________________________
batch_normalization_59 (Batc (None, 128)               512       
_________________________________________________________________
activation_70 (Activation)   (None, 128)               0         
_________________________________________________________________
dropout_59 (Dropout)         (None, 128)               0         
_________________________________________________________________
dense_71 (Dense)             (None, 128)               16512     
_________________________________________________________________
batch_normalization_60 (Batc (None, 128)               512       
_________________________________________________________________
activation_71 (Activation)   (None, 128)               0         
_________________________________________________________________
dropout_60 (Dropout)         (None, 128)               0         
_________________________________________________________________
dense_72 (Dense)             (None, 2)                 258       
_________________________________________________________________
activation_72 (Activation)   (None, 2)                 0         
=================================================================
Total params: 71,554
Trainable params: 70,274
Non-trainable params: 1,280
_________________________________________________________________
---sig_test---
<self.testtree_sig> OutTree/sig
/data6/Users/jhchoi/TMVA/TMVA_TOOL/inputs/EEMu_MuMuE_Method/v2405.4/2017/EEMu_MuMuE_Method_DYJetsToEE_MiNNLO.root
/data6/Users/jhchoi/TMVA/TMVA_TOOL/inputs/EEMu_MuMuE_Method/v2405.4/2017/EEMu_MuMuE_Method_DYJetsToMuMu_MiNNLO.root
…
['belectron_full5x5sigmaietaieta', 'fabs(belectron_detaseed)', 'belectron_HoverE', 'belectron_reltrkiso', 'belectron_reliso', 'belectron_aeta']
sigcut-> (belectron_charge*bjet_partonFlavour < 0)&&(Has_bElectron)
bkgcut-> (belectron_charge*bjet_partonFlavour > 0)&&(Has_bElectron)
<sig cut>= (belectron_charge*bjet_partonFlavour < 0)&&(Has_bElectron)
<bkg cut>= (belectron_charge*bjet_partonFlavour > 0)&&(Has_bElectron)
_________________________________________________________________
Layer (type)                 Output Shape              Param #   
=================================================================
dense_73 (Dense)             (None, 128)               2560      
_________________________________________________________________
batch_normalization_61 (Batc (None, 128)               512       
_________________________________________________________________
activation_73 (Activation)   (None, 128)               0         
_________________________________________________________________
dropout_61 (Dropout)         (None, 128)               0         
_________________________________________________________________
dense_74 (Dense)             (None, 128)               16512     
_________________________________________________________________
batch_normalization_62 (Batc (None, 128)               512       
_________________________________________________________________
activation_74 (Activation)   (None, 128)               0         
_________________________________________________________________
dropout_62 (Dropout)         (None, 128)               0         
_________________________________________________________________
dense_75 (Dense)             (None, 128)               16512     
_________________________________________________________________
batch_normalization_63 (Batc (None, 128)               512       
_________________________________________________________________
activation_75 (Activation)   (None, 128)               0         
_________________________________________________________________
dropout_63 (Dropout)         (None, 128)               0         
_________________________________________________________________
dense_76 (Dense)             (None, 128)               16512     
_________________________________________________________________
batch_normalization_64 (Batc (None, 128)               512       
_________________________________________________________________
activation_76 (Activation)   (None, 128)               0         
_________________________________________________________________
dropout_64 (Dropout)         (None, 128)               0         
_________________________________________________________________
dense_77 (Dense)             (None, 128)               16512     
_________________________________________________________________
batch_normalization_65 (Batc (None, 128)               512       
_________________________________________________________________
activation_77 (Activation)   (None, 128)               0         
_________________________________________________________________
dropout_65 (Dropout)         (None, 128)               0         
_________________________________________________________________
dense_78 (Dense)             (None, 2)                 258       
_________________________________________________________________
activation_78 (Activation)   (None, 2)                 0         
=================================================================
Total params: 71,426
Trainable params: 70,146
Non-trainable params: 1,280
_________________________________________________________________
---sig_test---
<self.testtree_sig> OutTree/sig
/data6/Users/jhchoi/TMVA/TMVA_TOOL/inputs/EEMu_MuMuE_Method/v2405.4/2017/EEMu_MuMuE_Method_DYJetsToEE_MiNNLO.root
/data6/Users/jhchoi/TMVA/TMVA_TOOL/inputs/EEMu_MuMuE_Method/v2405.4/2017/EEMu_MuMuE_Method_DYJetsToMuMu_MiNNLO.root
…
['belectron_full5x5sigmaietaieta', 'fabs(belectron_detaseed)', 'belectron_HoverE', 'belectron_reltrkiso', 'belectron_reliso', 'belectron_aeta', 'belectron_pt']
sigcut-> (belectron_charge*bjet_partonFlavour < 0)&&(Has_bElectron)
bkgcut-> (belectron_charge*bjet_partonFlavour > 0)&&(Has_bElectron)
<sig cut>= (belectron_charge*bjet_partonFlavour < 0)&&(Has_bElectron)
<bkg cut>= (belectron_charge*bjet_partonFlavour > 0)&&(Has_bElectron)
_________________________________________________________________
Layer (type)                 Output Shape              Param #   
=================================================================
dense_79 (Dense)             (None, 128)               2432      
_________________________________________________________________
batch_normalization_66 (Batc (None, 128)               512       
_________________________________________________________________
activation_79 (Activation)   (None, 128)               0         
_________________________________________________________________
dropout_66 (Dropout)         (None, 128)               0         
_________________________________________________________________
dense_80 (Dense)             (None, 128)               16512     
_________________________________________________________________
batch_normalization_67 (Batc (None, 128)               512       
_________________________________________________________________
activation_80 (Activation)   (None, 128)               0         
_________________________________________________________________
dropout_67 (Dropout)         (None, 128)               0         
_________________________________________________________________
dense_81 (Dense)             (None, 128)               16512     
_________________________________________________________________
batch_normalization_68 (Batc (None, 128)               512       
_________________________________________________________________
activation_81 (Activation)   (None, 128)               0         
_________________________________________________________________
dropout_68 (Dropout)         (None, 128)               0         
_________________________________________________________________
dense_82 (Dense)             (None, 128)               16512     
_________________________________________________________________
batch_normalization_69 (Batc (None, 128)               512       
_________________________________________________________________
activation_82 (Activation)   (None, 128)               0         
_________________________________________________________________
dropout_69 (Dropout)         (None, 128)               0         
_________________________________________________________________
dense_83 (Dense)             (None, 128)               16512     
_________________________________________________________________
batch_normalization_70 (Batc (None, 128)               512       
_________________________________________________________________
activation_83 (Activation)   (None, 128)               0         
_________________________________________________________________
dropout_70 (Dropout)         (None, 128)               0         
_________________________________________________________________
dense_84 (Dense)             (None, 2)                 258       
_________________________________________________________________
activation_84 (Activation)   (None, 2)                 0         
=================================================================
Total params: 71,298
Trainable params: 70,018
Non-trainable params: 1,280
_________________________________________________________________
---sig_test---
<self.testtree_sig> OutTree/sig
/data6/Users/jhchoi/TMVA/TMVA_TOOL/inputs/EEMu_MuMuE_Method/v2405.4/2017/EEMu_MuMuE_Method_DYJetsToEE_MiNNLO.root
/data6/Users/jhchoi/TMVA/TMVA_TOOL/inputs/EEMu_MuMuE_Method/v2405.4/2017/EEMu_MuMuE_Method_DYJetsToMuMu_MiNNLO.root
…
['belectron_full5x5sigmaietaieta', 'fabs(belectron_detaseed)', 'belectron_HoverE', 'belectron_reltrkiso', 'belectron_reliso', 'belectron_aeta', 'belectron_pt', 'belectron_dR_l_j']
sigcut-> (belectron_charge*bjet_partonFlavour < 0)&&(Has_bElectron)
bkgcut-> (belectron_charge*bjet_partonFlavour > 0)&&(Has_bElectron)
<sig cut>= (belectron_charge*bjet_partonFlavour < 0)&&(Has_bElectron)
<bkg cut>= (belectron_charge*bjet_partonFlavour > 0)&&(Has_bElectron)
_________________________________________________________________
Layer (type)                 Output Shape              Param #   
=================================================================
dense_85 (Dense)             (None, 128)               2304      
_________________________________________________________________
batch_normalization_71 (Batc (None, 128)               512       
_________________________________________________________________
activation_85 (Activation)   (None, 128)               0         
_________________________________________________________________
dropout_71 (Dropout)         (None, 128)               0         
_________________________________________________________________
dense_86 (Dense)             (None, 128)               16512     
_________________________________________________________________
batch_normalization_72 (Batc (None, 128)               512       
_________________________________________________________________
activation_86 (Activation)   (None, 128)               0         
_________________________________________________________________
dropout_72 (Dropout)         (None, 128)               0         
_________________________________________________________________
dense_87 (Dense)             (None, 128)               16512     
_________________________________________________________________
batch_normalization_73 (Batc (None, 128)               512       
_________________________________________________________________
activation_87 (Activation)   (None, 128)               0         
_________________________________________________________________
dropout_73 (Dropout)         (None, 128)               0         
_________________________________________________________________
dense_88 (Dense)             (None, 128)               16512     
_________________________________________________________________
batch_normalization_74 (Batc (None, 128)               512       
_________________________________________________________________
activation_88 (Activation)   (None, 128)               0         
_________________________________________________________________
dropout_74 (Dropout)         (None, 128)               0         
_________________________________________________________________
dense_89 (Dense)             (None, 128)               16512     
_________________________________________________________________
batch_normalization_75 (Batc (None, 128)               512       
_________________________________________________________________
activation_89 (Activation)   (None, 128)               0         
_________________________________________________________________
dropout_75 (Dropout)         (None, 128)               0         
_________________________________________________________________
dense_90 (Dense)             (None, 2)                 258       
_________________________________________________________________
activation_90 (Activation)   (None, 2)                 0         
=================================================================
Total params: 71,170
Trainable params: 69,890
Non-trainable params: 1,280
_________________________________________________________________
---sig_test---
<self.testtree_sig> OutTree/sig
/data6/Users/jhchoi/TMVA/TMVA_TOOL/inputs/EEMu_MuMuE_Method/v2405.4/2017/EEMu_MuMuE_Method_DYJetsToEE_MiNNLO.root
/data6/Users/jhchoi/TMVA/TMVA_TOOL/inputs/EEMu_MuMuE_Method/v2405.4/2017/EEMu_MuMuE_Method_DYJetsToMuMu_MiNNLO.root
…
['belectron_full5x5sigmaietaieta', 'fabs(belectron_detaseed)', 'belectron_HoverE', 'belectron_reltrkiso', 'belectron_reliso', 'belectron_aeta', 'belectron_pt', 'belectron_dR_l_j', 'belectron_palongjet']
sigcut-> (belectron_charge*bjet_partonFlavour < 0)&&(Has_bElectron)
bkgcut-> (belectron_charge*bjet_partonFlavour > 0)&&(Has_bElectron)
<sig cut>= (belectron_charge*bjet_partonFlavour < 0)&&(Has_bElectron)
<bkg cut>= (belectron_charge*bjet_partonFlavour > 0)&&(Has_bElectron)
_________________________________________________________________
Layer (type)                 Output Shape              Param #   
=================================================================
dense_91 (Dense)             (None, 128)               2176      
_________________________________________________________________
batch_normalization_76 (Batc (None, 128)               512       
_________________________________________________________________
activation_91 (Activation)   (None, 128)               0         
_________________________________________________________________
dropout_76 (Dropout)         (None, 128)               0         
_________________________________________________________________
dense_92 (Dense)             (None, 128)               16512     
_________________________________________________________________
batch_normalization_77 (Batc (None, 128)               512       
_________________________________________________________________
activation_92 (Activation)   (None, 128)               0         
_________________________________________________________________
dropout_77 (Dropout)         (None, 128)               0         
_________________________________________________________________
dense_93 (Dense)             (None, 128)               16512     
_________________________________________________________________
batch_normalization_78 (Batc (None, 128)               512       
_________________________________________________________________
activation_93 (Activation)   (None, 128)               0         
_________________________________________________________________
dropout_78 (Dropout)         (None, 128)               0         
_________________________________________________________________
dense_94 (Dense)             (None, 128)               16512     
_________________________________________________________________
batch_normalization_79 (Batc (None, 128)               512       
_________________________________________________________________
activation_94 (Activation)   (None, 128)               0         
_________________________________________________________________
dropout_79 (Dropout)         (None, 128)               0         
_________________________________________________________________
dense_95 (Dense)             (None, 128)               16512     
_________________________________________________________________
batch_normalization_80 (Batc (None, 128)               512       
_________________________________________________________________
activation_95 (Activation)   (None, 128)               0         
_________________________________________________________________
dropout_80 (Dropout)         (None, 128)               0         
_________________________________________________________________
dense_96 (Dense)             (None, 2)                 258       
_________________________________________________________________
activation_96 (Activation)   (None, 2)                 0         
=================================================================
Total params: 71,042
Trainable params: 69,762
Non-trainable params: 1,280
_________________________________________________________________
---sig_test---
<self.testtree_sig> OutTree/sig
/data6/Users/jhchoi/TMVA/TMVA_TOOL/inputs/EEMu_MuMuE_Method/v2405.4/2017/EEMu_MuMuE_Method_DYJetsToEE_MiNNLO.root
/data6/Users/jhchoi/TMVA/TMVA_TOOL/inputs/EEMu_MuMuE_Method/v2405.4/2017/EEMu_MuMuE_Method_DYJetsToMuMu_MiNNLO.root
…
['belectron_full5x5sigmaietaieta', 'fabs(belectron_detaseed)', 'belectron_HoverE', 'belectron_reltrkiso', 'belectron_reliso', 'belectron_aeta', 'belectron_pt', 'belectron_dR_l_j', 'belectron_palongjet', 'belectron_palongjetratio']
sigcut-> (belectron_charge*bjet_partonFlavour < 0)&&(Has_bElectron)
bkgcut-> (belectron_charge*bjet_partonFlavour > 0)&&(Has_bElectron)
<sig cut>= (belectron_charge*bjet_partonFlavour < 0)&&(Has_bElectron)
<bkg cut>= (belectron_charge*bjet_partonFlavour > 0)&&(Has_bElectron)
_________________________________________________________________
Layer (type)                 Output Shape              Param #   
=================================================================
dense_97 (Dense)             (None, 128)               2048      
_________________________________________________________________
batch_normalization_81 (Batc (None, 128)               512       
_________________________________________________________________
activation_97 (Activation)   (None, 128)               0         
_________________________________________________________________
dropout_81 (Dropout)         (None, 128)               0         
_________________________________________________________________
dense_98 (Dense)             (None, 128)               16512     
_________________________________________________________________
batch_normalization_82 (Batc (None, 128)               512       
_________________________________________________________________
activation_98 (Activation)   (None, 128)               0         
_________________________________________________________________
dropout_82 (Dropout)         (None, 128)               0         
_________________________________________________________________
dense_99 (Dense)             (None, 128)               16512     
_________________________________________________________________
batch_normalization_83 (Batc (None, 128)               512       
_________________________________________________________________
activation_99 (Activation)   (None, 128)               0         
_________________________________________________________________
dropout_83 (Dropout)         (None, 128)               0         
_________________________________________________________________
dense_100 (Dense)            (None, 128)               16512     
_________________________________________________________________
batch_normalization_84 (Batc (None, 128)               512       
_________________________________________________________________
activation_100 (Activation)  (None, 128)               0         
_________________________________________________________________
dropout_84 (Dropout)         (None, 128)               0         
_________________________________________________________________
dense_101 (Dense)            (None, 128)               16512     
_________________________________________________________________
batch_normalization_85 (Batc (None, 128)               512       
_________________________________________________________________
activation_101 (Activation)  (None, 128)               0         
_________________________________________________________________
dropout_85 (Dropout)         (None, 128)               0         
_________________________________________________________________
dense_102 (Dense)            (None, 2)                 258       
_________________________________________________________________
activation_102 (Activation)  (None, 2)                 0         
=================================================================
Total params: 70,914
Trainable params: 69,634
Non-trainable params: 1,280
_________________________________________________________________
---sig_test---
<self.testtree_sig> OutTree/sig
/data6/Users/jhchoi/TMVA/TMVA_TOOL/inputs/EEMu_MuMuE_Method/v2405.4/2017/EEMu_MuMuE_Method_DYJetsToEE_MiNNLO.root
/data6/Users/jhchoi/TMVA/TMVA_TOOL/inputs/EEMu_MuMuE_Method/v2405.4/2017/EEMu_MuMuE_Method_DYJetsToMuMu_MiNNLO.root
…
['belectron_full5x5sigmaietaieta', 'fabs(belectron_detaseed)', 'belectron_HoverE', 'belectron_reltrkiso', 'belectron_reliso', 'belectron_aeta', 'belectron_pt', 'belectron_dR_l_j', 'belectron_palongjet', 'belectron_P_jetrest', 'bjet_charge*belectron_charge']
sigcut-> (belectron_charge*bjet_partonFlavour < 0)&&(Has_bElectron)
bkgcut-> (belectron_charge*bjet_partonFlavour > 0)&&(Has_bElectron)
<sig cut>= (belectron_charge*bjet_partonFlavour < 0)&&(Has_bElectron)
<bkg cut>= (belectron_charge*bjet_partonFlavour > 0)&&(Has_bElectron)
_________________________________________________________________
Layer (type)                 Output Shape              Param #   
=================================================================
dense_151 (Dense)            (None, 128)               1920      
_________________________________________________________________
batch_normalization_126 (Bat (None, 128)               512       
_________________________________________________________________
activation_151 (Activation)  (None, 128)               0         
_________________________________________________________________
dropout_126 (Dropout)        (None, 128)               0         
_________________________________________________________________
dense_152 (Dense)            (None, 128)               16512     
_________________________________________________________________
batch_normalization_127 (Bat (None, 128)               512       
_________________________________________________________________
activation_152 (Activation)  (None, 128)               0         
_________________________________________________________________
dropout_127 (Dropout)        (None, 128)               0         
_________________________________________________________________
dense_153 (Dense)            (None, 128)               16512     
_________________________________________________________________
batch_normalization_128 (Bat (None, 128)               512       
_________________________________________________________________
activation_153 (Activation)  (None, 128)               0         
_________________________________________________________________
dropout_128 (Dropout)        (None, 128)               0         
_________________________________________________________________
dense_154 (Dense)            (None, 128)               16512     
_________________________________________________________________
batch_normalization_129 (Bat (None, 128)               512       
_________________________________________________________________
activation_154 (Activation)  (None, 128)               0         
_________________________________________________________________
dropout_129 (Dropout)        (None, 128)               0         
_________________________________________________________________
dense_155 (Dense)            (None, 128)               16512     
_________________________________________________________________
batch_normalization_130 (Bat (None, 128)               512       
_________________________________________________________________
activation_155 (Activation)  (None, 128)               0         
_________________________________________________________________
dropout_130 (Dropout)        (None, 128)               0         
_________________________________________________________________
dense_156 (Dense)            (None, 2)                 258       
_________________________________________________________________
activation_156 (Activation)  (None, 2)                 0         
=================================================================
Total params: 70,786
Trainable params: 69,506
Non-trainable params: 1,280
_________________________________________________________________
---sig_test---
<self.testtree_sig> OutTree/sig
/data6/Users/jhchoi/TMVA/TMVA_TOOL/inputs/EEMu_MuMuE_Method/v2405.4/2017/EEMu_MuMuE_Method_DYJetsToEE_MiNNLO.root
/data6/Users/jhchoi/TMVA/TMVA_TOOL/inputs/EEMu_MuMuE_Method/v2405.4/2017/EEMu_MuMuE_Method_DYJetsToMuMu_MiNNLO.root
…
['belectron_full5x5sigmaietaieta', 'fabs(belectron_detaseed)', 'belectron_HoverE', 'belectron_reltrkiso', 'belectron_reliso', 'belectron_aeta', 'belectron_pt', 'belectron_dR_l_j', 'belectron_palongjet', 'belectron_P_jetrest', 'bjet_ChargedHadronEnergyFraction', 'bjet_NeutralHadronEnergyFraction']
sigcut-> (belectron_charge*bjet_partonFlavour < 0)&&(Has_bElectron)
bkgcut-> (belectron_charge*bjet_partonFlavour > 0)&&(Has_bElectron)
<sig cut>= (belectron_charge*bjet_partonFlavour < 0)&&(Has_bElectron)
<bkg cut>= (belectron_charge*bjet_partonFlavour > 0)&&(Has_bElectron)
_________________________________________________________________
Layer (type)                 Output Shape              Param #   
=================================================================
dense_175 (Dense)            (None, 128)               1792      
_________________________________________________________________
batch_normalization_146 (Bat (None, 128)               512       
_________________________________________________________________
activation_175 (Activation)  (None, 128)               0         
_________________________________________________________________
dropout_146 (Dropout)        (None, 128)               0         
_________________________________________________________________
dense_176 (Dense)            (None, 128)               16512     
_________________________________________________________________
batch_normalization_147 (Bat (None, 128)               512       
_________________________________________________________________
activation_176 (Activation)  (None, 128)               0         
_________________________________________________________________
dropout_147 (Dropout)        (None, 128)               0         
_________________________________________________________________
dense_177 (Dense)            (None, 128)               16512     
_________________________________________________________________
batch_normalization_148 (Bat (None, 128)               512       
_________________________________________________________________
activation_177 (Activation)  (None, 128)               0         
_________________________________________________________________
dropout_148 (Dropout)        (None, 128)               0         
_________________________________________________________________
dense_178 (Dense)            (None, 128)               16512     
_________________________________________________________________
batch_normalization_149 (Bat (None, 128)               512       
_________________________________________________________________
activation_178 (Activation)  (None, 128)               0         
_________________________________________________________________
dropout_149 (Dropout)        (None, 128)               0         
_________________________________________________________________
dense_179 (Dense)            (None, 128)               16512     
_________________________________________________________________
batch_normalization_150 (Bat (None, 128)               512       
_________________________________________________________________
activation_179 (Activation)  (None, 128)               0         
_________________________________________________________________
dropout_150 (Dropout)        (None, 128)               0         
_________________________________________________________________
dense_180 (Dense)            (None, 2)                 258       
_________________________________________________________________
activation_180 (Activation)  (None, 2)                 0         
=================================================================
Total params: 70,658
Trainable params: 69,378
Non-trainable params: 1,280
_________________________________________________________________
---sig_test---
<self.testtree_sig> OutTree/sig
/data6/Users/jhchoi/TMVA/TMVA_TOOL/inputs/EEMu_MuMuE_Method/v2405.4/2017/EEMu_MuMuE_Method_DYJetsToEE_MiNNLO.root
/data6/Users/jhchoi/TMVA/TMVA_TOOL/inputs/EEMu_MuMuE_Method/v2405.4/2017/EEMu_MuMuE_Method_DYJetsToMuMu_MiNNLO.root
…
['belectron_full5x5sigmaietaieta', 'fabs(belectron_detaseed)', 'belectron_HoverE', 'belectron_reltrkiso', 'belectron_reliso', 'belectron_aeta', 'belectron_pt', 'belectron_dR_l_j', 'belectron_palongjet', 'belectron_P_jetrest', 'bjet_ChargedHadronEnergyFraction', 'bjet_NeutralHadronEnergyFraction', 'bjet_NeutralEmEnergyFraction']
sigcut-> (belectron_charge*bjet_partonFlavour < 0)&&(Has_bElectron)
bkgcut-> (belectron_charge*bjet_partonFlavour > 0)&&(Has_bElectron)
<sig cut>= (belectron_charge*bjet_partonFlavour < 0)&&(Has_bElectron)
<bkg cut>= (belectron_charge*bjet_partonFlavour > 0)&&(Has_bElectron)
_________________________________________________________________
Layer (type)                 Output Shape              Param #   
=================================================================
dense_193 (Dense)            (None, 128)               1664      
_________________________________________________________________
batch_normalization_161 (Bat (None, 128)               512       
_________________________________________________________________
activation_193 (Activation)  (None, 128)               0         
_________________________________________________________________
dropout_161 (Dropout)        (None, 128)               0         
_________________________________________________________________
dense_194 (Dense)            (None, 128)               16512     
_________________________________________________________________
batch_normalization_162 (Bat (None, 128)               512       
_________________________________________________________________
activation_194 (Activation)  (None, 128)               0         
_________________________________________________________________
dropout_162 (Dropout)        (None, 128)               0         
_________________________________________________________________
dense_195 (Dense)            (None, 128)               16512     
_________________________________________________________________
batch_normalization_163 (Bat (None, 128)               512       
_________________________________________________________________
activation_195 (Activation)  (None, 128)               0         
_________________________________________________________________
dropout_163 (Dropout)        (None, 128)               0         
_________________________________________________________________
dense_196 (Dense)            (None, 128)               16512     
_________________________________________________________________
batch_normalization_164 (Bat (None, 128)               512       
_________________________________________________________________
activation_196 (Activation)  (None, 128)               0         
_________________________________________________________________
dropout_164 (Dropout)        (None, 128)               0         
_________________________________________________________________
dense_197 (Dense)            (None, 128)               16512     
_________________________________________________________________
batch_normalization_165 (Bat (None, 128)               512       
_________________________________________________________________
activation_197 (Activation)  (None, 128)               0         
_________________________________________________________________
dropout_165 (Dropout)        (None, 128)               0         
_________________________________________________________________
dense_198 (Dense)            (None, 2)                 258       
_________________________________________________________________
activation_198 (Activation)  (None, 2)                 0         
=================================================================
Total params: 70,530
Trainable params: 69,250
Non-trainable params: 1,280
_________________________________________________________________
---sig_test---
<self.testtree_sig> OutTree/sig
/data6/Users/jhchoi/TMVA/TMVA_TOOL/inputs/EEMu_MuMuE_Method/v2405.4/2017/EEMu_MuMuE_Method_DYJetsToEE_MiNNLO.root
/data6/Users/jhchoi/TMVA/TMVA_TOOL/inputs/EEMu_MuMuE_Method/v2405.4/2017/EEMu_MuMuE_Method_DYJetsToMuMu_MiNNLO.root
…
['belectron_full5x5sigmaietaieta', 'fabs(belectron_detaseed)', 'belectron_HoverE', 'belectron_reltrkiso', 'belectron_reliso', 'belectron_aeta', 'belectron_pt', 'belectron_dR_l_j', 'belectron_palongjet', 'belectron_P_jetrest', 'bjet_ChargedHadronEnergyFraction', 'bjet_NeutralHadronEnergyFraction', 'bjet_NeutralEmEnergyFraction', 'bjet_ChargedEmEnergyFraction']
sigcut-> (belectron_charge*bjet_partonFlavour < 0)&&(Has_bElectron)
bkgcut-> (belectron_charge*bjet_partonFlavour > 0)&&(Has_bElectron)
<sig cut>= (belectron_charge*bjet_partonFlavour < 0)&&(Has_bElectron)
<bkg cut>= (belectron_charge*bjet_partonFlavour > 0)&&(Has_bElectron)
_________________________________________________________________
Layer (type)                 Output Shape              Param #   
=================================================================
dense_211 (Dense)            (None, 128)               1536      
_________________________________________________________________
batch_normalization_176 (Bat (None, 128)               512       
_________________________________________________________________
activation_211 (Activation)  (None, 128)               0         
_________________________________________________________________
dropout_176 (Dropout)        (None, 128)               0         
_________________________________________________________________
dense_212 (Dense)            (None, 128)               16512     
_________________________________________________________________
batch_normalization_177 (Bat (None, 128)               512       
_________________________________________________________________
activation_212 (Activation)  (None, 128)               0         
_________________________________________________________________
dropout_177 (Dropout)        (None, 128)               0         
_________________________________________________________________
dense_213 (Dense)            (None, 128)               16512     
_________________________________________________________________
batch_normalization_178 (Bat (None, 128)               512       
_________________________________________________________________
activation_213 (Activation)  (None, 128)               0         
_________________________________________________________________
dropout_178 (Dropout)        (None, 128)               0         
_________________________________________________________________
dense_214 (Dense)            (None, 128)               16512     
_________________________________________________________________
batch_normalization_179 (Bat (None, 128)               512       
_________________________________________________________________
activation_214 (Activation)  (None, 128)               0         
_________________________________________________________________
dropout_179 (Dropout)        (None, 128)               0         
_________________________________________________________________
dense_215 (Dense)            (None, 128)               16512     
_________________________________________________________________
batch_normalization_180 (Bat (None, 128)               512       
_________________________________________________________________
activation_215 (Activation)  (None, 128)               0         
_________________________________________________________________
dropout_180 (Dropout)        (None, 128)               0         
_________________________________________________________________
dense_216 (Dense)            (None, 2)                 258       
_________________________________________________________________
activation_216 (Activation)  (None, 2)                 0         
=================================================================
Total params: 70,402
Trainable params: 69,122
Non-trainable params: 1,280
_________________________________________________________________
---sig_test---
<self.testtree_sig> OutTree/sig
/data6/Users/jhchoi/TMVA/TMVA_TOOL/inputs/EEMu_MuMuE_Method/v2405.4/2017/EEMu_MuMuE_Method_DYJetsToEE_MiNNLO.root
/data6/Users/jhchoi/TMVA/TMVA_TOOL/inputs/EEMu_MuMuE_Method/v2405.4/2017/EEMu_MuMuE_Method_DYJetsToMuMu_MiNNLO.root
…
['belectron_full5x5sigmaietaieta', 'fabs(belectron_detaseed)', 'belectron_HoverE', 'belectron_reltrkiso', 'belectron_reliso', 'belectron_aeta', 'belectron_pt', 'belectron_dR_l_j', 'belectron_palongjet', 'belectron_P_jetrest', 'bjet_ChargedHadronEnergyFraction', 'bjet_NeutralHadronEnergyFraction', 'bjet_NeutralEmEnergyFraction', 'bjet_MuonEnergyFraction', 'bjet_ChargedMultiplicity']
sigcut-> (belectron_charge*bjet_partonFlavour < 0)&&(Has_bElectron)
bkgcut-> (belectron_charge*bjet_partonFlavour > 0)&&(Has_bElectron)
<sig cut>= (belectron_charge*bjet_partonFlavour < 0)&&(Has_bElectron)
<bkg cut>= (belectron_charge*bjet_partonFlavour > 0)&&(Has_bElectron)
_________________________________________________________________
Layer (type)                 Output Shape              Param #   
=================================================================
dense_247 (Dense)            (None, 128)               1408      
_________________________________________________________________
batch_normalization_206 (Bat (None, 128)               512       
_________________________________________________________________
activation_247 (Activation)  (None, 128)               0         
_________________________________________________________________
dropout_206 (Dropout)        (None, 128)               0         
_________________________________________________________________
dense_248 (Dense)            (None, 128)               16512     
_________________________________________________________________
batch_normalization_207 (Bat (None, 128)               512       
_________________________________________________________________
activation_248 (Activation)  (None, 128)               0         
_________________________________________________________________
dropout_207 (Dropout)        (None, 128)               0         
_________________________________________________________________
dense_249 (Dense)            (None, 128)               16512     
_________________________________________________________________
batch_normalization_208 (Bat (None, 128)               512       
_________________________________________________________________
activation_249 (Activation)  (None, 128)               0         
_________________________________________________________________
dropout_208 (Dropout)        (None, 128)               0         
_________________________________________________________________
dense_250 (Dense)            (None, 128)               16512     
_________________________________________________________________
batch_normalization_209 (Bat (None, 128)               512       
_________________________________________________________________
activation_250 (Activation)  (None, 128)               0         
_________________________________________________________________
dropout_209 (Dropout)        (None, 128)               0         
_________________________________________________________________
dense_251 (Dense)            (None, 128)               16512     
_________________________________________________________________
batch_normalization_210 (Bat (None, 128)               512       
_________________________________________________________________
activation_251 (Activation)  (None, 128)               0         
_________________________________________________________________
dropout_210 (Dropout)        (None, 128)               0         
_________________________________________________________________
dense_252 (Dense)            (None, 2)                 258       
_________________________________________________________________
activation_252 (Activation)  (None, 2)                 0         
=================================================================
Total params: 70,274
Trainable params: 68,994
Non-trainable params: 1,280
_________________________________________________________________
---sig_test---
<self.testtree_sig> OutTree/sig
/data6/Users/jhchoi/TMVA/TMVA_TOOL/inputs/EEMu_MuMuE_Method/v2405.4/2017/EEMu_MuMuE_Method_DYJetsToEE_MiNNLO.root
/data6/Users/jhchoi/TMVA/TMVA_TOOL/inputs/EEMu_MuMuE_Method/v2405.4/2017/EEMu_MuMuE_Method_DYJetsToMuMu_MiNNLO.root
…
