…
======
TEST-> belectron_full5x5sigmaietaieta
--SKIP FOLLOWING VARS
['belectron_full5x5sigmaietaieta']
sigcut-> (belectron_charge*bjet_partonFlavour < 0)&&(Has_bElectron)
bkgcut-> (belectron_charge*bjet_partonFlavour > 0)&&(Has_bElectron)
<sig cut>= (belectron_charge*bjet_partonFlavour < 0)&&(Has_bElectron)
<bkg cut>= (belectron_charge*bjet_partonFlavour > 0)&&(Has_bElectron)
_________________________________________________________________
Layer (type)                 Output Shape              Param #   
=================================================================
dense_1 (Dense)              (None, 128)               3200      
_________________________________________________________________
batch_normalization_1 (Batch (None, 128)               512       
_________________________________________________________________
activation_1 (Activation)    (None, 128)               0         
_________________________________________________________________
dropout_1 (Dropout)          (None, 128)               0         
_________________________________________________________________
dense_2 (Dense)              (None, 128)               16512     
_________________________________________________________________
batch_normalization_2 (Batch (None, 128)               512       
_________________________________________________________________
activation_2 (Activation)    (None, 128)               0         
_________________________________________________________________
dropout_2 (Dropout)          (None, 128)               0         
_________________________________________________________________
dense_3 (Dense)              (None, 128)               16512     
_________________________________________________________________
batch_normalization_3 (Batch (None, 128)               512       
_________________________________________________________________
activation_3 (Activation)    (None, 128)               0         
_________________________________________________________________
dropout_3 (Dropout)          (None, 128)               0         
_________________________________________________________________
dense_4 (Dense)              (None, 128)               16512     
_________________________________________________________________
batch_normalization_4 (Batch (None, 128)               512       
_________________________________________________________________
activation_4 (Activation)    (None, 128)               0         
_________________________________________________________________
dropout_4 (Dropout)          (None, 128)               0         
_________________________________________________________________
dense_5 (Dense)              (None, 128)               16512     
_________________________________________________________________
batch_normalization_5 (Batch (None, 128)               512       
_________________________________________________________________
activation_5 (Activation)    (None, 128)               0         
_________________________________________________________________
dropout_5 (Dropout)          (None, 128)               0         
_________________________________________________________________
dense_6 (Dense)              (None, 2)                 258       
_________________________________________________________________
activation_6 (Activation)    (None, 2)                 0         
=================================================================
Total params: 72,066
Trainable params: 70,786
Non-trainable params: 1,280
_________________________________________________________________
---sig_test---
<self.testtree_sig> OutTree/sig
/data6/Users/jhchoi/TMVA/TMVA_TOOL/inputs/EEMu_MuMuE_Method/v2405.4/2016preVFP/EEMu_MuMuE_Method_DYJetsToEE_MiNNLO.root
/data6/Users/jhchoi/TMVA/TMVA_TOOL/inputs/EEMu_MuMuE_Method/v2405.4/2016preVFP/EEMu_MuMuE_Method_DYJetsToMuMu_MiNNLO.root
…
TEST-> fabs(belectron_detaseed)
--SKIP FOLLOWING VARS
['belectron_full5x5sigmaietaieta', 'fabs(belectron_detaseed)']
sigcut-> (belectron_charge*bjet_partonFlavour < 0)&&(Has_bElectron)
bkgcut-> (belectron_charge*bjet_partonFlavour > 0)&&(Has_bElectron)
<sig cut>= (belectron_charge*bjet_partonFlavour < 0)&&(Has_bElectron)
<bkg cut>= (belectron_charge*bjet_partonFlavour > 0)&&(Has_bElectron)
_________________________________________________________________
Layer (type)                 Output Shape              Param #   
=================================================================
dense_7 (Dense)              (None, 128)               3072      
_________________________________________________________________
batch_normalization_6 (Batch (None, 128)               512       
_________________________________________________________________
activation_7 (Activation)    (None, 128)               0         
_________________________________________________________________
dropout_6 (Dropout)          (None, 128)               0         
_________________________________________________________________
dense_8 (Dense)              (None, 128)               16512     
_________________________________________________________________
batch_normalization_7 (Batch (None, 128)               512       
_________________________________________________________________
activation_8 (Activation)    (None, 128)               0         
_________________________________________________________________
dropout_7 (Dropout)          (None, 128)               0         
_________________________________________________________________
dense_9 (Dense)              (None, 128)               16512     
_________________________________________________________________
batch_normalization_8 (Batch (None, 128)               512       
_________________________________________________________________
activation_9 (Activation)    (None, 128)               0         
_________________________________________________________________
dropout_8 (Dropout)          (None, 128)               0         
_________________________________________________________________
dense_10 (Dense)             (None, 128)               16512     
_________________________________________________________________
batch_normalization_9 (Batch (None, 128)               512       
_________________________________________________________________
activation_10 (Activation)   (None, 128)               0         
_________________________________________________________________
dropout_9 (Dropout)          (None, 128)               0         
_________________________________________________________________
dense_11 (Dense)             (None, 128)               16512     
_________________________________________________________________
batch_normalization_10 (Batc (None, 128)               512       
_________________________________________________________________
activation_11 (Activation)   (None, 128)               0         
_________________________________________________________________
dropout_10 (Dropout)         (None, 128)               0         
_________________________________________________________________
dense_12 (Dense)             (None, 2)                 258       
_________________________________________________________________
activation_12 (Activation)   (None, 2)                 0         
=================================================================
Total params: 71,938
Trainable params: 70,658
Non-trainable params: 1,280
_________________________________________________________________
---sig_test---
<self.testtree_sig> OutTree/sig
/data6/Users/jhchoi/TMVA/TMVA_TOOL/inputs/EEMu_MuMuE_Method/v2405.4/2016preVFP/EEMu_MuMuE_Method_DYJetsToEE_MiNNLO.root
/data6/Users/jhchoi/TMVA/TMVA_TOOL/inputs/EEMu_MuMuE_Method/v2405.4/2016preVFP/EEMu_MuMuE_Method_DYJetsToMuMu_MiNNLO.root
…
--SKIP FOLLOWING VARS
['belectron_full5x5sigmaietaieta', 'fabs(belectron_detaseed)', 'belectron_HoverE']
sigcut-> (belectron_charge*bjet_partonFlavour < 0)&&(Has_bElectron)
bkgcut-> (belectron_charge*bjet_partonFlavour > 0)&&(Has_bElectron)
<sig cut>= (belectron_charge*bjet_partonFlavour < 0)&&(Has_bElectron)
<bkg cut>= (belectron_charge*bjet_partonFlavour > 0)&&(Has_bElectron)
_________________________________________________________________
Layer (type)                 Output Shape              Param #   
=================================================================
dense_13 (Dense)             (None, 128)               2944      
_________________________________________________________________
batch_normalization_11 (Batc (None, 128)               512       
_________________________________________________________________
activation_13 (Activation)   (None, 128)               0         
_________________________________________________________________
dropout_11 (Dropout)         (None, 128)               0         
_________________________________________________________________
dense_14 (Dense)             (None, 128)               16512     
_________________________________________________________________
batch_normalization_12 (Batc (None, 128)               512       
_________________________________________________________________
activation_14 (Activation)   (None, 128)               0         
_________________________________________________________________
dropout_12 (Dropout)         (None, 128)               0         
_________________________________________________________________
dense_15 (Dense)             (None, 128)               16512     
_________________________________________________________________
batch_normalization_13 (Batc (None, 128)               512       
_________________________________________________________________
activation_15 (Activation)   (None, 128)               0         
_________________________________________________________________
dropout_13 (Dropout)         (None, 128)               0         
_________________________________________________________________
dense_16 (Dense)             (None, 128)               16512     
_________________________________________________________________
batch_normalization_14 (Batc (None, 128)               512       
_________________________________________________________________
activation_16 (Activation)   (None, 128)               0         
_________________________________________________________________
dropout_14 (Dropout)         (None, 128)               0         
_________________________________________________________________
dense_17 (Dense)             (None, 128)               16512     
_________________________________________________________________
batch_normalization_15 (Batc (None, 128)               512       
_________________________________________________________________
activation_17 (Activation)   (None, 128)               0         
_________________________________________________________________
dropout_15 (Dropout)         (None, 128)               0         
_________________________________________________________________
dense_18 (Dense)             (None, 2)                 258       
_________________________________________________________________
activation_18 (Activation)   (None, 2)                 0         
=================================================================
Total params: 71,810
Trainable params: 70,530
Non-trainable params: 1,280
_________________________________________________________________
---sig_test---
<self.testtree_sig> OutTree/sig
/data6/Users/jhchoi/TMVA/TMVA_TOOL/inputs/EEMu_MuMuE_Method/v2405.4/2016preVFP/EEMu_MuMuE_Method_DYJetsToEE_MiNNLO.root
/data6/Users/jhchoi/TMVA/TMVA_TOOL/inputs/EEMu_MuMuE_Method/v2405.4/2016preVFP/EEMu_MuMuE_Method_DYJetsToMuMu_MiNNLO.root
…
['belectron_full5x5sigmaietaieta', 'fabs(belectron_detaseed)', 'belectron_HoverE', 'belectron_InvEminusInvP']
sigcut-> (belectron_charge*bjet_partonFlavour < 0)&&(Has_bElectron)
bkgcut-> (belectron_charge*bjet_partonFlavour > 0)&&(Has_bElectron)
<sig cut>= (belectron_charge*bjet_partonFlavour < 0)&&(Has_bElectron)
<bkg cut>= (belectron_charge*bjet_partonFlavour > 0)&&(Has_bElectron)
_________________________________________________________________
Layer (type)                 Output Shape              Param #   
=================================================================
dense_19 (Dense)             (None, 128)               2816      
_________________________________________________________________
batch_normalization_16 (Batc (None, 128)               512       
_________________________________________________________________
activation_19 (Activation)   (None, 128)               0         
_________________________________________________________________
dropout_16 (Dropout)         (None, 128)               0         
_________________________________________________________________
dense_20 (Dense)             (None, 128)               16512     
_________________________________________________________________
batch_normalization_17 (Batc (None, 128)               512       
_________________________________________________________________
activation_20 (Activation)   (None, 128)               0         
_________________________________________________________________
dropout_17 (Dropout)         (None, 128)               0         
_________________________________________________________________
dense_21 (Dense)             (None, 128)               16512     
_________________________________________________________________
batch_normalization_18 (Batc (None, 128)               512       
_________________________________________________________________
activation_21 (Activation)   (None, 128)               0         
_________________________________________________________________
dropout_18 (Dropout)         (None, 128)               0         
_________________________________________________________________
dense_22 (Dense)             (None, 128)               16512     
_________________________________________________________________
batch_normalization_19 (Batc (None, 128)               512       
_________________________________________________________________
activation_22 (Activation)   (None, 128)               0         
_________________________________________________________________
dropout_19 (Dropout)         (None, 128)               0         
_________________________________________________________________
dense_23 (Dense)             (None, 128)               16512     
_________________________________________________________________
batch_normalization_20 (Batc (None, 128)               512       
_________________________________________________________________
activation_23 (Activation)   (None, 128)               0         
_________________________________________________________________
dropout_20 (Dropout)         (None, 128)               0         
_________________________________________________________________
dense_24 (Dense)             (None, 2)                 258       
_________________________________________________________________
activation_24 (Activation)   (None, 2)                 0         
=================================================================
Total params: 71,682
Trainable params: 70,402
Non-trainable params: 1,280
_________________________________________________________________
---sig_test---
<self.testtree_sig> OutTree/sig
/data6/Users/jhchoi/TMVA/TMVA_TOOL/inputs/EEMu_MuMuE_Method/v2405.4/2016preVFP/EEMu_MuMuE_Method_DYJetsToEE_MiNNLO.root
/data6/Users/jhchoi/TMVA/TMVA_TOOL/inputs/EEMu_MuMuE_Method/v2405.4/2016preVFP/EEMu_MuMuE_Method_DYJetsToMuMu_MiNNLO.root
…
['belectron_full5x5sigmaietaieta', 'fabs(belectron_detaseed)', 'belectron_HoverE', 'belectron_InvEminusInvP', 'belectron_nsip3d']
sigcut-> (belectron_charge*bjet_partonFlavour < 0)&&(Has_bElectron)
bkgcut-> (belectron_charge*bjet_partonFlavour > 0)&&(Has_bElectron)
<sig cut>= (belectron_charge*bjet_partonFlavour < 0)&&(Has_bElectron)
<bkg cut>= (belectron_charge*bjet_partonFlavour > 0)&&(Has_bElectron)
_________________________________________________________________
Layer (type)                 Output Shape              Param #   
=================================================================
dense_31 (Dense)             (None, 128)               2688      
_________________________________________________________________
batch_normalization_26 (Batc (None, 128)               512       
_________________________________________________________________
activation_31 (Activation)   (None, 128)               0         
_________________________________________________________________
dropout_26 (Dropout)         (None, 128)               0         
_________________________________________________________________
dense_32 (Dense)             (None, 128)               16512     
_________________________________________________________________
batch_normalization_27 (Batc (None, 128)               512       
_________________________________________________________________
activation_32 (Activation)   (None, 128)               0         
_________________________________________________________________
dropout_27 (Dropout)         (None, 128)               0         
_________________________________________________________________
dense_33 (Dense)             (None, 128)               16512     
_________________________________________________________________
batch_normalization_28 (Batc (None, 128)               512       
_________________________________________________________________
activation_33 (Activation)   (None, 128)               0         
_________________________________________________________________
dropout_28 (Dropout)         (None, 128)               0         
_________________________________________________________________
dense_34 (Dense)             (None, 128)               16512     
_________________________________________________________________
batch_normalization_29 (Batc (None, 128)               512       
_________________________________________________________________
activation_34 (Activation)   (None, 128)               0         
_________________________________________________________________
dropout_29 (Dropout)         (None, 128)               0         
_________________________________________________________________
dense_35 (Dense)             (None, 128)               16512     
_________________________________________________________________
batch_normalization_30 (Batc (None, 128)               512       
_________________________________________________________________
activation_35 (Activation)   (None, 128)               0         
_________________________________________________________________
dropout_30 (Dropout)         (None, 128)               0         
_________________________________________________________________
dense_36 (Dense)             (None, 2)                 258       
_________________________________________________________________
activation_36 (Activation)   (None, 2)                 0         
=================================================================
Total params: 71,554
Trainable params: 70,274
Non-trainable params: 1,280
_________________________________________________________________
---sig_test---
<self.testtree_sig> OutTree/sig
/data6/Users/jhchoi/TMVA/TMVA_TOOL/inputs/EEMu_MuMuE_Method/v2405.4/2016preVFP/EEMu_MuMuE_Method_DYJetsToEE_MiNNLO.root
/data6/Users/jhchoi/TMVA/TMVA_TOOL/inputs/EEMu_MuMuE_Method/v2405.4/2016preVFP/EEMu_MuMuE_Method_DYJetsToMuMu_MiNNLO.root
…
['belectron_full5x5sigmaietaieta', 'fabs(belectron_detaseed)', 'belectron_HoverE', 'belectron_InvEminusInvP', 'belectron_aeta', 'belectron_pt']
sigcut-> (belectron_charge*bjet_partonFlavour < 0)&&(Has_bElectron)
bkgcut-> (belectron_charge*bjet_partonFlavour > 0)&&(Has_bElectron)
<sig cut>= (belectron_charge*bjet_partonFlavour < 0)&&(Has_bElectron)
<bkg cut>= (belectron_charge*bjet_partonFlavour > 0)&&(Has_bElectron)
_________________________________________________________________
Layer (type)                 Output Shape              Param #   
=================================================================
dense_91 (Dense)             (None, 128)               2560      
_________________________________________________________________
batch_normalization_76 (Batc (None, 128)               512       
_________________________________________________________________
activation_91 (Activation)   (None, 128)               0         
_________________________________________________________________
dropout_76 (Dropout)         (None, 128)               0         
_________________________________________________________________
dense_92 (Dense)             (None, 128)               16512     
_________________________________________________________________
batch_normalization_77 (Batc (None, 128)               512       
_________________________________________________________________
activation_92 (Activation)   (None, 128)               0         
_________________________________________________________________
dropout_77 (Dropout)         (None, 128)               0         
_________________________________________________________________
dense_93 (Dense)             (None, 128)               16512     
_________________________________________________________________
batch_normalization_78 (Batc (None, 128)               512       
_________________________________________________________________
activation_93 (Activation)   (None, 128)               0         
_________________________________________________________________
dropout_78 (Dropout)         (None, 128)               0         
_________________________________________________________________
dense_94 (Dense)             (None, 128)               16512     
_________________________________________________________________
batch_normalization_79 (Batc (None, 128)               512       
_________________________________________________________________
activation_94 (Activation)   (None, 128)               0         
_________________________________________________________________
dropout_79 (Dropout)         (None, 128)               0         
_________________________________________________________________
dense_95 (Dense)             (None, 128)               16512     
_________________________________________________________________
batch_normalization_80 (Batc (None, 128)               512       
_________________________________________________________________
activation_95 (Activation)   (None, 128)               0         
_________________________________________________________________
dropout_80 (Dropout)         (None, 128)               0         
_________________________________________________________________
dense_96 (Dense)             (None, 2)                 258       
_________________________________________________________________
activation_96 (Activation)   (None, 2)                 0         
=================================================================
Total params: 71,426
Trainable params: 70,146
Non-trainable params: 1,280
_________________________________________________________________
---sig_test---
<self.testtree_sig> OutTree/sig
/data6/Users/jhchoi/TMVA/TMVA_TOOL/inputs/EEMu_MuMuE_Method/v2405.4/2016preVFP/EEMu_MuMuE_Method_DYJetsToEE_MiNNLO.root
/data6/Users/jhchoi/TMVA/TMVA_TOOL/inputs/EEMu_MuMuE_Method/v2405.4/2016preVFP/EEMu_MuMuE_Method_DYJetsToMuMu_MiNNLO.root
…
['belectron_full5x5sigmaietaieta', 'fabs(belectron_detaseed)', 'belectron_HoverE', 'belectron_InvEminusInvP', 'belectron_aeta', 'belectron_pt', 'belectron_dR_l_j']
sigcut-> (belectron_charge*bjet_partonFlavour < 0)&&(Has_bElectron)
bkgcut-> (belectron_charge*bjet_partonFlavour > 0)&&(Has_bElectron)
<sig cut>= (belectron_charge*bjet_partonFlavour < 0)&&(Has_bElectron)
<bkg cut>= (belectron_charge*bjet_partonFlavour > 0)&&(Has_bElectron)
_________________________________________________________________
Layer (type)                 Output Shape              Param #   
=================================================================
dense_97 (Dense)             (None, 128)               2432      
_________________________________________________________________
batch_normalization_81 (Batc (None, 128)               512       
_________________________________________________________________
activation_97 (Activation)   (None, 128)               0         
_________________________________________________________________
dropout_81 (Dropout)         (None, 128)               0         
_________________________________________________________________
dense_98 (Dense)             (None, 128)               16512     
_________________________________________________________________
batch_normalization_82 (Batc (None, 128)               512       
_________________________________________________________________
activation_98 (Activation)   (None, 128)               0         
_________________________________________________________________
dropout_82 (Dropout)         (None, 128)               0         
_________________________________________________________________
dense_99 (Dense)             (None, 128)               16512     
_________________________________________________________________
batch_normalization_83 (Batc (None, 128)               512       
_________________________________________________________________
activation_99 (Activation)   (None, 128)               0         
_________________________________________________________________
dropout_83 (Dropout)         (None, 128)               0         
_________________________________________________________________
dense_100 (Dense)            (None, 128)               16512     
_________________________________________________________________
batch_normalization_84 (Batc (None, 128)               512       
_________________________________________________________________
activation_100 (Activation)  (None, 128)               0         
_________________________________________________________________
dropout_84 (Dropout)         (None, 128)               0         
_________________________________________________________________
dense_101 (Dense)            (None, 128)               16512     
_________________________________________________________________
batch_normalization_85 (Batc (None, 128)               512       
_________________________________________________________________
activation_101 (Activation)  (None, 128)               0         
_________________________________________________________________
dropout_85 (Dropout)         (None, 128)               0         
_________________________________________________________________
dense_102 (Dense)            (None, 2)                 258       
_________________________________________________________________
activation_102 (Activation)  (None, 2)                 0         
=================================================================
Total params: 71,298
Trainable params: 70,018
Non-trainable params: 1,280
_________________________________________________________________
---sig_test---
<self.testtree_sig> OutTree/sig
/data6/Users/jhchoi/TMVA/TMVA_TOOL/inputs/EEMu_MuMuE_Method/v2405.4/2016preVFP/EEMu_MuMuE_Method_DYJetsToEE_MiNNLO.root
/data6/Users/jhchoi/TMVA/TMVA_TOOL/inputs/EEMu_MuMuE_Method/v2405.4/2016preVFP/EEMu_MuMuE_Method_DYJetsToMuMu_MiNNLO.root
…
['belectron_full5x5sigmaietaieta', 'fabs(belectron_detaseed)', 'belectron_HoverE', 'belectron_InvEminusInvP', 'belectron_aeta', 'belectron_pt', 'belectron_dR_l_j', 'belectron_palongjet']
sigcut-> (belectron_charge*bjet_partonFlavour < 0)&&(Has_bElectron)
bkgcut-> (belectron_charge*bjet_partonFlavour > 0)&&(Has_bElectron)
<sig cut>= (belectron_charge*bjet_partonFlavour < 0)&&(Has_bElectron)
<bkg cut>= (belectron_charge*bjet_partonFlavour > 0)&&(Has_bElectron)
_________________________________________________________________
Layer (type)                 Output Shape              Param #   
=================================================================
dense_115 (Dense)            (None, 128)               2304      
_________________________________________________________________
batch_normalization_96 (Batc (None, 128)               512       
_________________________________________________________________
activation_115 (Activation)  (None, 128)               0         
_________________________________________________________________
dropout_96 (Dropout)         (None, 128)               0         
_________________________________________________________________
dense_116 (Dense)            (None, 128)               16512     
_________________________________________________________________
batch_normalization_97 (Batc (None, 128)               512       
_________________________________________________________________
activation_116 (Activation)  (None, 128)               0         
_________________________________________________________________
dropout_97 (Dropout)         (None, 128)               0         
_________________________________________________________________
dense_117 (Dense)            (None, 128)               16512     
_________________________________________________________________
batch_normalization_98 (Batc (None, 128)               512       
_________________________________________________________________
activation_117 (Activation)  (None, 128)               0         
_________________________________________________________________
dropout_98 (Dropout)         (None, 128)               0         
_________________________________________________________________
dense_118 (Dense)            (None, 128)               16512     
_________________________________________________________________
batch_normalization_99 (Batc (None, 128)               512       
_________________________________________________________________
activation_118 (Activation)  (None, 128)               0         
_________________________________________________________________
dropout_99 (Dropout)         (None, 128)               0         
_________________________________________________________________
dense_119 (Dense)            (None, 128)               16512     
_________________________________________________________________
batch_normalization_100 (Bat (None, 128)               512       
_________________________________________________________________
activation_119 (Activation)  (None, 128)               0         
_________________________________________________________________
dropout_100 (Dropout)        (None, 128)               0         
_________________________________________________________________
dense_120 (Dense)            (None, 2)                 258       
_________________________________________________________________
activation_120 (Activation)  (None, 2)                 0         
=================================================================
Total params: 71,170
Trainable params: 69,890
Non-trainable params: 1,280
_________________________________________________________________
---sig_test---
<self.testtree_sig> OutTree/sig
/data6/Users/jhchoi/TMVA/TMVA_TOOL/inputs/EEMu_MuMuE_Method/v2405.4/2016preVFP/EEMu_MuMuE_Method_DYJetsToEE_MiNNLO.root
/data6/Users/jhchoi/TMVA/TMVA_TOOL/inputs/EEMu_MuMuE_Method/v2405.4/2016preVFP/EEMu_MuMuE_Method_DYJetsToMuMu_MiNNLO.root
…
['belectron_full5x5sigmaietaieta', 'fabs(belectron_detaseed)', 'belectron_HoverE', 'belectron_InvEminusInvP', 'belectron_aeta', 'belectron_pt', 'belectron_dR_l_j', 'belectron_palongjet', 'belectron_palongjetratio']
sigcut-> (belectron_charge*bjet_partonFlavour < 0)&&(Has_bElectron)
bkgcut-> (belectron_charge*bjet_partonFlavour > 0)&&(Has_bElectron)
<sig cut>= (belectron_charge*bjet_partonFlavour < 0)&&(Has_bElectron)
<bkg cut>= (belectron_charge*bjet_partonFlavour > 0)&&(Has_bElectron)
_________________________________________________________________
Layer (type)                 Output Shape              Param #   
=================================================================
dense_133 (Dense)            (None, 128)               2176      
_________________________________________________________________
batch_normalization_111 (Bat (None, 128)               512       
_________________________________________________________________
activation_133 (Activation)  (None, 128)               0         
_________________________________________________________________
dropout_111 (Dropout)        (None, 128)               0         
_________________________________________________________________
dense_134 (Dense)            (None, 128)               16512     
_________________________________________________________________
batch_normalization_112 (Bat (None, 128)               512       
_________________________________________________________________
activation_134 (Activation)  (None, 128)               0         
_________________________________________________________________
dropout_112 (Dropout)        (None, 128)               0         
_________________________________________________________________
dense_135 (Dense)            (None, 128)               16512     
_________________________________________________________________
batch_normalization_113 (Bat (None, 128)               512       
_________________________________________________________________
activation_135 (Activation)  (None, 128)               0         
_________________________________________________________________
dropout_113 (Dropout)        (None, 128)               0         
_________________________________________________________________
dense_136 (Dense)            (None, 128)               16512     
_________________________________________________________________
batch_normalization_114 (Bat (None, 128)               512       
_________________________________________________________________
activation_136 (Activation)  (None, 128)               0         
_________________________________________________________________
dropout_114 (Dropout)        (None, 128)               0         
_________________________________________________________________
dense_137 (Dense)            (None, 128)               16512     
_________________________________________________________________
batch_normalization_115 (Bat (None, 128)               512       
_________________________________________________________________
activation_137 (Activation)  (None, 128)               0         
_________________________________________________________________
dropout_115 (Dropout)        (None, 128)               0         
_________________________________________________________________
dense_138 (Dense)            (None, 2)                 258       
_________________________________________________________________
activation_138 (Activation)  (None, 2)                 0         
=================================================================
Total params: 71,042
Trainable params: 69,762
Non-trainable params: 1,280
_________________________________________________________________
---sig_test---
<self.testtree_sig> OutTree/sig
/data6/Users/jhchoi/TMVA/TMVA_TOOL/inputs/EEMu_MuMuE_Method/v2405.4/2016preVFP/EEMu_MuMuE_Method_DYJetsToEE_MiNNLO.root
/data6/Users/jhchoi/TMVA/TMVA_TOOL/inputs/EEMu_MuMuE_Method/v2405.4/2016preVFP/EEMu_MuMuE_Method_DYJetsToMuMu_MiNNLO.root
…
['belectron_full5x5sigmaietaieta', 'fabs(belectron_detaseed)', 'belectron_HoverE', 'belectron_InvEminusInvP', 'belectron_aeta', 'belectron_pt', 'belectron_dR_l_j', 'belectron_palongjet', 'bjet_NeutralHadronEnergyFraction', 'bjet_NeutralEmEnergyFraction']
sigcut-> (belectron_charge*bjet_partonFlavour < 0)&&(Has_bElectron)
bkgcut-> (belectron_charge*bjet_partonFlavour > 0)&&(Has_bElectron)
<sig cut>= (belectron_charge*bjet_partonFlavour < 0)&&(Has_bElectron)
<bkg cut>= (belectron_charge*bjet_partonFlavour > 0)&&(Has_bElectron)
_________________________________________________________________
Layer (type)                 Output Shape              Param #   
=================================================================
dense_229 (Dense)            (None, 128)               2048      
_________________________________________________________________
batch_normalization_191 (Bat (None, 128)               512       
_________________________________________________________________
activation_229 (Activation)  (None, 128)               0         
_________________________________________________________________
dropout_191 (Dropout)        (None, 128)               0         
_________________________________________________________________
dense_230 (Dense)            (None, 128)               16512     
_________________________________________________________________
batch_normalization_192 (Bat (None, 128)               512       
_________________________________________________________________
activation_230 (Activation)  (None, 128)               0         
_________________________________________________________________
dropout_192 (Dropout)        (None, 128)               0         
_________________________________________________________________
dense_231 (Dense)            (None, 128)               16512     
_________________________________________________________________
batch_normalization_193 (Bat (None, 128)               512       
_________________________________________________________________
activation_231 (Activation)  (None, 128)               0         
_________________________________________________________________
dropout_193 (Dropout)        (None, 128)               0         
_________________________________________________________________
dense_232 (Dense)            (None, 128)               16512     
_________________________________________________________________
batch_normalization_194 (Bat (None, 128)               512       
_________________________________________________________________
activation_232 (Activation)  (None, 128)               0         
_________________________________________________________________
dropout_194 (Dropout)        (None, 128)               0         
_________________________________________________________________
dense_233 (Dense)            (None, 128)               16512     
_________________________________________________________________
batch_normalization_195 (Bat (None, 128)               512       
_________________________________________________________________
activation_233 (Activation)  (None, 128)               0         
_________________________________________________________________
dropout_195 (Dropout)        (None, 128)               0         
_________________________________________________________________
dense_234 (Dense)            (None, 2)                 258       
_________________________________________________________________
activation_234 (Activation)  (None, 2)                 0         
=================================================================
Total params: 70,914
Trainable params: 69,634
Non-trainable params: 1,280
_________________________________________________________________
---sig_test---
<self.testtree_sig> OutTree/sig
/data6/Users/jhchoi/TMVA/TMVA_TOOL/inputs/EEMu_MuMuE_Method/v2405.4/2016preVFP/EEMu_MuMuE_Method_DYJetsToEE_MiNNLO.root
/data6/Users/jhchoi/TMVA/TMVA_TOOL/inputs/EEMu_MuMuE_Method/v2405.4/2016preVFP/EEMu_MuMuE_Method_DYJetsToMuMu_MiNNLO.root
…
['belectron_full5x5sigmaietaieta', 'fabs(belectron_detaseed)', 'belectron_HoverE', 'belectron_InvEminusInvP', 'belectron_aeta', 'belectron_pt', 'belectron_dR_l_j', 'belectron_palongjet', 'bjet_NeutralHadronEnergyFraction', 'bjet_MuonEnergyFraction', 'bjet_ChargedMultiplicity']
sigcut-> (belectron_charge*bjet_partonFlavour < 0)&&(Has_bElectron)
bkgcut-> (belectron_charge*bjet_partonFlavour > 0)&&(Has_bElectron)
<sig cut>= (belectron_charge*bjet_partonFlavour < 0)&&(Has_bElectron)
<bkg cut>= (belectron_charge*bjet_partonFlavour > 0)&&(Has_bElectron)
_________________________________________________________________
Layer (type)                 Output Shape              Param #   
=================================================================
dense_283 (Dense)            (None, 128)               1920      
_________________________________________________________________
batch_normalization_236 (Bat (None, 128)               512       
_________________________________________________________________
activation_283 (Activation)  (None, 128)               0         
_________________________________________________________________
dropout_236 (Dropout)        (None, 128)               0         
_________________________________________________________________
dense_284 (Dense)            (None, 128)               16512     
_________________________________________________________________
batch_normalization_237 (Bat (None, 128)               512       
_________________________________________________________________
activation_284 (Activation)  (None, 128)               0         
_________________________________________________________________
dropout_237 (Dropout)        (None, 128)               0         
_________________________________________________________________
dense_285 (Dense)            (None, 128)               16512     
_________________________________________________________________
batch_normalization_238 (Bat (None, 128)               512       
_________________________________________________________________
activation_285 (Activation)  (None, 128)               0         
_________________________________________________________________
dropout_238 (Dropout)        (None, 128)               0         
_________________________________________________________________
dense_286 (Dense)            (None, 128)               16512     
_________________________________________________________________
batch_normalization_239 (Bat (None, 128)               512       
_________________________________________________________________
activation_286 (Activation)  (None, 128)               0         
_________________________________________________________________
dropout_239 (Dropout)        (None, 128)               0         
_________________________________________________________________
dense_287 (Dense)            (None, 128)               16512     
_________________________________________________________________
batch_normalization_240 (Bat (None, 128)               512       
_________________________________________________________________
activation_287 (Activation)  (None, 128)               0         
_________________________________________________________________
dropout_240 (Dropout)        (None, 128)               0         
_________________________________________________________________
dense_288 (Dense)            (None, 2)                 258       
_________________________________________________________________
activation_288 (Activation)  (None, 2)                 0         
=================================================================
Total params: 70,786
Trainable params: 69,506
Non-trainable params: 1,280
_________________________________________________________________
---sig_test---
<self.testtree_sig> OutTree/sig
/data6/Users/jhchoi/TMVA/TMVA_TOOL/inputs/EEMu_MuMuE_Method/v2405.4/2016preVFP/EEMu_MuMuE_Method_DYJetsToEE_MiNNLO.root
/data6/Users/jhchoi/TMVA/TMVA_TOOL/inputs/EEMu_MuMuE_Method/v2405.4/2016preVFP/EEMu_MuMuE_Method_DYJetsToMuMu_MiNNLO.root
…
['belectron_full5x5sigmaietaieta', 'fabs(belectron_detaseed)', 'belectron_HoverE', 'belectron_InvEminusInvP', 'belectron_aeta', 'belectron_pt', 'belectron_dR_l_j', 'belectron_palongjet', 'bjet_NeutralHadronEnergyFraction', 'bjet_MuonEnergyFraction', 'bjet_NeutralMultiplicity', 'bjet_pt']
sigcut-> (belectron_charge*bjet_partonFlavour < 0)&&(Has_bElectron)
bkgcut-> (belectron_charge*bjet_partonFlavour > 0)&&(Has_bElectron)
<sig cut>= (belectron_charge*bjet_partonFlavour < 0)&&(Has_bElectron)
<bkg cut>= (belectron_charge*bjet_partonFlavour > 0)&&(Has_bElectron)
_________________________________________________________________
Layer (type)                 Output Shape              Param #   
=================================================================
dense_319 (Dense)            (None, 128)               1792      
_________________________________________________________________
batch_normalization_266 (Bat (None, 128)               512       
_________________________________________________________________
activation_319 (Activation)  (None, 128)               0         
_________________________________________________________________
dropout_266 (Dropout)        (None, 128)               0         
_________________________________________________________________
dense_320 (Dense)            (None, 128)               16512     
_________________________________________________________________
batch_normalization_267 (Bat (None, 128)               512       
_________________________________________________________________
activation_320 (Activation)  (None, 128)               0         
_________________________________________________________________
dropout_267 (Dropout)        (None, 128)               0         
_________________________________________________________________
dense_321 (Dense)            (None, 128)               16512     
_________________________________________________________________
batch_normalization_268 (Bat (None, 128)               512       
_________________________________________________________________
activation_321 (Activation)  (None, 128)               0         
_________________________________________________________________
dropout_268 (Dropout)        (None, 128)               0         
_________________________________________________________________
dense_322 (Dense)            (None, 128)               16512     
_________________________________________________________________
batch_normalization_269 (Bat (None, 128)               512       
_________________________________________________________________
activation_322 (Activation)  (None, 128)               0         
_________________________________________________________________
dropout_269 (Dropout)        (None, 128)               0         
_________________________________________________________________
dense_323 (Dense)            (None, 128)               16512     
_________________________________________________________________
batch_normalization_270 (Bat (None, 128)               512       
_________________________________________________________________
activation_323 (Activation)  (None, 128)               0         
_________________________________________________________________
dropout_270 (Dropout)        (None, 128)               0         
_________________________________________________________________
dense_324 (Dense)            (None, 2)                 258       
_________________________________________________________________
activation_324 (Activation)  (None, 2)                 0         
=================================================================
Total params: 70,658
Trainable params: 69,378
Non-trainable params: 1,280
_________________________________________________________________
---sig_test---
<self.testtree_sig> OutTree/sig
/data6/Users/jhchoi/TMVA/TMVA_TOOL/inputs/EEMu_MuMuE_Method/v2405.4/2016preVFP/EEMu_MuMuE_Method_DYJetsToEE_MiNNLO.root
/data6/Users/jhchoi/TMVA/TMVA_TOOL/inputs/EEMu_MuMuE_Method/v2405.4/2016preVFP/EEMu_MuMuE_Method_DYJetsToMuMu_MiNNLO.root
…
['belectron_full5x5sigmaietaieta', 'fabs(belectron_detaseed)', 'belectron_HoverE', 'belectron_InvEminusInvP', 'belectron_aeta', 'belectron_pt', 'belectron_dR_l_j', 'belectron_palongjet', 'bjet_NeutralHadronEnergyFraction', 'bjet_MuonEnergyFraction', 'bjet_NeutralMultiplicity', 'bjet_pt', 'bjet_aeta']
sigcut-> (belectron_charge*bjet_partonFlavour < 0)&&(Has_bElectron)
bkgcut-> (belectron_charge*bjet_partonFlavour > 0)&&(Has_bElectron)
<sig cut>= (belectron_charge*bjet_partonFlavour < 0)&&(Has_bElectron)
<bkg cut>= (belectron_charge*bjet_partonFlavour > 0)&&(Has_bElectron)
_________________________________________________________________
Layer (type)                 Output Shape              Param #   
=================================================================
dense_337 (Dense)            (None, 128)               1664      
_________________________________________________________________
batch_normalization_281 (Bat (None, 128)               512       
_________________________________________________________________
activation_337 (Activation)  (None, 128)               0         
_________________________________________________________________
dropout_281 (Dropout)        (None, 128)               0         
_________________________________________________________________
dense_338 (Dense)            (None, 128)               16512     
_________________________________________________________________
batch_normalization_282 (Bat (None, 128)               512       
_________________________________________________________________
activation_338 (Activation)  (None, 128)               0         
_________________________________________________________________
dropout_282 (Dropout)        (None, 128)               0         
_________________________________________________________________
dense_339 (Dense)            (None, 128)               16512     
_________________________________________________________________
batch_normalization_283 (Bat (None, 128)               512       
_________________________________________________________________
activation_339 (Activation)  (None, 128)               0         
_________________________________________________________________
dropout_283 (Dropout)        (None, 128)               0         
_________________________________________________________________
dense_340 (Dense)            (None, 128)               16512     
_________________________________________________________________
batch_normalization_284 (Bat (None, 128)               512       
_________________________________________________________________
activation_340 (Activation)  (None, 128)               0         
_________________________________________________________________
dropout_284 (Dropout)        (None, 128)               0         
_________________________________________________________________
dense_341 (Dense)            (None, 128)               16512     
_________________________________________________________________
batch_normalization_285 (Bat (None, 128)               512       
_________________________________________________________________
activation_341 (Activation)  (None, 128)               0         
_________________________________________________________________
dropout_285 (Dropout)        (None, 128)               0         
_________________________________________________________________
dense_342 (Dense)            (None, 2)                 258       
_________________________________________________________________
activation_342 (Activation)  (None, 2)                 0         
=================================================================
Total params: 70,530
Trainable params: 69,250
Non-trainable params: 1,280
_________________________________________________________________
---sig_test---
<self.testtree_sig> OutTree/sig
/data6/Users/jhchoi/TMVA/TMVA_TOOL/inputs/EEMu_MuMuE_Method/v2405.4/2016preVFP/EEMu_MuMuE_Method_DYJetsToEE_MiNNLO.root
/data6/Users/jhchoi/TMVA/TMVA_TOOL/inputs/EEMu_MuMuE_Method/v2405.4/2016preVFP/EEMu_MuMuE_Method_DYJetsToMuMu_MiNNLO.root
…
