…
======
TEST-> belectron_full5x5sigmaietaieta
--SKIP FOLLOWING VARS
['belectron_full5x5sigmaietaieta']
sigcut-> (belectron_charge*bjet_partonFlavour < 0)&&(Has_bElectron)
bkgcut-> (belectron_charge*bjet_partonFlavour > 0)&&(Has_bElectron)
<sig cut>= (belectron_charge*bjet_partonFlavour < 0)&&(Has_bElectron)
<bkg cut>= (belectron_charge*bjet_partonFlavour > 0)&&(Has_bElectron)
_________________________________________________________________
Layer (type)                 Output Shape              Param #   
=================================================================
dense_1 (Dense)              (None, 128)               3200      
_________________________________________________________________
batch_normalization_1 (Batch (None, 128)               512       
_________________________________________________________________
activation_1 (Activation)    (None, 128)               0         
_________________________________________________________________
dropout_1 (Dropout)          (None, 128)               0         
_________________________________________________________________
dense_2 (Dense)              (None, 128)               16512     
_________________________________________________________________
batch_normalization_2 (Batch (None, 128)               512       
_________________________________________________________________
activation_2 (Activation)    (None, 128)               0         
_________________________________________________________________
dropout_2 (Dropout)          (None, 128)               0         
_________________________________________________________________
dense_3 (Dense)              (None, 128)               16512     
_________________________________________________________________
batch_normalization_3 (Batch (None, 128)               512       
_________________________________________________________________
activation_3 (Activation)    (None, 128)               0         
_________________________________________________________________
dropout_3 (Dropout)          (None, 128)               0         
_________________________________________________________________
dense_4 (Dense)              (None, 128)               16512     
_________________________________________________________________
batch_normalization_4 (Batch (None, 128)               512       
_________________________________________________________________
activation_4 (Activation)    (None, 128)               0         
_________________________________________________________________
dropout_4 (Dropout)          (None, 128)               0         
_________________________________________________________________
dense_5 (Dense)              (None, 128)               16512     
_________________________________________________________________
batch_normalization_5 (Batch (None, 128)               512       
_________________________________________________________________
activation_5 (Activation)    (None, 128)               0         
_________________________________________________________________
dropout_5 (Dropout)          (None, 128)               0         
_________________________________________________________________
dense_6 (Dense)              (None, 2)                 258       
_________________________________________________________________
activation_6 (Activation)    (None, 2)                 0         
=================================================================
Total params: 72,066
Trainable params: 70,786
Non-trainable params: 1,280
_________________________________________________________________
---sig_test---
<self.testtree_sig> OutTree/sig
/data6/Users/jhchoi/TMVA/TMVA_TOOL/inputs/EEMu_MuMuE_Method/v2405.4/2016postVFP/EEMu_MuMuE_Method_DYJetsToEE_MiNNLO.root
/data6/Users/jhchoi/TMVA/TMVA_TOOL/inputs/EEMu_MuMuE_Method/v2405.4/2016postVFP/EEMu_MuMuE_Method_DYJetsToMuMu_MiNNLO.root
…
TEST-> fabs(belectron_detaseed)
--SKIP FOLLOWING VARS
['belectron_full5x5sigmaietaieta', 'fabs(belectron_detaseed)']
sigcut-> (belectron_charge*bjet_partonFlavour < 0)&&(Has_bElectron)
bkgcut-> (belectron_charge*bjet_partonFlavour > 0)&&(Has_bElectron)
<sig cut>= (belectron_charge*bjet_partonFlavour < 0)&&(Has_bElectron)
<bkg cut>= (belectron_charge*bjet_partonFlavour > 0)&&(Has_bElectron)
_________________________________________________________________
Layer (type)                 Output Shape              Param #   
=================================================================
dense_7 (Dense)              (None, 128)               3072      
_________________________________________________________________
batch_normalization_6 (Batch (None, 128)               512       
_________________________________________________________________
activation_7 (Activation)    (None, 128)               0         
_________________________________________________________________
dropout_6 (Dropout)          (None, 128)               0         
_________________________________________________________________
dense_8 (Dense)              (None, 128)               16512     
_________________________________________________________________
batch_normalization_7 (Batch (None, 128)               512       
_________________________________________________________________
activation_8 (Activation)    (None, 128)               0         
_________________________________________________________________
dropout_7 (Dropout)          (None, 128)               0         
_________________________________________________________________
dense_9 (Dense)              (None, 128)               16512     
_________________________________________________________________
batch_normalization_8 (Batch (None, 128)               512       
_________________________________________________________________
activation_9 (Activation)    (None, 128)               0         
_________________________________________________________________
dropout_8 (Dropout)          (None, 128)               0         
_________________________________________________________________
dense_10 (Dense)             (None, 128)               16512     
_________________________________________________________________
batch_normalization_9 (Batch (None, 128)               512       
_________________________________________________________________
activation_10 (Activation)   (None, 128)               0         
_________________________________________________________________
dropout_9 (Dropout)          (None, 128)               0         
_________________________________________________________________
dense_11 (Dense)             (None, 128)               16512     
_________________________________________________________________
batch_normalization_10 (Batc (None, 128)               512       
_________________________________________________________________
activation_11 (Activation)   (None, 128)               0         
_________________________________________________________________
dropout_10 (Dropout)         (None, 128)               0         
_________________________________________________________________
dense_12 (Dense)             (None, 2)                 258       
_________________________________________________________________
activation_12 (Activation)   (None, 2)                 0         
=================================================================
Total params: 71,938
Trainable params: 70,658
Non-trainable params: 1,280
_________________________________________________________________
---sig_test---
<self.testtree_sig> OutTree/sig
/data6/Users/jhchoi/TMVA/TMVA_TOOL/inputs/EEMu_MuMuE_Method/v2405.4/2016postVFP/EEMu_MuMuE_Method_DYJetsToEE_MiNNLO.root
/data6/Users/jhchoi/TMVA/TMVA_TOOL/inputs/EEMu_MuMuE_Method/v2405.4/2016postVFP/EEMu_MuMuE_Method_DYJetsToMuMu_MiNNLO.root
…
--SKIP FOLLOWING VARS
['belectron_full5x5sigmaietaieta', 'fabs(belectron_detaseed)', 'belectron_HoverE']
sigcut-> (belectron_charge*bjet_partonFlavour < 0)&&(Has_bElectron)
bkgcut-> (belectron_charge*bjet_partonFlavour > 0)&&(Has_bElectron)
<sig cut>= (belectron_charge*bjet_partonFlavour < 0)&&(Has_bElectron)
<bkg cut>= (belectron_charge*bjet_partonFlavour > 0)&&(Has_bElectron)
_________________________________________________________________
Layer (type)                 Output Shape              Param #   
=================================================================
dense_13 (Dense)             (None, 128)               2944      
_________________________________________________________________
batch_normalization_11 (Batc (None, 128)               512       
_________________________________________________________________
activation_13 (Activation)   (None, 128)               0         
_________________________________________________________________
dropout_11 (Dropout)         (None, 128)               0         
_________________________________________________________________
dense_14 (Dense)             (None, 128)               16512     
_________________________________________________________________
batch_normalization_12 (Batc (None, 128)               512       
_________________________________________________________________
activation_14 (Activation)   (None, 128)               0         
_________________________________________________________________
dropout_12 (Dropout)         (None, 128)               0         
_________________________________________________________________
dense_15 (Dense)             (None, 128)               16512     
_________________________________________________________________
batch_normalization_13 (Batc (None, 128)               512       
_________________________________________________________________
activation_15 (Activation)   (None, 128)               0         
_________________________________________________________________
dropout_13 (Dropout)         (None, 128)               0         
_________________________________________________________________
dense_16 (Dense)             (None, 128)               16512     
_________________________________________________________________
batch_normalization_14 (Batc (None, 128)               512       
_________________________________________________________________
activation_16 (Activation)   (None, 128)               0         
_________________________________________________________________
dropout_14 (Dropout)         (None, 128)               0         
_________________________________________________________________
dense_17 (Dense)             (None, 128)               16512     
_________________________________________________________________
batch_normalization_15 (Batc (None, 128)               512       
_________________________________________________________________
activation_17 (Activation)   (None, 128)               0         
_________________________________________________________________
dropout_15 (Dropout)         (None, 128)               0         
_________________________________________________________________
dense_18 (Dense)             (None, 2)                 258       
_________________________________________________________________
activation_18 (Activation)   (None, 2)                 0         
=================================================================
Total params: 71,810
Trainable params: 70,530
Non-trainable params: 1,280
_________________________________________________________________
---sig_test---
<self.testtree_sig> OutTree/sig
/data6/Users/jhchoi/TMVA/TMVA_TOOL/inputs/EEMu_MuMuE_Method/v2405.4/2016postVFP/EEMu_MuMuE_Method_DYJetsToEE_MiNNLO.root
/data6/Users/jhchoi/TMVA/TMVA_TOOL/inputs/EEMu_MuMuE_Method/v2405.4/2016postVFP/EEMu_MuMuE_Method_DYJetsToMuMu_MiNNLO.root
…
['belectron_full5x5sigmaietaieta', 'fabs(belectron_detaseed)', 'belectron_HoverE', 'belectron_InvEminusInvP']
sigcut-> (belectron_charge*bjet_partonFlavour < 0)&&(Has_bElectron)
bkgcut-> (belectron_charge*bjet_partonFlavour > 0)&&(Has_bElectron)
<sig cut>= (belectron_charge*bjet_partonFlavour < 0)&&(Has_bElectron)
<bkg cut>= (belectron_charge*bjet_partonFlavour > 0)&&(Has_bElectron)
_________________________________________________________________
Layer (type)                 Output Shape              Param #   
=================================================================
dense_19 (Dense)             (None, 128)               2816      
_________________________________________________________________
batch_normalization_16 (Batc (None, 128)               512       
_________________________________________________________________
activation_19 (Activation)   (None, 128)               0         
_________________________________________________________________
dropout_16 (Dropout)         (None, 128)               0         
_________________________________________________________________
dense_20 (Dense)             (None, 128)               16512     
_________________________________________________________________
batch_normalization_17 (Batc (None, 128)               512       
_________________________________________________________________
activation_20 (Activation)   (None, 128)               0         
_________________________________________________________________
dropout_17 (Dropout)         (None, 128)               0         
_________________________________________________________________
dense_21 (Dense)             (None, 128)               16512     
_________________________________________________________________
batch_normalization_18 (Batc (None, 128)               512       
_________________________________________________________________
activation_21 (Activation)   (None, 128)               0         
_________________________________________________________________
dropout_18 (Dropout)         (None, 128)               0         
_________________________________________________________________
dense_22 (Dense)             (None, 128)               16512     
_________________________________________________________________
batch_normalization_19 (Batc (None, 128)               512       
_________________________________________________________________
activation_22 (Activation)   (None, 128)               0         
_________________________________________________________________
dropout_19 (Dropout)         (None, 128)               0         
_________________________________________________________________
dense_23 (Dense)             (None, 128)               16512     
_________________________________________________________________
batch_normalization_20 (Batc (None, 128)               512       
_________________________________________________________________
activation_23 (Activation)   (None, 128)               0         
_________________________________________________________________
dropout_20 (Dropout)         (None, 128)               0         
_________________________________________________________________
dense_24 (Dense)             (None, 2)                 258       
_________________________________________________________________
activation_24 (Activation)   (None, 2)                 0         
=================================================================
Total params: 71,682
Trainable params: 70,402
Non-trainable params: 1,280
_________________________________________________________________
---sig_test---
<self.testtree_sig> OutTree/sig
/data6/Users/jhchoi/TMVA/TMVA_TOOL/inputs/EEMu_MuMuE_Method/v2405.4/2016postVFP/EEMu_MuMuE_Method_DYJetsToEE_MiNNLO.root
/data6/Users/jhchoi/TMVA/TMVA_TOOL/inputs/EEMu_MuMuE_Method/v2405.4/2016postVFP/EEMu_MuMuE_Method_DYJetsToMuMu_MiNNLO.root
…
['belectron_full5x5sigmaietaieta', 'fabs(belectron_detaseed)', 'belectron_HoverE', 'belectron_InvEminusInvP', 'belectron_nsip3d']
sigcut-> (belectron_charge*bjet_partonFlavour < 0)&&(Has_bElectron)
bkgcut-> (belectron_charge*bjet_partonFlavour > 0)&&(Has_bElectron)
<sig cut>= (belectron_charge*bjet_partonFlavour < 0)&&(Has_bElectron)
<bkg cut>= (belectron_charge*bjet_partonFlavour > 0)&&(Has_bElectron)
_________________________________________________________________
Layer (type)                 Output Shape              Param #   
=================================================================
dense_25 (Dense)             (None, 128)               2688      
_________________________________________________________________
batch_normalization_21 (Batc (None, 128)               512       
_________________________________________________________________
activation_25 (Activation)   (None, 128)               0         
_________________________________________________________________
dropout_21 (Dropout)         (None, 128)               0         
_________________________________________________________________
dense_26 (Dense)             (None, 128)               16512     
_________________________________________________________________
batch_normalization_22 (Batc (None, 128)               512       
_________________________________________________________________
activation_26 (Activation)   (None, 128)               0         
_________________________________________________________________
dropout_22 (Dropout)         (None, 128)               0         
_________________________________________________________________
dense_27 (Dense)             (None, 128)               16512     
_________________________________________________________________
batch_normalization_23 (Batc (None, 128)               512       
_________________________________________________________________
activation_27 (Activation)   (None, 128)               0         
_________________________________________________________________
dropout_23 (Dropout)         (None, 128)               0         
_________________________________________________________________
dense_28 (Dense)             (None, 128)               16512     
_________________________________________________________________
batch_normalization_24 (Batc (None, 128)               512       
_________________________________________________________________
activation_28 (Activation)   (None, 128)               0         
_________________________________________________________________
dropout_24 (Dropout)         (None, 128)               0         
_________________________________________________________________
dense_29 (Dense)             (None, 128)               16512     
_________________________________________________________________
batch_normalization_25 (Batc (None, 128)               512       
_________________________________________________________________
activation_29 (Activation)   (None, 128)               0         
_________________________________________________________________
dropout_25 (Dropout)         (None, 128)               0         
_________________________________________________________________
dense_30 (Dense)             (None, 2)                 258       
_________________________________________________________________
activation_30 (Activation)   (None, 2)                 0         
=================================================================
Total params: 71,554
Trainable params: 70,274
Non-trainable params: 1,280
_________________________________________________________________
---sig_test---
<self.testtree_sig> OutTree/sig
/data6/Users/jhchoi/TMVA/TMVA_TOOL/inputs/EEMu_MuMuE_Method/v2405.4/2016postVFP/EEMu_MuMuE_Method_DYJetsToEE_MiNNLO.root
/data6/Users/jhchoi/TMVA/TMVA_TOOL/inputs/EEMu_MuMuE_Method/v2405.4/2016postVFP/EEMu_MuMuE_Method_DYJetsToMuMu_MiNNLO.root
…
['belectron_full5x5sigmaietaieta', 'fabs(belectron_detaseed)', 'belectron_HoverE', 'belectron_InvEminusInvP', 'belectron_nsip3d', 'belectron_reltrkiso']
sigcut-> (belectron_charge*bjet_partonFlavour < 0)&&(Has_bElectron)
bkgcut-> (belectron_charge*bjet_partonFlavour > 0)&&(Has_bElectron)
<sig cut>= (belectron_charge*bjet_partonFlavour < 0)&&(Has_bElectron)
<bkg cut>= (belectron_charge*bjet_partonFlavour > 0)&&(Has_bElectron)
_________________________________________________________________
Layer (type)                 Output Shape              Param #   
=================================================================
dense_37 (Dense)             (None, 128)               2560      
_________________________________________________________________
batch_normalization_31 (Batc (None, 128)               512       
_________________________________________________________________
activation_37 (Activation)   (None, 128)               0         
_________________________________________________________________
dropout_31 (Dropout)         (None, 128)               0         
_________________________________________________________________
dense_38 (Dense)             (None, 128)               16512     
_________________________________________________________________
batch_normalization_32 (Batc (None, 128)               512       
_________________________________________________________________
activation_38 (Activation)   (None, 128)               0         
_________________________________________________________________
dropout_32 (Dropout)         (None, 128)               0         
_________________________________________________________________
dense_39 (Dense)             (None, 128)               16512     
_________________________________________________________________
batch_normalization_33 (Batc (None, 128)               512       
_________________________________________________________________
activation_39 (Activation)   (None, 128)               0         
_________________________________________________________________
dropout_33 (Dropout)         (None, 128)               0         
_________________________________________________________________
dense_40 (Dense)             (None, 128)               16512     
_________________________________________________________________
batch_normalization_34 (Batc (None, 128)               512       
_________________________________________________________________
activation_40 (Activation)   (None, 128)               0         
_________________________________________________________________
dropout_34 (Dropout)         (None, 128)               0         
_________________________________________________________________
dense_41 (Dense)             (None, 128)               16512     
_________________________________________________________________
batch_normalization_35 (Batc (None, 128)               512       
_________________________________________________________________
activation_41 (Activation)   (None, 128)               0         
_________________________________________________________________
dropout_35 (Dropout)         (None, 128)               0         
_________________________________________________________________
dense_42 (Dense)             (None, 2)                 258       
_________________________________________________________________
activation_42 (Activation)   (None, 2)                 0         
=================================================================
Total params: 71,426
Trainable params: 70,146
Non-trainable params: 1,280
_________________________________________________________________
---sig_test---
<self.testtree_sig> OutTree/sig
/data6/Users/jhchoi/TMVA/TMVA_TOOL/inputs/EEMu_MuMuE_Method/v2405.4/2016postVFP/EEMu_MuMuE_Method_DYJetsToEE_MiNNLO.root
/data6/Users/jhchoi/TMVA/TMVA_TOOL/inputs/EEMu_MuMuE_Method/v2405.4/2016postVFP/EEMu_MuMuE_Method_DYJetsToMuMu_MiNNLO.root
…
['belectron_full5x5sigmaietaieta', 'fabs(belectron_detaseed)', 'belectron_HoverE', 'belectron_InvEminusInvP', 'belectron_nsip3d', 'belectron_reliso', 'belectron_aeta']
sigcut-> (belectron_charge*bjet_partonFlavour < 0)&&(Has_bElectron)
bkgcut-> (belectron_charge*bjet_partonFlavour > 0)&&(Has_bElectron)
<sig cut>= (belectron_charge*bjet_partonFlavour < 0)&&(Has_bElectron)
<bkg cut>= (belectron_charge*bjet_partonFlavour > 0)&&(Has_bElectron)
_________________________________________________________________
Layer (type)                 Output Shape              Param #   
=================================================================
dense_61 (Dense)             (None, 128)               2432      
_________________________________________________________________
batch_normalization_51 (Batc (None, 128)               512       
_________________________________________________________________
activation_61 (Activation)   (None, 128)               0         
_________________________________________________________________
dropout_51 (Dropout)         (None, 128)               0         
_________________________________________________________________
dense_62 (Dense)             (None, 128)               16512     
_________________________________________________________________
batch_normalization_52 (Batc (None, 128)               512       
_________________________________________________________________
activation_62 (Activation)   (None, 128)               0         
_________________________________________________________________
dropout_52 (Dropout)         (None, 128)               0         
_________________________________________________________________
dense_63 (Dense)             (None, 128)               16512     
_________________________________________________________________
batch_normalization_53 (Batc (None, 128)               512       
_________________________________________________________________
activation_63 (Activation)   (None, 128)               0         
_________________________________________________________________
dropout_53 (Dropout)         (None, 128)               0         
_________________________________________________________________
dense_64 (Dense)             (None, 128)               16512     
_________________________________________________________________
batch_normalization_54 (Batc (None, 128)               512       
_________________________________________________________________
activation_64 (Activation)   (None, 128)               0         
_________________________________________________________________
dropout_54 (Dropout)         (None, 128)               0         
_________________________________________________________________
dense_65 (Dense)             (None, 128)               16512     
_________________________________________________________________
batch_normalization_55 (Batc (None, 128)               512       
_________________________________________________________________
activation_65 (Activation)   (None, 128)               0         
_________________________________________________________________
dropout_55 (Dropout)         (None, 128)               0         
_________________________________________________________________
dense_66 (Dense)             (None, 2)                 258       
_________________________________________________________________
activation_66 (Activation)   (None, 2)                 0         
=================================================================
Total params: 71,298
Trainable params: 70,018
Non-trainable params: 1,280
_________________________________________________________________
---sig_test---
<self.testtree_sig> OutTree/sig
/data6/Users/jhchoi/TMVA/TMVA_TOOL/inputs/EEMu_MuMuE_Method/v2405.4/2016postVFP/EEMu_MuMuE_Method_DYJetsToEE_MiNNLO.root
/data6/Users/jhchoi/TMVA/TMVA_TOOL/inputs/EEMu_MuMuE_Method/v2405.4/2016postVFP/EEMu_MuMuE_Method_DYJetsToMuMu_MiNNLO.root
…
['belectron_full5x5sigmaietaieta', 'fabs(belectron_detaseed)', 'belectron_HoverE', 'belectron_InvEminusInvP', 'belectron_nsip3d', 'belectron_reliso', 'belectron_aeta', 'belectron_pt']
sigcut-> (belectron_charge*bjet_partonFlavour < 0)&&(Has_bElectron)
bkgcut-> (belectron_charge*bjet_partonFlavour > 0)&&(Has_bElectron)
<sig cut>= (belectron_charge*bjet_partonFlavour < 0)&&(Has_bElectron)
<bkg cut>= (belectron_charge*bjet_partonFlavour > 0)&&(Has_bElectron)
_________________________________________________________________
Layer (type)                 Output Shape              Param #   
=================================================================
dense_67 (Dense)             (None, 128)               2304      
_________________________________________________________________
batch_normalization_56 (Batc (None, 128)               512       
_________________________________________________________________
activation_67 (Activation)   (None, 128)               0         
_________________________________________________________________
dropout_56 (Dropout)         (None, 128)               0         
_________________________________________________________________
dense_68 (Dense)             (None, 128)               16512     
_________________________________________________________________
batch_normalization_57 (Batc (None, 128)               512       
_________________________________________________________________
activation_68 (Activation)   (None, 128)               0         
_________________________________________________________________
dropout_57 (Dropout)         (None, 128)               0         
_________________________________________________________________
dense_69 (Dense)             (None, 128)               16512     
_________________________________________________________________
batch_normalization_58 (Batc (None, 128)               512       
_________________________________________________________________
activation_69 (Activation)   (None, 128)               0         
_________________________________________________________________
dropout_58 (Dropout)         (None, 128)               0         
_________________________________________________________________
dense_70 (Dense)             (None, 128)               16512     
_________________________________________________________________
batch_normalization_59 (Batc (None, 128)               512       
_________________________________________________________________
activation_70 (Activation)   (None, 128)               0         
_________________________________________________________________
dropout_59 (Dropout)         (None, 128)               0         
_________________________________________________________________
dense_71 (Dense)             (None, 128)               16512     
_________________________________________________________________
batch_normalization_60 (Batc (None, 128)               512       
_________________________________________________________________
activation_71 (Activation)   (None, 128)               0         
_________________________________________________________________
dropout_60 (Dropout)         (None, 128)               0         
_________________________________________________________________
dense_72 (Dense)             (None, 2)                 258       
_________________________________________________________________
activation_72 (Activation)   (None, 2)                 0         
=================================================================
Total params: 71,170
Trainable params: 69,890
Non-trainable params: 1,280
_________________________________________________________________
---sig_test---
<self.testtree_sig> OutTree/sig
/data6/Users/jhchoi/TMVA/TMVA_TOOL/inputs/EEMu_MuMuE_Method/v2405.4/2016postVFP/EEMu_MuMuE_Method_DYJetsToEE_MiNNLO.root
/data6/Users/jhchoi/TMVA/TMVA_TOOL/inputs/EEMu_MuMuE_Method/v2405.4/2016postVFP/EEMu_MuMuE_Method_DYJetsToMuMu_MiNNLO.root
…
['belectron_full5x5sigmaietaieta', 'fabs(belectron_detaseed)', 'belectron_HoverE', 'belectron_InvEminusInvP', 'belectron_nsip3d', 'belectron_reliso', 'belectron_aeta', 'belectron_pt', 'belectron_dR_l_j']
sigcut-> (belectron_charge*bjet_partonFlavour < 0)&&(Has_bElectron)
bkgcut-> (belectron_charge*bjet_partonFlavour > 0)&&(Has_bElectron)
<sig cut>= (belectron_charge*bjet_partonFlavour < 0)&&(Has_bElectron)
<bkg cut>= (belectron_charge*bjet_partonFlavour > 0)&&(Has_bElectron)
_________________________________________________________________
Layer (type)                 Output Shape              Param #   
=================================================================
dense_73 (Dense)             (None, 128)               2176      
_________________________________________________________________
batch_normalization_61 (Batc (None, 128)               512       
_________________________________________________________________
activation_73 (Activation)   (None, 128)               0         
_________________________________________________________________
dropout_61 (Dropout)         (None, 128)               0         
_________________________________________________________________
dense_74 (Dense)             (None, 128)               16512     
_________________________________________________________________
batch_normalization_62 (Batc (None, 128)               512       
_________________________________________________________________
activation_74 (Activation)   (None, 128)               0         
_________________________________________________________________
dropout_62 (Dropout)         (None, 128)               0         
_________________________________________________________________
dense_75 (Dense)             (None, 128)               16512     
_________________________________________________________________
batch_normalization_63 (Batc (None, 128)               512       
_________________________________________________________________
activation_75 (Activation)   (None, 128)               0         
_________________________________________________________________
dropout_63 (Dropout)         (None, 128)               0         
_________________________________________________________________
dense_76 (Dense)             (None, 128)               16512     
_________________________________________________________________
batch_normalization_64 (Batc (None, 128)               512       
_________________________________________________________________
activation_76 (Activation)   (None, 128)               0         
_________________________________________________________________
dropout_64 (Dropout)         (None, 128)               0         
_________________________________________________________________
dense_77 (Dense)             (None, 128)               16512     
_________________________________________________________________
batch_normalization_65 (Batc (None, 128)               512       
_________________________________________________________________
activation_77 (Activation)   (None, 128)               0         
_________________________________________________________________
dropout_65 (Dropout)         (None, 128)               0         
_________________________________________________________________
dense_78 (Dense)             (None, 2)                 258       
_________________________________________________________________
activation_78 (Activation)   (None, 2)                 0         
=================================================================
Total params: 71,042
Trainable params: 69,762
Non-trainable params: 1,280
_________________________________________________________________
---sig_test---
<self.testtree_sig> OutTree/sig
/data6/Users/jhchoi/TMVA/TMVA_TOOL/inputs/EEMu_MuMuE_Method/v2405.4/2016postVFP/EEMu_MuMuE_Method_DYJetsToEE_MiNNLO.root
/data6/Users/jhchoi/TMVA/TMVA_TOOL/inputs/EEMu_MuMuE_Method/v2405.4/2016postVFP/EEMu_MuMuE_Method_DYJetsToMuMu_MiNNLO.root
…
['belectron_full5x5sigmaietaieta', 'fabs(belectron_detaseed)', 'belectron_HoverE', 'belectron_InvEminusInvP', 'belectron_nsip3d', 'belectron_reliso', 'belectron_aeta', 'belectron_pt', 'belectron_dR_l_j', 'belectron_palongjet']
sigcut-> (belectron_charge*bjet_partonFlavour < 0)&&(Has_bElectron)
bkgcut-> (belectron_charge*bjet_partonFlavour > 0)&&(Has_bElectron)
<sig cut>= (belectron_charge*bjet_partonFlavour < 0)&&(Has_bElectron)
<bkg cut>= (belectron_charge*bjet_partonFlavour > 0)&&(Has_bElectron)
_________________________________________________________________
Layer (type)                 Output Shape              Param #   
=================================================================
dense_79 (Dense)             (None, 128)               2048      
_________________________________________________________________
batch_normalization_66 (Batc (None, 128)               512       
_________________________________________________________________
activation_79 (Activation)   (None, 128)               0         
_________________________________________________________________
dropout_66 (Dropout)         (None, 128)               0         
_________________________________________________________________
dense_80 (Dense)             (None, 128)               16512     
_________________________________________________________________
batch_normalization_67 (Batc (None, 128)               512       
_________________________________________________________________
activation_80 (Activation)   (None, 128)               0         
_________________________________________________________________
dropout_67 (Dropout)         (None, 128)               0         
_________________________________________________________________
dense_81 (Dense)             (None, 128)               16512     
_________________________________________________________________
batch_normalization_68 (Batc (None, 128)               512       
_________________________________________________________________
activation_81 (Activation)   (None, 128)               0         
_________________________________________________________________
dropout_68 (Dropout)         (None, 128)               0         
_________________________________________________________________
dense_82 (Dense)             (None, 128)               16512     
_________________________________________________________________
batch_normalization_69 (Batc (None, 128)               512       
_________________________________________________________________
activation_82 (Activation)   (None, 128)               0         
_________________________________________________________________
dropout_69 (Dropout)         (None, 128)               0         
_________________________________________________________________
dense_83 (Dense)             (None, 128)               16512     
_________________________________________________________________
batch_normalization_70 (Batc (None, 128)               512       
_________________________________________________________________
activation_83 (Activation)   (None, 128)               0         
_________________________________________________________________
dropout_70 (Dropout)         (None, 128)               0         
_________________________________________________________________
dense_84 (Dense)             (None, 2)                 258       
_________________________________________________________________
activation_84 (Activation)   (None, 2)                 0         
=================================================================
Total params: 70,914
Trainable params: 69,634
Non-trainable params: 1,280
_________________________________________________________________
---sig_test---
<self.testtree_sig> OutTree/sig
/data6/Users/jhchoi/TMVA/TMVA_TOOL/inputs/EEMu_MuMuE_Method/v2405.4/2016postVFP/EEMu_MuMuE_Method_DYJetsToEE_MiNNLO.root
/data6/Users/jhchoi/TMVA/TMVA_TOOL/inputs/EEMu_MuMuE_Method/v2405.4/2016postVFP/EEMu_MuMuE_Method_DYJetsToMuMu_MiNNLO.root
…
['belectron_full5x5sigmaietaieta', 'fabs(belectron_detaseed)', 'belectron_HoverE', 'belectron_InvEminusInvP', 'belectron_nsip3d', 'belectron_reliso', 'belectron_aeta', 'belectron_pt', 'belectron_dR_l_j', 'belectron_palongjet', 'belectron_palongjetratio']
sigcut-> (belectron_charge*bjet_partonFlavour < 0)&&(Has_bElectron)
bkgcut-> (belectron_charge*bjet_partonFlavour > 0)&&(Has_bElectron)
<sig cut>= (belectron_charge*bjet_partonFlavour < 0)&&(Has_bElectron)
<bkg cut>= (belectron_charge*bjet_partonFlavour > 0)&&(Has_bElectron)
_________________________________________________________________
Layer (type)                 Output Shape              Param #   
=================================================================
dense_85 (Dense)             (None, 128)               1920      
_________________________________________________________________
batch_normalization_71 (Batc (None, 128)               512       
_________________________________________________________________
activation_85 (Activation)   (None, 128)               0         
_________________________________________________________________
dropout_71 (Dropout)         (None, 128)               0         
_________________________________________________________________
dense_86 (Dense)             (None, 128)               16512     
_________________________________________________________________
batch_normalization_72 (Batc (None, 128)               512       
_________________________________________________________________
activation_86 (Activation)   (None, 128)               0         
_________________________________________________________________
dropout_72 (Dropout)         (None, 128)               0         
_________________________________________________________________
dense_87 (Dense)             (None, 128)               16512     
_________________________________________________________________
batch_normalization_73 (Batc (None, 128)               512       
_________________________________________________________________
activation_87 (Activation)   (None, 128)               0         
_________________________________________________________________
dropout_73 (Dropout)         (None, 128)               0         
_________________________________________________________________
dense_88 (Dense)             (None, 128)               16512     
_________________________________________________________________
batch_normalization_74 (Batc (None, 128)               512       
_________________________________________________________________
activation_88 (Activation)   (None, 128)               0         
_________________________________________________________________
dropout_74 (Dropout)         (None, 128)               0         
_________________________________________________________________
dense_89 (Dense)             (None, 128)               16512     
_________________________________________________________________
batch_normalization_75 (Batc (None, 128)               512       
_________________________________________________________________
activation_89 (Activation)   (None, 128)               0         
_________________________________________________________________
dropout_75 (Dropout)         (None, 128)               0         
_________________________________________________________________
dense_90 (Dense)             (None, 2)                 258       
_________________________________________________________________
activation_90 (Activation)   (None, 2)                 0         
=================================================================
Total params: 70,786
Trainable params: 69,506
Non-trainable params: 1,280
_________________________________________________________________
---sig_test---
<self.testtree_sig> OutTree/sig
/data6/Users/jhchoi/TMVA/TMVA_TOOL/inputs/EEMu_MuMuE_Method/v2405.4/2016postVFP/EEMu_MuMuE_Method_DYJetsToEE_MiNNLO.root
/data6/Users/jhchoi/TMVA/TMVA_TOOL/inputs/EEMu_MuMuE_Method/v2405.4/2016postVFP/EEMu_MuMuE_Method_DYJetsToMuMu_MiNNLO.root
…
['belectron_full5x5sigmaietaieta', 'fabs(belectron_detaseed)', 'belectron_HoverE', 'belectron_InvEminusInvP', 'belectron_nsip3d', 'belectron_reliso', 'belectron_aeta', 'belectron_pt', 'belectron_dR_l_j', 'belectron_palongjet', 'belectron_palongjetratio', 'belectron_ptwrtbjet']
sigcut-> (belectron_charge*bjet_partonFlavour < 0)&&(Has_bElectron)
bkgcut-> (belectron_charge*bjet_partonFlavour > 0)&&(Has_bElectron)
<sig cut>= (belectron_charge*bjet_partonFlavour < 0)&&(Has_bElectron)
<bkg cut>= (belectron_charge*bjet_partonFlavour > 0)&&(Has_bElectron)
_________________________________________________________________
Layer (type)                 Output Shape              Param #   
=================================================================
dense_97 (Dense)             (None, 128)               1792      
_________________________________________________________________
batch_normalization_81 (Batc (None, 128)               512       
_________________________________________________________________
activation_97 (Activation)   (None, 128)               0         
_________________________________________________________________
dropout_81 (Dropout)         (None, 128)               0         
_________________________________________________________________
dense_98 (Dense)             (None, 128)               16512     
_________________________________________________________________
batch_normalization_82 (Batc (None, 128)               512       
_________________________________________________________________
activation_98 (Activation)   (None, 128)               0         
_________________________________________________________________
dropout_82 (Dropout)         (None, 128)               0         
_________________________________________________________________
dense_99 (Dense)             (None, 128)               16512     
_________________________________________________________________
batch_normalization_83 (Batc (None, 128)               512       
_________________________________________________________________
activation_99 (Activation)   (None, 128)               0         
_________________________________________________________________
dropout_83 (Dropout)         (None, 128)               0         
_________________________________________________________________
dense_100 (Dense)            (None, 128)               16512     
_________________________________________________________________
batch_normalization_84 (Batc (None, 128)               512       
_________________________________________________________________
activation_100 (Activation)  (None, 128)               0         
_________________________________________________________________
dropout_84 (Dropout)         (None, 128)               0         
_________________________________________________________________
dense_101 (Dense)            (None, 128)               16512     
_________________________________________________________________
batch_normalization_85 (Batc (None, 128)               512       
_________________________________________________________________
activation_101 (Activation)  (None, 128)               0         
_________________________________________________________________
dropout_85 (Dropout)         (None, 128)               0         
_________________________________________________________________
dense_102 (Dense)            (None, 2)                 258       
_________________________________________________________________
activation_102 (Activation)  (None, 2)                 0         
=================================================================
Total params: 70,658
Trainable params: 69,378
Non-trainable params: 1,280
_________________________________________________________________
---sig_test---
<self.testtree_sig> OutTree/sig
/data6/Users/jhchoi/TMVA/TMVA_TOOL/inputs/EEMu_MuMuE_Method/v2405.4/2016postVFP/EEMu_MuMuE_Method_DYJetsToEE_MiNNLO.root
/data6/Users/jhchoi/TMVA/TMVA_TOOL/inputs/EEMu_MuMuE_Method/v2405.4/2016postVFP/EEMu_MuMuE_Method_DYJetsToMuMu_MiNNLO.root
…
['belectron_full5x5sigmaietaieta', 'fabs(belectron_detaseed)', 'belectron_HoverE', 'belectron_InvEminusInvP', 'belectron_nsip3d', 'belectron_reliso', 'belectron_aeta', 'belectron_pt', 'belectron_dR_l_j', 'belectron_palongjet', 'belectron_palongjetratio', 'belectron_P_jetrest', 'bjet_charge*belectron_charge']
sigcut-> (belectron_charge*bjet_partonFlavour < 0)&&(Has_bElectron)
bkgcut-> (belectron_charge*bjet_partonFlavour > 0)&&(Has_bElectron)
<sig cut>= (belectron_charge*bjet_partonFlavour < 0)&&(Has_bElectron)
<bkg cut>= (belectron_charge*bjet_partonFlavour > 0)&&(Has_bElectron)
_________________________________________________________________
Layer (type)                 Output Shape              Param #   
=================================================================
dense_133 (Dense)            (None, 128)               1664      
_________________________________________________________________
batch_normalization_111 (Bat (None, 128)               512       
_________________________________________________________________
activation_133 (Activation)  (None, 128)               0         
_________________________________________________________________
dropout_111 (Dropout)        (None, 128)               0         
_________________________________________________________________
dense_134 (Dense)            (None, 128)               16512     
_________________________________________________________________
batch_normalization_112 (Bat (None, 128)               512       
_________________________________________________________________
activation_134 (Activation)  (None, 128)               0         
_________________________________________________________________
dropout_112 (Dropout)        (None, 128)               0         
_________________________________________________________________
dense_135 (Dense)            (None, 128)               16512     
_________________________________________________________________
batch_normalization_113 (Bat (None, 128)               512       
_________________________________________________________________
activation_135 (Activation)  (None, 128)               0         
_________________________________________________________________
dropout_113 (Dropout)        (None, 128)               0         
_________________________________________________________________
dense_136 (Dense)            (None, 128)               16512     
_________________________________________________________________
batch_normalization_114 (Bat (None, 128)               512       
_________________________________________________________________
activation_136 (Activation)  (None, 128)               0         
_________________________________________________________________
dropout_114 (Dropout)        (None, 128)               0         
_________________________________________________________________
dense_137 (Dense)            (None, 128)               16512     
_________________________________________________________________
batch_normalization_115 (Bat (None, 128)               512       
_________________________________________________________________
activation_137 (Activation)  (None, 128)               0         
_________________________________________________________________
dropout_115 (Dropout)        (None, 128)               0         
_________________________________________________________________
dense_138 (Dense)            (None, 2)                 258       
_________________________________________________________________
activation_138 (Activation)  (None, 2)                 0         
=================================================================
Total params: 70,530
Trainable params: 69,250
Non-trainable params: 1,280
_________________________________________________________________
---sig_test---
<self.testtree_sig> OutTree/sig
/data6/Users/jhchoi/TMVA/TMVA_TOOL/inputs/EEMu_MuMuE_Method/v2405.4/2016postVFP/EEMu_MuMuE_Method_DYJetsToEE_MiNNLO.root
/data6/Users/jhchoi/TMVA/TMVA_TOOL/inputs/EEMu_MuMuE_Method/v2405.4/2016postVFP/EEMu_MuMuE_Method_DYJetsToMuMu_MiNNLO.root
…
['belectron_full5x5sigmaietaieta', 'fabs(belectron_detaseed)', 'belectron_HoverE', 'belectron_InvEminusInvP', 'belectron_nsip3d', 'belectron_reliso', 'belectron_aeta', 'belectron_pt', 'belectron_dR_l_j', 'belectron_palongjet', 'belectron_palongjetratio', 'belectron_P_jetrest', 'bjet_ChargedHadronEnergyFraction', 'bjet_NeutralHadronEnergyFraction']
sigcut-> (belectron_charge*bjet_partonFlavour < 0)&&(Has_bElectron)
bkgcut-> (belectron_charge*bjet_partonFlavour > 0)&&(Has_bElectron)
<sig cut>= (belectron_charge*bjet_partonFlavour < 0)&&(Has_bElectron)
<bkg cut>= (belectron_charge*bjet_partonFlavour > 0)&&(Has_bElectron)
_________________________________________________________________
Layer (type)                 Output Shape              Param #   
=================================================================
dense_163 (Dense)            (None, 128)               1536      
_________________________________________________________________
batch_normalization_136 (Bat (None, 128)               512       
_________________________________________________________________
activation_163 (Activation)  (None, 128)               0         
_________________________________________________________________
dropout_136 (Dropout)        (None, 128)               0         
_________________________________________________________________
dense_164 (Dense)            (None, 128)               16512     
_________________________________________________________________
batch_normalization_137 (Bat (None, 128)               512       
_________________________________________________________________
activation_164 (Activation)  (None, 128)               0         
_________________________________________________________________
dropout_137 (Dropout)        (None, 128)               0         
_________________________________________________________________
dense_165 (Dense)            (None, 128)               16512     
_________________________________________________________________
batch_normalization_138 (Bat (None, 128)               512       
_________________________________________________________________
activation_165 (Activation)  (None, 128)               0         
_________________________________________________________________
dropout_138 (Dropout)        (None, 128)               0         
_________________________________________________________________
dense_166 (Dense)            (None, 128)               16512     
_________________________________________________________________
batch_normalization_139 (Bat (None, 128)               512       
_________________________________________________________________
activation_166 (Activation)  (None, 128)               0         
_________________________________________________________________
dropout_139 (Dropout)        (None, 128)               0         
_________________________________________________________________
dense_167 (Dense)            (None, 128)               16512     
_________________________________________________________________
batch_normalization_140 (Bat (None, 128)               512       
_________________________________________________________________
activation_167 (Activation)  (None, 128)               0         
_________________________________________________________________
dropout_140 (Dropout)        (None, 128)               0         
_________________________________________________________________
dense_168 (Dense)            (None, 2)                 258       
_________________________________________________________________
activation_168 (Activation)  (None, 2)                 0         
=================================================================
Total params: 70,402
Trainable params: 69,122
Non-trainable params: 1,280
_________________________________________________________________
---sig_test---
<self.testtree_sig> OutTree/sig
/data6/Users/jhchoi/TMVA/TMVA_TOOL/inputs/EEMu_MuMuE_Method/v2405.4/2016postVFP/EEMu_MuMuE_Method_DYJetsToEE_MiNNLO.root
/data6/Users/jhchoi/TMVA/TMVA_TOOL/inputs/EEMu_MuMuE_Method/v2405.4/2016postVFP/EEMu_MuMuE_Method_DYJetsToMuMu_MiNNLO.root
…
['belectron_full5x5sigmaietaieta', 'fabs(belectron_detaseed)', 'belectron_HoverE', 'belectron_InvEminusInvP', 'belectron_nsip3d', 'belectron_reliso', 'belectron_aeta', 'belectron_pt', 'belectron_dR_l_j', 'belectron_palongjet', 'belectron_palongjetratio', 'belectron_P_jetrest', 'bjet_ChargedHadronEnergyFraction', 'bjet_NeutralHadronEnergyFraction', 'bjet_NeutralEmEnergyFraction']
sigcut-> (belectron_charge*bjet_partonFlavour < 0)&&(Has_bElectron)
bkgcut-> (belectron_charge*bjet_partonFlavour > 0)&&(Has_bElectron)
<sig cut>= (belectron_charge*bjet_partonFlavour < 0)&&(Has_bElectron)
<bkg cut>= (belectron_charge*bjet_partonFlavour > 0)&&(Has_bElectron)
_________________________________________________________________
Layer (type)                 Output Shape              Param #   
=================================================================
dense_175 (Dense)            (None, 128)               1408      
_________________________________________________________________
batch_normalization_146 (Bat (None, 128)               512       
_________________________________________________________________
activation_175 (Activation)  (None, 128)               0         
_________________________________________________________________
dropout_146 (Dropout)        (None, 128)               0         
_________________________________________________________________
dense_176 (Dense)            (None, 128)               16512     
_________________________________________________________________
batch_normalization_147 (Bat (None, 128)               512       
_________________________________________________________________
activation_176 (Activation)  (None, 128)               0         
_________________________________________________________________
dropout_147 (Dropout)        (None, 128)               0         
_________________________________________________________________
dense_177 (Dense)            (None, 128)               16512     
_________________________________________________________________
batch_normalization_148 (Bat (None, 128)               512       
_________________________________________________________________
activation_177 (Activation)  (None, 128)               0         
_________________________________________________________________
dropout_148 (Dropout)        (None, 128)               0         
_________________________________________________________________
dense_178 (Dense)            (None, 128)               16512     
_________________________________________________________________
batch_normalization_149 (Bat (None, 128)               512       
_________________________________________________________________
activation_178 (Activation)  (None, 128)               0         
_________________________________________________________________
dropout_149 (Dropout)        (None, 128)               0         
_________________________________________________________________
dense_179 (Dense)            (None, 128)               16512     
_________________________________________________________________
batch_normalization_150 (Bat (None, 128)               512       
_________________________________________________________________
activation_179 (Activation)  (None, 128)               0         
_________________________________________________________________
dropout_150 (Dropout)        (None, 128)               0         
_________________________________________________________________
dense_180 (Dense)            (None, 2)                 258       
_________________________________________________________________
activation_180 (Activation)  (None, 2)                 0         
=================================================================
Total params: 70,274
Trainable params: 68,994
Non-trainable params: 1,280
_________________________________________________________________
---sig_test---
<self.testtree_sig> OutTree/sig
/data6/Users/jhchoi/TMVA/TMVA_TOOL/inputs/EEMu_MuMuE_Method/v2405.4/2016postVFP/EEMu_MuMuE_Method_DYJetsToEE_MiNNLO.root
/data6/Users/jhchoi/TMVA/TMVA_TOOL/inputs/EEMu_MuMuE_Method/v2405.4/2016postVFP/EEMu_MuMuE_Method_DYJetsToMuMu_MiNNLO.root
…
['belectron_full5x5sigmaietaieta', 'fabs(belectron_detaseed)', 'belectron_HoverE', 'belectron_InvEminusInvP', 'belectron_nsip3d', 'belectron_reliso', 'belectron_aeta', 'belectron_pt', 'belectron_dR_l_j', 'belectron_palongjet', 'belectron_palongjetratio', 'belectron_P_jetrest', 'bjet_ChargedHadronEnergyFraction', 'bjet_NeutralHadronEnergyFraction', 'bjet_NeutralMultiplicity', 'bjet_pt']
sigcut-> (belectron_charge*bjet_partonFlavour < 0)&&(Has_bElectron)
bkgcut-> (belectron_charge*bjet_partonFlavour > 0)&&(Has_bElectron)
<sig cut>= (belectron_charge*bjet_partonFlavour < 0)&&(Has_bElectron)
<bkg cut>= (belectron_charge*bjet_partonFlavour > 0)&&(Has_bElectron)
_________________________________________________________________
Layer (type)                 Output Shape              Param #   
=================================================================
dense_253 (Dense)            (None, 128)               1280      
_________________________________________________________________
batch_normalization_211 (Bat (None, 128)               512       
_________________________________________________________________
activation_253 (Activation)  (None, 128)               0         
_________________________________________________________________
dropout_211 (Dropout)        (None, 128)               0         
_________________________________________________________________
dense_254 (Dense)            (None, 128)               16512     
_________________________________________________________________
batch_normalization_212 (Bat (None, 128)               512       
_________________________________________________________________
activation_254 (Activation)  (None, 128)               0         
_________________________________________________________________
dropout_212 (Dropout)        (None, 128)               0         
_________________________________________________________________
dense_255 (Dense)            (None, 128)               16512     
_________________________________________________________________
batch_normalization_213 (Bat (None, 128)               512       
_________________________________________________________________
activation_255 (Activation)  (None, 128)               0         
_________________________________________________________________
dropout_213 (Dropout)        (None, 128)               0         
_________________________________________________________________
dense_256 (Dense)            (None, 128)               16512     
_________________________________________________________________
batch_normalization_214 (Bat (None, 128)               512       
_________________________________________________________________
activation_256 (Activation)  (None, 128)               0         
_________________________________________________________________
dropout_214 (Dropout)        (None, 128)               0         
_________________________________________________________________
dense_257 (Dense)            (None, 128)               16512     
_________________________________________________________________
batch_normalization_215 (Bat (None, 128)               512       
_________________________________________________________________
activation_257 (Activation)  (None, 128)               0         
_________________________________________________________________
dropout_215 (Dropout)        (None, 128)               0         
_________________________________________________________________
dense_258 (Dense)            (None, 2)                 258       
_________________________________________________________________
activation_258 (Activation)  (None, 2)                 0         
=================================================================
Total params: 70,146
Trainable params: 68,866
Non-trainable params: 1,280
_________________________________________________________________
---sig_test---
<self.testtree_sig> OutTree/sig
/data6/Users/jhchoi/TMVA/TMVA_TOOL/inputs/EEMu_MuMuE_Method/v2405.4/2016postVFP/EEMu_MuMuE_Method_DYJetsToEE_MiNNLO.root
/data6/Users/jhchoi/TMVA/TMVA_TOOL/inputs/EEMu_MuMuE_Method/v2405.4/2016postVFP/EEMu_MuMuE_Method_DYJetsToMuMu_MiNNLO.root
…
bjet_NeutralHadronEnergyFraction', 'bjet_NeutralMultiplicity', 'bjet_aeta', 'fabs(bjet_charge)']
sigcut-> (belectron_charge*bjet_partonFlavour < 0)&&(Has_bElectron)
bkgcut-> (belectron_charge*bjet_partonFlavour > 0)&&(Has_bElectron)
<sig cut>= (belectron_charge*bjet_partonFlavour < 0)&&(Has_bElectron)
<bkg cut>= (belectron_charge*bjet_partonFlavour > 0)&&(Has_bElectron)
_________________________________________________________________
Layer (type)                 Output Shape              Param #   
=================================================================
dense_283 (Dense)            (None, 128)               1152      
_________________________________________________________________
batch_normalization_236 (Bat (None, 128)               512       
_________________________________________________________________
activation_283 (Activation)  (None, 128)               0         
_________________________________________________________________
dropout_236 (Dropout)        (None, 128)               0         
_________________________________________________________________
dense_284 (Dense)            (None, 128)               16512     
_________________________________________________________________
batch_normalization_237 (Bat (None, 128)               512       
_________________________________________________________________
activation_284 (Activation)  (None, 128)               0         
_________________________________________________________________
dropout_237 (Dropout)        (None, 128)               0         
_________________________________________________________________
dense_285 (Dense)            (None, 128)               16512     
_________________________________________________________________
batch_normalization_238 (Bat (None, 128)               512       
_________________________________________________________________
activation_285 (Activation)  (None, 128)               0         
_________________________________________________________________
dropout_238 (Dropout)        (None, 128)               0         
_________________________________________________________________
dense_286 (Dense)            (None, 128)               16512     
_________________________________________________________________
batch_normalization_239 (Bat (None, 128)               512       
_________________________________________________________________
activation_286 (Activation)  (None, 128)               0         
_________________________________________________________________
dropout_239 (Dropout)        (None, 128)               0         
_________________________________________________________________
dense_287 (Dense)            (None, 128)               16512     
_________________________________________________________________
batch_normalization_240 (Bat (None, 128)               512       
_________________________________________________________________
activation_287 (Activation)  (None, 128)               0         
_________________________________________________________________
dropout_240 (Dropout)        (None, 128)               0         
_________________________________________________________________
dense_288 (Dense)            (None, 2)                 258       
_________________________________________________________________
activation_288 (Activation)  (None, 2)                 0         
=================================================================
Total params: 70,018
Trainable params: 68,738
Non-trainable params: 1,280
_________________________________________________________________
---sig_test---
<self.testtree_sig> OutTree/sig
/data6/Users/jhchoi/TMVA/TMVA_TOOL/inputs/EEMu_MuMuE_Method/v2405.4/2016postVFP/EEMu_MuMuE_Method_DYJetsToEE_MiNNLO.root
/data6/Users/jhchoi/TMVA/TMVA_TOOL/inputs/EEMu_MuMuE_Method/v2405.4/2016postVFP/EEMu_MuMuE_Method_DYJetsToMuMu_MiNNLO.root
…
