…
--SKIP FOLLOWING VARS
['bjet_ChargedHadronEnergyFraction']
sigcut-> (bjet_charge*bjet_partonFlavour < 0)&&(!Has_bElectron)&&(!Has_bMuon)
bkgcut-> (bjet_charge*bjet_partonFlavour > 0)&&(!Has_bElectron)&&(!Has_bMuon)
<sig cut>= (bjet_charge*bjet_partonFlavour < 0)&&(!Has_bElectron)&&(!Has_bMuon)
<bkg cut>= (bjet_charge*bjet_partonFlavour > 0)&&(!Has_bElectron)&&(!Has_bMuon)
_________________________________________________________________
Layer (type)                 Output Shape              Param #   
=================================================================
dense_1 (Dense)              (None, 128)               1280      
_________________________________________________________________
batch_normalization_1 (Batch (None, 128)               512       
_________________________________________________________________
activation_1 (Activation)    (None, 128)               0         
_________________________________________________________________
dropout_1 (Dropout)          (None, 128)               0         
_________________________________________________________________
dense_2 (Dense)              (None, 128)               16512     
_________________________________________________________________
batch_normalization_2 (Batch (None, 128)               512       
_________________________________________________________________
activation_2 (Activation)    (None, 128)               0         
_________________________________________________________________
dropout_2 (Dropout)          (None, 128)               0         
_________________________________________________________________
dense_3 (Dense)              (None, 128)               16512     
_________________________________________________________________
batch_normalization_3 (Batch (None, 128)               512       
_________________________________________________________________
activation_3 (Activation)    (None, 128)               0         
_________________________________________________________________
dropout_3 (Dropout)          (None, 128)               0         
_________________________________________________________________
dense_4 (Dense)              (None, 2)                 258       
_________________________________________________________________
activation_4 (Activation)    (None, 2)                 0         
=================================================================
Total params: 36,098
Trainable params: 35,330
Non-trainable params: 768
_________________________________________________________________
---sig_test---
<self.testtree_sig> OutTree/sig
/data6/Users/jhchoi/TMVA/TMVA_TOOL/inputs/EEMu_MuMuE_Method/v2405.4/2018/EEMu_MuMuE_Method_DYJetsToEE_MiNNLO.root
/data6/Users/jhchoi/TMVA/TMVA_TOOL/inputs/EEMu_MuMuE_Method/v2405.4/2018/EEMu_MuMuE_Method_DYJetsToMuMu_MiNNLO.root
…
['bjet_ChargedHadronEnergyFraction', 'bjet_NeutralEmEnergyFraction']
sigcut-> (bjet_charge*bjet_partonFlavour < 0)&&(!Has_bElectron)&&(!Has_bMuon)
bkgcut-> (bjet_charge*bjet_partonFlavour > 0)&&(!Has_bElectron)&&(!Has_bMuon)
<sig cut>= (bjet_charge*bjet_partonFlavour < 0)&&(!Has_bElectron)&&(!Has_bMuon)
<bkg cut>= (bjet_charge*bjet_partonFlavour > 0)&&(!Has_bElectron)&&(!Has_bMuon)
_________________________________________________________________
Layer (type)                 Output Shape              Param #   
=================================================================
dense_5 (Dense)              (None, 128)               1152      
_________________________________________________________________
batch_normalization_4 (Batch (None, 128)               512       
_________________________________________________________________
activation_5 (Activation)    (None, 128)               0         
_________________________________________________________________
dropout_4 (Dropout)          (None, 128)               0         
_________________________________________________________________
dense_6 (Dense)              (None, 128)               16512     
_________________________________________________________________
batch_normalization_5 (Batch (None, 128)               512       
_________________________________________________________________
activation_6 (Activation)    (None, 128)               0         
_________________________________________________________________
dropout_5 (Dropout)          (None, 128)               0         
_________________________________________________________________
dense_7 (Dense)              (None, 128)               16512     
_________________________________________________________________
batch_normalization_6 (Batch (None, 128)               512       
_________________________________________________________________
activation_7 (Activation)    (None, 128)               0         
_________________________________________________________________
dropout_6 (Dropout)          (None, 128)               0         
_________________________________________________________________
dense_8 (Dense)              (None, 2)                 258       
_________________________________________________________________
activation_8 (Activation)    (None, 2)                 0         
=================================================================
Total params: 35,970
Trainable params: 35,202
Non-trainable params: 768
_________________________________________________________________
---sig_test---
<self.testtree_sig> OutTree/sig
/data6/Users/jhchoi/TMVA/TMVA_TOOL/inputs/EEMu_MuMuE_Method/v2405.4/2018/EEMu_MuMuE_Method_DYJetsToEE_MiNNLO.root
/data6/Users/jhchoi/TMVA/TMVA_TOOL/inputs/EEMu_MuMuE_Method/v2405.4/2018/EEMu_MuMuE_Method_DYJetsToMuMu_MiNNLO.root
…
['bjet_ChargedHadronEnergyFraction', 'bjet_NeutralEmEnergyFraction', 'bjet_MuonEnergyFraction']
sigcut-> (bjet_charge*bjet_partonFlavour < 0)&&(!Has_bElectron)&&(!Has_bMuon)
bkgcut-> (bjet_charge*bjet_partonFlavour > 0)&&(!Has_bElectron)&&(!Has_bMuon)
<sig cut>= (bjet_charge*bjet_partonFlavour < 0)&&(!Has_bElectron)&&(!Has_bMuon)
<bkg cut>= (bjet_charge*bjet_partonFlavour > 0)&&(!Has_bElectron)&&(!Has_bMuon)
_________________________________________________________________
Layer (type)                 Output Shape              Param #   
=================================================================
dense_9 (Dense)              (None, 128)               1024      
_________________________________________________________________
batch_normalization_7 (Batch (None, 128)               512       
_________________________________________________________________
activation_9 (Activation)    (None, 128)               0         
_________________________________________________________________
dropout_7 (Dropout)          (None, 128)               0         
_________________________________________________________________
dense_10 (Dense)             (None, 128)               16512     
_________________________________________________________________
batch_normalization_8 (Batch (None, 128)               512       
_________________________________________________________________
activation_10 (Activation)   (None, 128)               0         
_________________________________________________________________
dropout_8 (Dropout)          (None, 128)               0         
_________________________________________________________________
dense_11 (Dense)             (None, 128)               16512     
_________________________________________________________________
batch_normalization_9 (Batch (None, 128)               512       
_________________________________________________________________
activation_11 (Activation)   (None, 128)               0         
_________________________________________________________________
dropout_9 (Dropout)          (None, 128)               0         
_________________________________________________________________
dense_12 (Dense)             (None, 2)                 258       
_________________________________________________________________
activation_12 (Activation)   (None, 2)                 0         
=================================================================
Total params: 35,842
Trainable params: 35,074
Non-trainable params: 768
_________________________________________________________________
---sig_test---
<self.testtree_sig> OutTree/sig
/data6/Users/jhchoi/TMVA/TMVA_TOOL/inputs/EEMu_MuMuE_Method/v2405.4/2018/EEMu_MuMuE_Method_DYJetsToEE_MiNNLO.root
/data6/Users/jhchoi/TMVA/TMVA_TOOL/inputs/EEMu_MuMuE_Method/v2405.4/2018/EEMu_MuMuE_Method_DYJetsToMuMu_MiNNLO.root
…
['bjet_ChargedHadronEnergyFraction', 'bjet_NeutralEmEnergyFraction', 'bjet_MuonEnergyFraction', 'bjet_NeutralMultiplicity']
sigcut-> (bjet_charge*bjet_partonFlavour < 0)&&(!Has_bElectron)&&(!Has_bMuon)
bkgcut-> (bjet_charge*bjet_partonFlavour > 0)&&(!Has_bElectron)&&(!Has_bMuon)
<sig cut>= (bjet_charge*bjet_partonFlavour < 0)&&(!Has_bElectron)&&(!Has_bMuon)
<bkg cut>= (bjet_charge*bjet_partonFlavour > 0)&&(!Has_bElectron)&&(!Has_bMuon)
_________________________________________________________________
Layer (type)                 Output Shape              Param #   
=================================================================
dense_13 (Dense)             (None, 128)               896       
_________________________________________________________________
batch_normalization_10 (Batc (None, 128)               512       
_________________________________________________________________
activation_13 (Activation)   (None, 128)               0         
_________________________________________________________________
dropout_10 (Dropout)         (None, 128)               0         
_________________________________________________________________
dense_14 (Dense)             (None, 128)               16512     
_________________________________________________________________
batch_normalization_11 (Batc (None, 128)               512       
_________________________________________________________________
activation_14 (Activation)   (None, 128)               0         
_________________________________________________________________
dropout_11 (Dropout)         (None, 128)               0         
_________________________________________________________________
dense_15 (Dense)             (None, 128)               16512     
_________________________________________________________________
batch_normalization_12 (Batc (None, 128)               512       
_________________________________________________________________
activation_15 (Activation)   (None, 128)               0         
_________________________________________________________________
dropout_12 (Dropout)         (None, 128)               0         
_________________________________________________________________
dense_16 (Dense)             (None, 2)                 258       
_________________________________________________________________
activation_16 (Activation)   (None, 2)                 0         
=================================================================
Total params: 35,714
Trainable params: 34,946
Non-trainable params: 768
_________________________________________________________________
---sig_test---
<self.testtree_sig> OutTree/sig
/data6/Users/jhchoi/TMVA/TMVA_TOOL/inputs/EEMu_MuMuE_Method/v2405.4/2018/EEMu_MuMuE_Method_DYJetsToEE_MiNNLO.root
/data6/Users/jhchoi/TMVA/TMVA_TOOL/inputs/EEMu_MuMuE_Method/v2405.4/2018/EEMu_MuMuE_Method_DYJetsToMuMu_MiNNLO.root
…
['bjet_ChargedHadronEnergyFraction', 'bjet_NeutralEmEnergyFraction', 'bjet_MuonEnergyFraction', 'bjet_NeutralMultiplicity', 'bjet_aeta']
sigcut-> (bjet_charge*bjet_partonFlavour < 0)&&(!Has_bElectron)&&(!Has_bMuon)
bkgcut-> (bjet_charge*bjet_partonFlavour > 0)&&(!Has_bElectron)&&(!Has_bMuon)
<sig cut>= (bjet_charge*bjet_partonFlavour < 0)&&(!Has_bElectron)&&(!Has_bMuon)
<bkg cut>= (bjet_charge*bjet_partonFlavour > 0)&&(!Has_bElectron)&&(!Has_bMuon)
_________________________________________________________________
Layer (type)                 Output Shape              Param #   
=================================================================
dense_17 (Dense)             (None, 128)               768       
_________________________________________________________________
batch_normalization_13 (Batc (None, 128)               512       
_________________________________________________________________
activation_17 (Activation)   (None, 128)               0         
_________________________________________________________________
dropout_13 (Dropout)         (None, 128)               0         
_________________________________________________________________
dense_18 (Dense)             (None, 128)               16512     
_________________________________________________________________
batch_normalization_14 (Batc (None, 128)               512       
_________________________________________________________________
activation_18 (Activation)   (None, 128)               0         
_________________________________________________________________
dropout_14 (Dropout)         (None, 128)               0         
_________________________________________________________________
dense_19 (Dense)             (None, 128)               16512     
_________________________________________________________________
batch_normalization_15 (Batc (None, 128)               512       
_________________________________________________________________
activation_19 (Activation)   (None, 128)               0         
_________________________________________________________________
dropout_15 (Dropout)         (None, 128)               0         
_________________________________________________________________
dense_20 (Dense)             (None, 2)                 258       
_________________________________________________________________
activation_20 (Activation)   (None, 2)                 0         
=================================================================
Total params: 35,586
Trainable params: 34,818
Non-trainable params: 768
_________________________________________________________________
---sig_test---
<self.testtree_sig> OutTree/sig
/data6/Users/jhchoi/TMVA/TMVA_TOOL/inputs/EEMu_MuMuE_Method/v2405.4/2018/EEMu_MuMuE_Method_DYJetsToEE_MiNNLO.root
/data6/Users/jhchoi/TMVA/TMVA_TOOL/inputs/EEMu_MuMuE_Method/v2405.4/2018/EEMu_MuMuE_Method_DYJetsToMuMu_MiNNLO.root
…
