…
NeutralMultiplicity', 'bjet_pt', 'bjet_aeta', 'fabs(bjet_charge)']
======
TEST-> bmuon_normchi2
--SKIP FOLLOWING VARS
['bmuon_normchi2']
sigcut-> (bmuon_charge*bjet_partonFlavour < 0)&&Has_bMuon
bkgcut-> (bmuon_charge*bjet_partonFlavour > 0)&&Has_bMuon
<sig cut>= (bmuon_charge*bjet_partonFlavour < 0)&&Has_bMuon
<bkg cut>= (bmuon_charge*bjet_partonFlavour > 0)&&Has_bMuon
_________________________________________________________________
Layer (type)                 Output Shape              Param #   
=================================================================
dense_1 (Dense)              (None, 128)               3328      
_________________________________________________________________
batch_normalization_1 (Batch (None, 128)               512       
_________________________________________________________________
activation_1 (Activation)    (None, 128)               0         
_________________________________________________________________
dropout_1 (Dropout)          (None, 128)               0         
_________________________________________________________________
dense_2 (Dense)              (None, 128)               16512     
_________________________________________________________________
batch_normalization_2 (Batch (None, 128)               512       
_________________________________________________________________
activation_2 (Activation)    (None, 128)               0         
_________________________________________________________________
dropout_2 (Dropout)          (None, 128)               0         
_________________________________________________________________
dense_3 (Dense)              (None, 128)               16512     
_________________________________________________________________
batch_normalization_3 (Batch (None, 128)               512       
_________________________________________________________________
activation_3 (Activation)    (None, 128)               0         
_________________________________________________________________
dropout_3 (Dropout)          (None, 128)               0         
_________________________________________________________________
dense_4 (Dense)              (None, 128)               16512     
_________________________________________________________________
batch_normalization_4 (Batch (None, 128)               512       
_________________________________________________________________
activation_4 (Activation)    (None, 128)               0         
_________________________________________________________________
dropout_4 (Dropout)          (None, 128)               0         
_________________________________________________________________
dense_5 (Dense)              (None, 128)               16512     
_________________________________________________________________
batch_normalization_5 (Batch (None, 128)               512       
_________________________________________________________________
activation_5 (Activation)    (None, 128)               0         
_________________________________________________________________
dropout_5 (Dropout)          (None, 128)               0         
_________________________________________________________________
dense_6 (Dense)              (None, 2)                 258       
_________________________________________________________________
activation_6 (Activation)    (None, 2)                 0         
=================================================================
Total params: 72,194
Trainable params: 70,914
Non-trainable params: 1,280
_________________________________________________________________
---sig_test---
<self.testtree_sig> OutTree/sig
/data6/Users/jhchoi/TMVA/TMVA_TOOL/inputs/EEMu_MuMuE_Method/v2405.4/2017/EEMu_MuMuE_Method_DYJetsToEE_MiNNLO.root
/data6/Users/jhchoi/TMVA/TMVA_TOOL/inputs/EEMu_MuMuE_Method/v2405.4/2017/EEMu_MuMuE_Method_DYJetsToMuMu_MiNNLO.root
…
no  bmuon_normchi2 -->AUC= 0.763979607272
AUC cut= 0.763
======
TEST-> bmuon_ntracklayers
--SKIP FOLLOWING VARS
['bmuon_normchi2', 'bmuon_ntracklayers']
sigcut-> (bmuon_charge*bjet_partonFlavour < 0)&&Has_bMuon
bkgcut-> (bmuon_charge*bjet_partonFlavour > 0)&&Has_bMuon
<sig cut>= (bmuon_charge*bjet_partonFlavour < 0)&&Has_bMuon
<bkg cut>= (bmuon_charge*bjet_partonFlavour > 0)&&Has_bMuon
_________________________________________________________________
Layer (type)                 Output Shape              Param #   
=================================================================
dense_7 (Dense)              (None, 128)               3200      
_________________________________________________________________
batch_normalization_6 (Batch (None, 128)               512       
_________________________________________________________________
activation_7 (Activation)    (None, 128)               0         
_________________________________________________________________
dropout_6 (Dropout)          (None, 128)               0         
_________________________________________________________________
dense_8 (Dense)              (None, 128)               16512     
_________________________________________________________________
batch_normalization_7 (Batch (None, 128)               512       
_________________________________________________________________
activation_8 (Activation)    (None, 128)               0         
_________________________________________________________________
dropout_7 (Dropout)          (None, 128)               0         
_________________________________________________________________
dense_9 (Dense)              (None, 128)               16512     
_________________________________________________________________
batch_normalization_8 (Batch (None, 128)               512       
_________________________________________________________________
activation_9 (Activation)    (None, 128)               0         
_________________________________________________________________
dropout_8 (Dropout)          (None, 128)               0         
_________________________________________________________________
dense_10 (Dense)             (None, 128)               16512     
_________________________________________________________________
batch_normalization_9 (Batch (None, 128)               512       
_________________________________________________________________
activation_10 (Activation)   (None, 128)               0         
_________________________________________________________________
dropout_9 (Dropout)          (None, 128)               0         
_________________________________________________________________
dense_11 (Dense)             (None, 128)               16512     
_________________________________________________________________
batch_normalization_10 (Batc (None, 128)               512       
_________________________________________________________________
activation_11 (Activation)   (None, 128)               0         
_________________________________________________________________
dropout_10 (Dropout)         (None, 128)               0         
_________________________________________________________________
dense_12 (Dense)             (None, 2)                 258       
_________________________________________________________________
activation_12 (Activation)   (None, 2)                 0         
=================================================================
Total params: 72,066
Trainable params: 70,786
Non-trainable params: 1,280
_________________________________________________________________
---sig_test---
<self.testtree_sig> OutTree/sig
/data6/Users/jhchoi/TMVA/TMVA_TOOL/inputs/EEMu_MuMuE_Method/v2405.4/2017/EEMu_MuMuE_Method_DYJetsToEE_MiNNLO.root
/data6/Users/jhchoi/TMVA/TMVA_TOOL/inputs/EEMu_MuMuE_Method/v2405.4/2017/EEMu_MuMuE_Method_DYJetsToMuMu_MiNNLO.root
…
no  bmuon_ntracklayers -->AUC= 0.764366315909
AUC cut= 0.763
======
TEST-> bmuon_ntrackhits
--SKIP FOLLOWING VARS
['bmuon_normchi2', 'bmuon_ntracklayers', 'bmuon_ntrackhits']
sigcut-> (bmuon_charge*bjet_partonFlavour < 0)&&Has_bMuon
bkgcut-> (bmuon_charge*bjet_partonFlavour > 0)&&Has_bMuon
<sig cut>= (bmuon_charge*bjet_partonFlavour < 0)&&Has_bMuon
<bkg cut>= (bmuon_charge*bjet_partonFlavour > 0)&&Has_bMuon
_________________________________________________________________
Layer (type)                 Output Shape              Param #   
=================================================================
dense_19 (Dense)             (None, 128)               3072      
_________________________________________________________________
batch_normalization_16 (Batc (None, 128)               512       
_________________________________________________________________
activation_19 (Activation)   (None, 128)               0         
_________________________________________________________________
dropout_16 (Dropout)         (None, 128)               0         
_________________________________________________________________
dense_20 (Dense)             (None, 128)               16512     
_________________________________________________________________
batch_normalization_17 (Batc (None, 128)               512       
_________________________________________________________________
activation_20 (Activation)   (None, 128)               0         
_________________________________________________________________
dropout_17 (Dropout)         (None, 128)               0         
_________________________________________________________________
dense_21 (Dense)             (None, 128)               16512     
_________________________________________________________________
batch_normalization_18 (Batc (None, 128)               512       
_________________________________________________________________
activation_21 (Activation)   (None, 128)               0         
_________________________________________________________________
dropout_18 (Dropout)         (None, 128)               0         
_________________________________________________________________
dense_22 (Dense)             (None, 128)               16512     
_________________________________________________________________
batch_normalization_19 (Batc (None, 128)               512       
_________________________________________________________________
activation_22 (Activation)   (None, 128)               0         
_________________________________________________________________
dropout_19 (Dropout)         (None, 128)               0         
_________________________________________________________________
dense_23 (Dense)             (None, 128)               16512     
_________________________________________________________________
batch_normalization_20 (Batc (None, 128)               512       
_________________________________________________________________
activation_23 (Activation)   (None, 128)               0         
_________________________________________________________________
dropout_20 (Dropout)         (None, 128)               0         
_________________________________________________________________
dense_24 (Dense)             (None, 2)                 258       
_________________________________________________________________
activation_24 (Activation)   (None, 2)                 0         
=================================================================
Total params: 71,938
Trainable params: 70,658
Non-trainable params: 1,280
_________________________________________________________________
---sig_test---
<self.testtree_sig> OutTree/sig
/data6/Users/jhchoi/TMVA/TMVA_TOOL/inputs/EEMu_MuMuE_Method/v2405.4/2017/EEMu_MuMuE_Method_DYJetsToEE_MiNNLO.root
/data6/Users/jhchoi/TMVA/TMVA_TOOL/inputs/EEMu_MuMuE_Method/v2405.4/2017/EEMu_MuMuE_Method_DYJetsToMuMu_MiNNLO.root
…
TEST-> bmuon_nmatchedstations
--SKIP FOLLOWING VARS
['bmuon_normchi2', 'bmuon_ntracklayers', 'bmuon_ntrackhits', 'bmuon_nmatchedstations']
sigcut-> (bmuon_charge*bjet_partonFlavour < 0)&&Has_bMuon
bkgcut-> (bmuon_charge*bjet_partonFlavour > 0)&&Has_bMuon
<sig cut>= (bmuon_charge*bjet_partonFlavour < 0)&&Has_bMuon
<bkg cut>= (bmuon_charge*bjet_partonFlavour > 0)&&Has_bMuon
_________________________________________________________________
Layer (type)                 Output Shape              Param #   
=================================================================
dense_25 (Dense)             (None, 128)               2944      
_________________________________________________________________
batch_normalization_21 (Batc (None, 128)               512       
_________________________________________________________________
activation_25 (Activation)   (None, 128)               0         
_________________________________________________________________
dropout_21 (Dropout)         (None, 128)               0         
_________________________________________________________________
dense_26 (Dense)             (None, 128)               16512     
_________________________________________________________________
batch_normalization_22 (Batc (None, 128)               512       
_________________________________________________________________
activation_26 (Activation)   (None, 128)               0         
_________________________________________________________________
dropout_22 (Dropout)         (None, 128)               0         
_________________________________________________________________
dense_27 (Dense)             (None, 128)               16512     
_________________________________________________________________
batch_normalization_23 (Batc (None, 128)               512       
_________________________________________________________________
activation_27 (Activation)   (None, 128)               0         
_________________________________________________________________
dropout_23 (Dropout)         (None, 128)               0         
_________________________________________________________________
dense_28 (Dense)             (None, 128)               16512     
_________________________________________________________________
batch_normalization_24 (Batc (None, 128)               512       
_________________________________________________________________
activation_28 (Activation)   (None, 128)               0         
_________________________________________________________________
dropout_24 (Dropout)         (None, 128)               0         
_________________________________________________________________
dense_29 (Dense)             (None, 128)               16512     
_________________________________________________________________
batch_normalization_25 (Batc (None, 128)               512       
_________________________________________________________________
activation_29 (Activation)   (None, 128)               0         
_________________________________________________________________
dropout_25 (Dropout)         (None, 128)               0         
_________________________________________________________________
dense_30 (Dense)             (None, 2)                 258       
_________________________________________________________________
activation_30 (Activation)   (None, 2)                 0         
=================================================================
Total params: 71,810
Trainable params: 70,530
Non-trainable params: 1,280
_________________________________________________________________
---sig_test---
<self.testtree_sig> OutTree/sig
/data6/Users/jhchoi/TMVA/TMVA_TOOL/inputs/EEMu_MuMuE_Method/v2405.4/2017/EEMu_MuMuE_Method_DYJetsToEE_MiNNLO.root
/data6/Users/jhchoi/TMVA/TMVA_TOOL/inputs/EEMu_MuMuE_Method/v2405.4/2017/EEMu_MuMuE_Method_DYJetsToMuMu_MiNNLO.root
…
TEST-> bmuon_nvalidmuonhits
--SKIP FOLLOWING VARS
['bmuon_normchi2', 'bmuon_ntracklayers', 'bmuon_ntrackhits', 'bmuon_nmatchedstations', 'bmuon_nvalidmuonhits']
sigcut-> (bmuon_charge*bjet_partonFlavour < 0)&&Has_bMuon
bkgcut-> (bmuon_charge*bjet_partonFlavour > 0)&&Has_bMuon
<sig cut>= (bmuon_charge*bjet_partonFlavour < 0)&&Has_bMuon
<bkg cut>= (bmuon_charge*bjet_partonFlavour > 0)&&Has_bMuon
_________________________________________________________________
Layer (type)                 Output Shape              Param #   
=================================================================
dense_31 (Dense)             (None, 128)               2816      
_________________________________________________________________
batch_normalization_26 (Batc (None, 128)               512       
_________________________________________________________________
activation_31 (Activation)   (None, 128)               0         
_________________________________________________________________
dropout_26 (Dropout)         (None, 128)               0         
_________________________________________________________________
dense_32 (Dense)             (None, 128)               16512     
_________________________________________________________________
batch_normalization_27 (Batc (None, 128)               512       
_________________________________________________________________
activation_32 (Activation)   (None, 128)               0         
_________________________________________________________________
dropout_27 (Dropout)         (None, 128)               0         
_________________________________________________________________
dense_33 (Dense)             (None, 128)               16512     
_________________________________________________________________
batch_normalization_28 (Batc (None, 128)               512       
_________________________________________________________________
activation_33 (Activation)   (None, 128)               0         
_________________________________________________________________
dropout_28 (Dropout)         (None, 128)               0         
_________________________________________________________________
dense_34 (Dense)             (None, 128)               16512     
_________________________________________________________________
batch_normalization_29 (Batc (None, 128)               512       
_________________________________________________________________
activation_34 (Activation)   (None, 128)               0         
_________________________________________________________________
dropout_29 (Dropout)         (None, 128)               0         
_________________________________________________________________
dense_35 (Dense)             (None, 128)               16512     
_________________________________________________________________
batch_normalization_30 (Batc (None, 128)               512       
_________________________________________________________________
activation_35 (Activation)   (None, 128)               0         
_________________________________________________________________
dropout_30 (Dropout)         (None, 128)               0         
_________________________________________________________________
dense_36 (Dense)             (None, 2)                 258       
_________________________________________________________________
activation_36 (Activation)   (None, 2)                 0         
=================================================================
Total params: 71,682
Trainable params: 70,402
Non-trainable params: 1,280
_________________________________________________________________
---sig_test---
<self.testtree_sig> OutTree/sig
/data6/Users/jhchoi/TMVA/TMVA_TOOL/inputs/EEMu_MuMuE_Method/v2405.4/2017/EEMu_MuMuE_Method_DYJetsToEE_MiNNLO.root
/data6/Users/jhchoi/TMVA/TMVA_TOOL/inputs/EEMu_MuMuE_Method/v2405.4/2017/EEMu_MuMuE_Method_DYJetsToMuMu_MiNNLO.root
…
--SKIP FOLLOWING VARS
['bmuon_normchi2', 'bmuon_ntracklayers', 'bmuon_ntrackhits', 'bmuon_nmatchedstations', 'bmuon_nvalidmuonhits', 'bmuon_nsip3d']
sigcut-> (bmuon_charge*bjet_partonFlavour < 0)&&Has_bMuon
bkgcut-> (bmuon_charge*bjet_partonFlavour > 0)&&Has_bMuon
<sig cut>= (bmuon_charge*bjet_partonFlavour < 0)&&Has_bMuon
<bkg cut>= (bmuon_charge*bjet_partonFlavour > 0)&&Has_bMuon
_________________________________________________________________
Layer (type)                 Output Shape              Param #   
=================================================================
dense_37 (Dense)             (None, 128)               2688      
_________________________________________________________________
batch_normalization_31 (Batc (None, 128)               512       
_________________________________________________________________
activation_37 (Activation)   (None, 128)               0         
_________________________________________________________________
dropout_31 (Dropout)         (None, 128)               0         
_________________________________________________________________
dense_38 (Dense)             (None, 128)               16512     
_________________________________________________________________
batch_normalization_32 (Batc (None, 128)               512       
_________________________________________________________________
activation_38 (Activation)   (None, 128)               0         
_________________________________________________________________
dropout_32 (Dropout)         (None, 128)               0         
_________________________________________________________________
dense_39 (Dense)             (None, 128)               16512     
_________________________________________________________________
batch_normalization_33 (Batc (None, 128)               512       
_________________________________________________________________
activation_39 (Activation)   (None, 128)               0         
_________________________________________________________________
dropout_33 (Dropout)         (None, 128)               0         
_________________________________________________________________
dense_40 (Dense)             (None, 128)               16512     
_________________________________________________________________
batch_normalization_34 (Batc (None, 128)               512       
_________________________________________________________________
activation_40 (Activation)   (None, 128)               0         
_________________________________________________________________
dropout_34 (Dropout)         (None, 128)               0         
_________________________________________________________________
dense_41 (Dense)             (None, 128)               16512     
_________________________________________________________________
batch_normalization_35 (Batc (None, 128)               512       
_________________________________________________________________
activation_41 (Activation)   (None, 128)               0         
_________________________________________________________________
dropout_35 (Dropout)         (None, 128)               0         
_________________________________________________________________
dense_42 (Dense)             (None, 2)                 258       
_________________________________________________________________
activation_42 (Activation)   (None, 2)                 0         
=================================================================
Total params: 71,554
Trainable params: 70,274
Non-trainable params: 1,280
_________________________________________________________________
---sig_test---
<self.testtree_sig> OutTree/sig
/data6/Users/jhchoi/TMVA/TMVA_TOOL/inputs/EEMu_MuMuE_Method/v2405.4/2017/EEMu_MuMuE_Method_DYJetsToEE_MiNNLO.root
/data6/Users/jhchoi/TMVA/TMVA_TOOL/inputs/EEMu_MuMuE_Method/v2405.4/2017/EEMu_MuMuE_Method_DYJetsToMuMu_MiNNLO.root
…
['bmuon_normchi2', 'bmuon_ntracklayers', 'bmuon_ntrackhits', 'bmuon_nmatchedstations', 'bmuon_nvalidmuonhits', 'bmuon_reltrkiso', 'bmuon_reliso']
sigcut-> (bmuon_charge*bjet_partonFlavour < 0)&&Has_bMuon
bkgcut-> (bmuon_charge*bjet_partonFlavour > 0)&&Has_bMuon
<sig cut>= (bmuon_charge*bjet_partonFlavour < 0)&&Has_bMuon
<bkg cut>= (bmuon_charge*bjet_partonFlavour > 0)&&Has_bMuon
_________________________________________________________________
Layer (type)                 Output Shape              Param #   
=================================================================
dense_67 (Dense)             (None, 128)               2560      
_________________________________________________________________
batch_normalization_56 (Batc (None, 128)               512       
_________________________________________________________________
activation_67 (Activation)   (None, 128)               0         
_________________________________________________________________
dropout_56 (Dropout)         (None, 128)               0         
_________________________________________________________________
dense_68 (Dense)             (None, 128)               16512     
_________________________________________________________________
batch_normalization_57 (Batc (None, 128)               512       
_________________________________________________________________
activation_68 (Activation)   (None, 128)               0         
_________________________________________________________________
dropout_57 (Dropout)         (None, 128)               0         
_________________________________________________________________
dense_69 (Dense)             (None, 128)               16512     
_________________________________________________________________
batch_normalization_58 (Batc (None, 128)               512       
_________________________________________________________________
activation_69 (Activation)   (None, 128)               0         
_________________________________________________________________
dropout_58 (Dropout)         (None, 128)               0         
_________________________________________________________________
dense_70 (Dense)             (None, 128)               16512     
_________________________________________________________________
batch_normalization_59 (Batc (None, 128)               512       
_________________________________________________________________
activation_70 (Activation)   (None, 128)               0         
_________________________________________________________________
dropout_59 (Dropout)         (None, 128)               0         
_________________________________________________________________
dense_71 (Dense)             (None, 128)               16512     
_________________________________________________________________
batch_normalization_60 (Batc (None, 128)               512       
_________________________________________________________________
activation_71 (Activation)   (None, 128)               0         
_________________________________________________________________
dropout_60 (Dropout)         (None, 128)               0         
_________________________________________________________________
dense_72 (Dense)             (None, 2)                 258       
_________________________________________________________________
activation_72 (Activation)   (None, 2)                 0         
=================================================================
Total params: 71,426
Trainable params: 70,146
Non-trainable params: 1,280
_________________________________________________________________
---sig_test---
<self.testtree_sig> OutTree/sig
/data6/Users/jhchoi/TMVA/TMVA_TOOL/inputs/EEMu_MuMuE_Method/v2405.4/2017/EEMu_MuMuE_Method_DYJetsToEE_MiNNLO.root
/data6/Users/jhchoi/TMVA/TMVA_TOOL/inputs/EEMu_MuMuE_Method/v2405.4/2017/EEMu_MuMuE_Method_DYJetsToMuMu_MiNNLO.root
…
['bmuon_normchi2', 'bmuon_ntracklayers', 'bmuon_ntrackhits', 'bmuon_nmatchedstations', 'bmuon_nvalidmuonhits', 'bmuon_reltrkiso', 'bmuon_reliso', 'bmuon_aeta']
sigcut-> (bmuon_charge*bjet_partonFlavour < 0)&&Has_bMuon
bkgcut-> (bmuon_charge*bjet_partonFlavour > 0)&&Has_bMuon
<sig cut>= (bmuon_charge*bjet_partonFlavour < 0)&&Has_bMuon
<bkg cut>= (bmuon_charge*bjet_partonFlavour > 0)&&Has_bMuon
_________________________________________________________________
Layer (type)                 Output Shape              Param #   
=================================================================
dense_73 (Dense)             (None, 128)               2432      
_________________________________________________________________
batch_normalization_61 (Batc (None, 128)               512       
_________________________________________________________________
activation_73 (Activation)   (None, 128)               0         
_________________________________________________________________
dropout_61 (Dropout)         (None, 128)               0         
_________________________________________________________________
dense_74 (Dense)             (None, 128)               16512     
_________________________________________________________________
batch_normalization_62 (Batc (None, 128)               512       
_________________________________________________________________
activation_74 (Activation)   (None, 128)               0         
_________________________________________________________________
dropout_62 (Dropout)         (None, 128)               0         
_________________________________________________________________
dense_75 (Dense)             (None, 128)               16512     
_________________________________________________________________
batch_normalization_63 (Batc (None, 128)               512       
_________________________________________________________________
activation_75 (Activation)   (None, 128)               0         
_________________________________________________________________
dropout_63 (Dropout)         (None, 128)               0         
_________________________________________________________________
dense_76 (Dense)             (None, 128)               16512     
_________________________________________________________________
batch_normalization_64 (Batc (None, 128)               512       
_________________________________________________________________
activation_76 (Activation)   (None, 128)               0         
_________________________________________________________________
dropout_64 (Dropout)         (None, 128)               0         
_________________________________________________________________
dense_77 (Dense)             (None, 128)               16512     
_________________________________________________________________
batch_normalization_65 (Batc (None, 128)               512       
_________________________________________________________________
activation_77 (Activation)   (None, 128)               0         
_________________________________________________________________
dropout_65 (Dropout)         (None, 128)               0         
_________________________________________________________________
dense_78 (Dense)             (None, 2)                 258       
_________________________________________________________________
activation_78 (Activation)   (None, 2)                 0         
=================================================================
Total params: 71,298
Trainable params: 70,018
Non-trainable params: 1,280
_________________________________________________________________
---sig_test---
<self.testtree_sig> OutTree/sig
/data6/Users/jhchoi/TMVA/TMVA_TOOL/inputs/EEMu_MuMuE_Method/v2405.4/2017/EEMu_MuMuE_Method_DYJetsToEE_MiNNLO.root
/data6/Users/jhchoi/TMVA/TMVA_TOOL/inputs/EEMu_MuMuE_Method/v2405.4/2017/EEMu_MuMuE_Method_DYJetsToMuMu_MiNNLO.root
…
['bmuon_normchi2', 'bmuon_ntracklayers', 'bmuon_ntrackhits', 'bmuon_nmatchedstations', 'bmuon_nvalidmuonhits', 'bmuon_reltrkiso', 'bmuon_reliso', 'bmuon_pt', 'bmuon_dR_l_j']
sigcut-> (bmuon_charge*bjet_partonFlavour < 0)&&Has_bMuon
bkgcut-> (bmuon_charge*bjet_partonFlavour > 0)&&Has_bMuon
<sig cut>= (bmuon_charge*bjet_partonFlavour < 0)&&Has_bMuon
<bkg cut>= (bmuon_charge*bjet_partonFlavour > 0)&&Has_bMuon
_________________________________________________________________
Layer (type)                 Output Shape              Param #   
=================================================================
dense_97 (Dense)             (None, 128)               2304      
_________________________________________________________________
batch_normalization_81 (Batc (None, 128)               512       
_________________________________________________________________
activation_97 (Activation)   (None, 128)               0         
_________________________________________________________________
dropout_81 (Dropout)         (None, 128)               0         
_________________________________________________________________
dense_98 (Dense)             (None, 128)               16512     
_________________________________________________________________
batch_normalization_82 (Batc (None, 128)               512       
_________________________________________________________________
activation_98 (Activation)   (None, 128)               0         
_________________________________________________________________
dropout_82 (Dropout)         (None, 128)               0         
_________________________________________________________________
dense_99 (Dense)             (None, 128)               16512     
_________________________________________________________________
batch_normalization_83 (Batc (None, 128)               512       
_________________________________________________________________
activation_99 (Activation)   (None, 128)               0         
_________________________________________________________________
dropout_83 (Dropout)         (None, 128)               0         
_________________________________________________________________
dense_100 (Dense)            (None, 128)               16512     
_________________________________________________________________
batch_normalization_84 (Batc (None, 128)               512       
_________________________________________________________________
activation_100 (Activation)  (None, 128)               0         
_________________________________________________________________
dropout_84 (Dropout)         (None, 128)               0         
_________________________________________________________________
dense_101 (Dense)            (None, 128)               16512     
_________________________________________________________________
batch_normalization_85 (Batc (None, 128)               512       
_________________________________________________________________
activation_101 (Activation)  (None, 128)               0         
_________________________________________________________________
dropout_85 (Dropout)         (None, 128)               0         
_________________________________________________________________
dense_102 (Dense)            (None, 2)                 258       
_________________________________________________________________
activation_102 (Activation)  (None, 2)                 0         
=================================================================
Total params: 71,170
Trainable params: 69,890
Non-trainable params: 1,280
_________________________________________________________________
---sig_test---
<self.testtree_sig> OutTree/sig
/data6/Users/jhchoi/TMVA/TMVA_TOOL/inputs/EEMu_MuMuE_Method/v2405.4/2017/EEMu_MuMuE_Method_DYJetsToEE_MiNNLO.root
/data6/Users/jhchoi/TMVA/TMVA_TOOL/inputs/EEMu_MuMuE_Method/v2405.4/2017/EEMu_MuMuE_Method_DYJetsToMuMu_MiNNLO.root
…
['bmuon_normchi2', 'bmuon_ntracklayers', 'bmuon_ntrackhits', 'bmuon_nmatchedstations', 'bmuon_nvalidmuonhits', 'bmuon_reltrkiso', 'bmuon_reliso', 'bmuon_pt', 'bmuon_palongjet', 'bmuon_palongjetratio']
sigcut-> (bmuon_charge*bjet_partonFlavour < 0)&&Has_bMuon
bkgcut-> (bmuon_charge*bjet_partonFlavour > 0)&&Has_bMuon
<sig cut>= (bmuon_charge*bjet_partonFlavour < 0)&&Has_bMuon
<bkg cut>= (bmuon_charge*bjet_partonFlavour > 0)&&Has_bMuon
_________________________________________________________________
Layer (type)                 Output Shape              Param #   
=================================================================
dense_121 (Dense)            (None, 128)               2176      
_________________________________________________________________
batch_normalization_101 (Bat (None, 128)               512       
_________________________________________________________________
activation_121 (Activation)  (None, 128)               0         
_________________________________________________________________
dropout_101 (Dropout)        (None, 128)               0         
_________________________________________________________________
dense_122 (Dense)            (None, 128)               16512     
_________________________________________________________________
batch_normalization_102 (Bat (None, 128)               512       
_________________________________________________________________
activation_122 (Activation)  (None, 128)               0         
_________________________________________________________________
dropout_102 (Dropout)        (None, 128)               0         
_________________________________________________________________
dense_123 (Dense)            (None, 128)               16512     
_________________________________________________________________
batch_normalization_103 (Bat (None, 128)               512       
_________________________________________________________________
activation_123 (Activation)  (None, 128)               0         
_________________________________________________________________
dropout_103 (Dropout)        (None, 128)               0         
_________________________________________________________________
dense_124 (Dense)            (None, 128)               16512     
_________________________________________________________________
batch_normalization_104 (Bat (None, 128)               512       
_________________________________________________________________
activation_124 (Activation)  (None, 128)               0         
_________________________________________________________________
dropout_104 (Dropout)        (None, 128)               0         
_________________________________________________________________
dense_125 (Dense)            (None, 128)               16512     
_________________________________________________________________
batch_normalization_105 (Bat (None, 128)               512       
_________________________________________________________________
activation_125 (Activation)  (None, 128)               0         
_________________________________________________________________
dropout_105 (Dropout)        (None, 128)               0         
_________________________________________________________________
dense_126 (Dense)            (None, 2)                 258       
_________________________________________________________________
activation_126 (Activation)  (None, 2)                 0         
=================================================================
Total params: 71,042
Trainable params: 69,762
Non-trainable params: 1,280
_________________________________________________________________
---sig_test---
<self.testtree_sig> OutTree/sig
/data6/Users/jhchoi/TMVA/TMVA_TOOL/inputs/EEMu_MuMuE_Method/v2405.4/2017/EEMu_MuMuE_Method_DYJetsToEE_MiNNLO.root
/data6/Users/jhchoi/TMVA/TMVA_TOOL/inputs/EEMu_MuMuE_Method/v2405.4/2017/EEMu_MuMuE_Method_DYJetsToMuMu_MiNNLO.root
…
['bmuon_normchi2', 'bmuon_ntracklayers', 'bmuon_ntrackhits', 'bmuon_nmatchedstations', 'bmuon_nvalidmuonhits', 'bmuon_reltrkiso', 'bmuon_reliso', 'bmuon_pt', 'bmuon_palongjet', 'bjet_ChargedEmEnergyFraction', 'bjet_MuonEnergyFraction']
sigcut-> (bmuon_charge*bjet_partonFlavour < 0)&&Has_bMuon
bkgcut-> (bmuon_charge*bjet_partonFlavour > 0)&&Has_bMuon
<sig cut>= (bmuon_charge*bjet_partonFlavour < 0)&&Has_bMuon
<bkg cut>= (bmuon_charge*bjet_partonFlavour > 0)&&Has_bMuon
_________________________________________________________________
Layer (type)                 Output Shape              Param #   
=================================================================
dense_259 (Dense)            (None, 128)               2048      
_________________________________________________________________
batch_normalization_216 (Bat (None, 128)               512       
_________________________________________________________________
activation_259 (Activation)  (None, 128)               0         
_________________________________________________________________
dropout_216 (Dropout)        (None, 128)               0         
_________________________________________________________________
dense_260 (Dense)            (None, 128)               16512     
_________________________________________________________________
batch_normalization_217 (Bat (None, 128)               512       
_________________________________________________________________
activation_260 (Activation)  (None, 128)               0         
_________________________________________________________________
dropout_217 (Dropout)        (None, 128)               0         
_________________________________________________________________
dense_261 (Dense)            (None, 128)               16512     
_________________________________________________________________
batch_normalization_218 (Bat (None, 128)               512       
_________________________________________________________________
activation_261 (Activation)  (None, 128)               0         
_________________________________________________________________
dropout_218 (Dropout)        (None, 128)               0         
_________________________________________________________________
dense_262 (Dense)            (None, 128)               16512     
_________________________________________________________________
batch_normalization_219 (Bat (None, 128)               512       
_________________________________________________________________
activation_262 (Activation)  (None, 128)               0         
_________________________________________________________________
dropout_219 (Dropout)        (None, 128)               0         
_________________________________________________________________
dense_263 (Dense)            (None, 128)               16512     
_________________________________________________________________
batch_normalization_220 (Bat (None, 128)               512       
_________________________________________________________________
activation_263 (Activation)  (None, 128)               0         
_________________________________________________________________
dropout_220 (Dropout)        (None, 128)               0         
_________________________________________________________________
dense_264 (Dense)            (None, 2)                 258       
_________________________________________________________________
activation_264 (Activation)  (None, 2)                 0         
=================================================================
Total params: 70,914
Trainable params: 69,634
Non-trainable params: 1,280
_________________________________________________________________
---sig_test---
<self.testtree_sig> OutTree/sig
/data6/Users/jhchoi/TMVA/TMVA_TOOL/inputs/EEMu_MuMuE_Method/v2405.4/2017/EEMu_MuMuE_Method_DYJetsToEE_MiNNLO.root
/data6/Users/jhchoi/TMVA/TMVA_TOOL/inputs/EEMu_MuMuE_Method/v2405.4/2017/EEMu_MuMuE_Method_DYJetsToMuMu_MiNNLO.root
…
['bmuon_normchi2', 'bmuon_ntracklayers', 'bmuon_ntrackhits', 'bmuon_nmatchedstations', 'bmuon_nvalidmuonhits', 'bmuon_reltrkiso', 'bmuon_reliso', 'bmuon_pt', 'bmuon_palongjet', 'bjet_ChargedEmEnergyFraction', 'bjet_aeta', 'fabs(bjet_charge)']
sigcut-> (bmuon_charge*bjet_partonFlavour < 0)&&Has_bMuon
bkgcut-> (bmuon_charge*bjet_partonFlavour > 0)&&Has_bMuon
<sig cut>= (bmuon_charge*bjet_partonFlavour < 0)&&Has_bMuon
<bkg cut>= (bmuon_charge*bjet_partonFlavour > 0)&&Has_bMuon
_________________________________________________________________
Layer (type)                 Output Shape              Param #   
=================================================================
dense_337 (Dense)            (None, 128)               1920      
_________________________________________________________________
batch_normalization_281 (Bat (None, 128)               512       
_________________________________________________________________
activation_337 (Activation)  (None, 128)               0         
_________________________________________________________________
dropout_281 (Dropout)        (None, 128)               0         
_________________________________________________________________
dense_338 (Dense)            (None, 128)               16512     
_________________________________________________________________
batch_normalization_282 (Bat (None, 128)               512       
_________________________________________________________________
activation_338 (Activation)  (None, 128)               0         
_________________________________________________________________
dropout_282 (Dropout)        (None, 128)               0         
_________________________________________________________________
dense_339 (Dense)            (None, 128)               16512     
_________________________________________________________________
batch_normalization_283 (Bat (None, 128)               512       
_________________________________________________________________
activation_339 (Activation)  (None, 128)               0         
_________________________________________________________________
dropout_283 (Dropout)        (None, 128)               0         
_________________________________________________________________
dense_340 (Dense)            (None, 128)               16512     
_________________________________________________________________
batch_normalization_284 (Bat (None, 128)               512       
_________________________________________________________________
activation_340 (Activation)  (None, 128)               0         
_________________________________________________________________
dropout_284 (Dropout)        (None, 128)               0         
_________________________________________________________________
dense_341 (Dense)            (None, 128)               16512     
_________________________________________________________________
batch_normalization_285 (Bat (None, 128)               512       
_________________________________________________________________
activation_341 (Activation)  (None, 128)               0         
_________________________________________________________________
dropout_285 (Dropout)        (None, 128)               0         
_________________________________________________________________
dense_342 (Dense)            (None, 2)                 258       
_________________________________________________________________
activation_342 (Activation)  (None, 2)                 0         
=================================================================
Total params: 70,786
Trainable params: 69,506
Non-trainable params: 1,280
_________________________________________________________________
---sig_test---
<self.testtree_sig> OutTree/sig
/data6/Users/jhchoi/TMVA/TMVA_TOOL/inputs/EEMu_MuMuE_Method/v2405.4/2017/EEMu_MuMuE_Method_DYJetsToEE_MiNNLO.root
/data6/Users/jhchoi/TMVA/TMVA_TOOL/inputs/EEMu_MuMuE_Method/v2405.4/2017/EEMu_MuMuE_Method_DYJetsToMuMu_MiNNLO.root
…
