…
NeutralMultiplicity', 'bjet_pt', 'bjet_aeta', 'fabs(bjet_charge)']
======
TEST-> bmuon_normchi2
--SKIP FOLLOWING VARS
['bmuon_normchi2']
sigcut-> (bmuon_charge*bjet_partonFlavour < 0)&&Has_bMuon
bkgcut-> (bmuon_charge*bjet_partonFlavour > 0)&&Has_bMuon
<sig cut>= (bmuon_charge*bjet_partonFlavour < 0)&&Has_bMuon
<bkg cut>= (bmuon_charge*bjet_partonFlavour > 0)&&Has_bMuon
_________________________________________________________________
Layer (type)                 Output Shape              Param #   
=================================================================
dense_1 (Dense)              (None, 128)               3328      
_________________________________________________________________
batch_normalization_1 (Batch (None, 128)               512       
_________________________________________________________________
activation_1 (Activation)    (None, 128)               0         
_________________________________________________________________
dropout_1 (Dropout)          (None, 128)               0         
_________________________________________________________________
dense_2 (Dense)              (None, 128)               16512     
_________________________________________________________________
batch_normalization_2 (Batch (None, 128)               512       
_________________________________________________________________
activation_2 (Activation)    (None, 128)               0         
_________________________________________________________________
dropout_2 (Dropout)          (None, 128)               0         
_________________________________________________________________
dense_3 (Dense)              (None, 128)               16512     
_________________________________________________________________
batch_normalization_3 (Batch (None, 128)               512       
_________________________________________________________________
activation_3 (Activation)    (None, 128)               0         
_________________________________________________________________
dropout_3 (Dropout)          (None, 128)               0         
_________________________________________________________________
dense_4 (Dense)              (None, 128)               16512     
_________________________________________________________________
batch_normalization_4 (Batch (None, 128)               512       
_________________________________________________________________
activation_4 (Activation)    (None, 128)               0         
_________________________________________________________________
dropout_4 (Dropout)          (None, 128)               0         
_________________________________________________________________
dense_5 (Dense)              (None, 128)               16512     
_________________________________________________________________
batch_normalization_5 (Batch (None, 128)               512       
_________________________________________________________________
activation_5 (Activation)    (None, 128)               0         
_________________________________________________________________
dropout_5 (Dropout)          (None, 128)               0         
_________________________________________________________________
dense_6 (Dense)              (None, 2)                 258       
_________________________________________________________________
activation_6 (Activation)    (None, 2)                 0         
=================================================================
Total params: 72,194
Trainable params: 70,914
Non-trainable params: 1,280
_________________________________________________________________
---sig_test---
<self.testtree_sig> OutTree/sig
/data6/Users/jhchoi/TMVA/TMVA_TOOL/inputs/EEMu_MuMuE_Method/v2405.4/2016preVFP/EEMu_MuMuE_Method_DYJetsToEE_MiNNLO.root
/data6/Users/jhchoi/TMVA/TMVA_TOOL/inputs/EEMu_MuMuE_Method/v2405.4/2016preVFP/EEMu_MuMuE_Method_DYJetsToMuMu_MiNNLO.root
…
no  bmuon_normchi2 -->AUC= 0.761028715591
AUC cut= 0.76
======
TEST-> bmuon_ntracklayers
--SKIP FOLLOWING VARS
['bmuon_normchi2', 'bmuon_ntracklayers']
sigcut-> (bmuon_charge*bjet_partonFlavour < 0)&&Has_bMuon
bkgcut-> (bmuon_charge*bjet_partonFlavour > 0)&&Has_bMuon
<sig cut>= (bmuon_charge*bjet_partonFlavour < 0)&&Has_bMuon
<bkg cut>= (bmuon_charge*bjet_partonFlavour > 0)&&Has_bMuon
_________________________________________________________________
Layer (type)                 Output Shape              Param #   
=================================================================
dense_19 (Dense)             (None, 128)               3200      
_________________________________________________________________
batch_normalization_16 (Batc (None, 128)               512       
_________________________________________________________________
activation_19 (Activation)   (None, 128)               0         
_________________________________________________________________
dropout_16 (Dropout)         (None, 128)               0         
_________________________________________________________________
dense_20 (Dense)             (None, 128)               16512     
_________________________________________________________________
batch_normalization_17 (Batc (None, 128)               512       
_________________________________________________________________
activation_20 (Activation)   (None, 128)               0         
_________________________________________________________________
dropout_17 (Dropout)         (None, 128)               0         
_________________________________________________________________
dense_21 (Dense)             (None, 128)               16512     
_________________________________________________________________
batch_normalization_18 (Batc (None, 128)               512       
_________________________________________________________________
activation_21 (Activation)   (None, 128)               0         
_________________________________________________________________
dropout_18 (Dropout)         (None, 128)               0         
_________________________________________________________________
dense_22 (Dense)             (None, 128)               16512     
_________________________________________________________________
batch_normalization_19 (Batc (None, 128)               512       
_________________________________________________________________
activation_22 (Activation)   (None, 128)               0         
_________________________________________________________________
dropout_19 (Dropout)         (None, 128)               0         
_________________________________________________________________
dense_23 (Dense)             (None, 128)               16512     
_________________________________________________________________
batch_normalization_20 (Batc (None, 128)               512       
_________________________________________________________________
activation_23 (Activation)   (None, 128)               0         
_________________________________________________________________
dropout_20 (Dropout)         (None, 128)               0         
_________________________________________________________________
dense_24 (Dense)             (None, 2)                 258       
_________________________________________________________________
activation_24 (Activation)   (None, 2)                 0         
=================================================================
Total params: 72,066
Trainable params: 70,786
Non-trainable params: 1,280
_________________________________________________________________
---sig_test---
<self.testtree_sig> OutTree/sig
/data6/Users/jhchoi/TMVA/TMVA_TOOL/inputs/EEMu_MuMuE_Method/v2405.4/2016preVFP/EEMu_MuMuE_Method_DYJetsToEE_MiNNLO.root
/data6/Users/jhchoi/TMVA/TMVA_TOOL/inputs/EEMu_MuMuE_Method/v2405.4/2016preVFP/EEMu_MuMuE_Method_DYJetsToMuMu_MiNNLO.root
…
no  bmuon_ntracklayers -->AUC= 0.761319460189
AUC cut= 0.76
======
TEST-> bmuon_ntrackhits
--SKIP FOLLOWING VARS
['bmuon_normchi2', 'bmuon_ntracklayers', 'bmuon_ntrackhits']
sigcut-> (bmuon_charge*bjet_partonFlavour < 0)&&Has_bMuon
bkgcut-> (bmuon_charge*bjet_partonFlavour > 0)&&Has_bMuon
<sig cut>= (bmuon_charge*bjet_partonFlavour < 0)&&Has_bMuon
<bkg cut>= (bmuon_charge*bjet_partonFlavour > 0)&&Has_bMuon
_________________________________________________________________
Layer (type)                 Output Shape              Param #   
=================================================================
dense_25 (Dense)             (None, 128)               3072      
_________________________________________________________________
batch_normalization_21 (Batc (None, 128)               512       
_________________________________________________________________
activation_25 (Activation)   (None, 128)               0         
_________________________________________________________________
dropout_21 (Dropout)         (None, 128)               0         
_________________________________________________________________
dense_26 (Dense)             (None, 128)               16512     
_________________________________________________________________
batch_normalization_22 (Batc (None, 128)               512       
_________________________________________________________________
activation_26 (Activation)   (None, 128)               0         
_________________________________________________________________
dropout_22 (Dropout)         (None, 128)               0         
_________________________________________________________________
dense_27 (Dense)             (None, 128)               16512     
_________________________________________________________________
batch_normalization_23 (Batc (None, 128)               512       
_________________________________________________________________
activation_27 (Activation)   (None, 128)               0         
_________________________________________________________________
dropout_23 (Dropout)         (None, 128)               0         
_________________________________________________________________
dense_28 (Dense)             (None, 128)               16512     
_________________________________________________________________
batch_normalization_24 (Batc (None, 128)               512       
_________________________________________________________________
activation_28 (Activation)   (None, 128)               0         
_________________________________________________________________
dropout_24 (Dropout)         (None, 128)               0         
_________________________________________________________________
dense_29 (Dense)             (None, 128)               16512     
_________________________________________________________________
batch_normalization_25 (Batc (None, 128)               512       
_________________________________________________________________
activation_29 (Activation)   (None, 128)               0         
_________________________________________________________________
dropout_25 (Dropout)         (None, 128)               0         
_________________________________________________________________
dense_30 (Dense)             (None, 2)                 258       
_________________________________________________________________
activation_30 (Activation)   (None, 2)                 0         
=================================================================
Total params: 71,938
Trainable params: 70,658
Non-trainable params: 1,280
_________________________________________________________________
---sig_test---
<self.testtree_sig> OutTree/sig
/data6/Users/jhchoi/TMVA/TMVA_TOOL/inputs/EEMu_MuMuE_Method/v2405.4/2016preVFP/EEMu_MuMuE_Method_DYJetsToEE_MiNNLO.root
/data6/Users/jhchoi/TMVA/TMVA_TOOL/inputs/EEMu_MuMuE_Method/v2405.4/2016preVFP/EEMu_MuMuE_Method_DYJetsToMuMu_MiNNLO.root
…
TEST-> bmuon_nmatchedstations
--SKIP FOLLOWING VARS
['bmuon_normchi2', 'bmuon_ntracklayers', 'bmuon_ntrackhits', 'bmuon_nmatchedstations']
sigcut-> (bmuon_charge*bjet_partonFlavour < 0)&&Has_bMuon
bkgcut-> (bmuon_charge*bjet_partonFlavour > 0)&&Has_bMuon
<sig cut>= (bmuon_charge*bjet_partonFlavour < 0)&&Has_bMuon
<bkg cut>= (bmuon_charge*bjet_partonFlavour > 0)&&Has_bMuon
_________________________________________________________________
Layer (type)                 Output Shape              Param #   
=================================================================
dense_31 (Dense)             (None, 128)               2944      
_________________________________________________________________
batch_normalization_26 (Batc (None, 128)               512       
_________________________________________________________________
activation_31 (Activation)   (None, 128)               0         
_________________________________________________________________
dropout_26 (Dropout)         (None, 128)               0         
_________________________________________________________________
dense_32 (Dense)             (None, 128)               16512     
_________________________________________________________________
batch_normalization_27 (Batc (None, 128)               512       
_________________________________________________________________
activation_32 (Activation)   (None, 128)               0         
_________________________________________________________________
dropout_27 (Dropout)         (None, 128)               0         
_________________________________________________________________
dense_33 (Dense)             (None, 128)               16512     
_________________________________________________________________
batch_normalization_28 (Batc (None, 128)               512       
_________________________________________________________________
activation_33 (Activation)   (None, 128)               0         
_________________________________________________________________
dropout_28 (Dropout)         (None, 128)               0         
_________________________________________________________________
dense_34 (Dense)             (None, 128)               16512     
_________________________________________________________________
batch_normalization_29 (Batc (None, 128)               512       
_________________________________________________________________
activation_34 (Activation)   (None, 128)               0         
_________________________________________________________________
dropout_29 (Dropout)         (None, 128)               0         
_________________________________________________________________
dense_35 (Dense)             (None, 128)               16512     
_________________________________________________________________
batch_normalization_30 (Batc (None, 128)               512       
_________________________________________________________________
activation_35 (Activation)   (None, 128)               0         
_________________________________________________________________
dropout_30 (Dropout)         (None, 128)               0         
_________________________________________________________________
dense_36 (Dense)             (None, 2)                 258       
_________________________________________________________________
activation_36 (Activation)   (None, 2)                 0         
=================================================================
Total params: 71,810
Trainable params: 70,530
Non-trainable params: 1,280
_________________________________________________________________
---sig_test---
<self.testtree_sig> OutTree/sig
/data6/Users/jhchoi/TMVA/TMVA_TOOL/inputs/EEMu_MuMuE_Method/v2405.4/2016preVFP/EEMu_MuMuE_Method_DYJetsToEE_MiNNLO.root
/data6/Users/jhchoi/TMVA/TMVA_TOOL/inputs/EEMu_MuMuE_Method/v2405.4/2016preVFP/EEMu_MuMuE_Method_DYJetsToMuMu_MiNNLO.root
…
TEST-> bmuon_nvalidmuonhits
--SKIP FOLLOWING VARS
['bmuon_normchi2', 'bmuon_ntracklayers', 'bmuon_ntrackhits', 'bmuon_nmatchedstations', 'bmuon_nvalidmuonhits']
sigcut-> (bmuon_charge*bjet_partonFlavour < 0)&&Has_bMuon
bkgcut-> (bmuon_charge*bjet_partonFlavour > 0)&&Has_bMuon
<sig cut>= (bmuon_charge*bjet_partonFlavour < 0)&&Has_bMuon
<bkg cut>= (bmuon_charge*bjet_partonFlavour > 0)&&Has_bMuon
_________________________________________________________________
Layer (type)                 Output Shape              Param #   
=================================================================
dense_43 (Dense)             (None, 128)               2816      
_________________________________________________________________
batch_normalization_36 (Batc (None, 128)               512       
_________________________________________________________________
activation_43 (Activation)   (None, 128)               0         
_________________________________________________________________
dropout_36 (Dropout)         (None, 128)               0         
_________________________________________________________________
dense_44 (Dense)             (None, 128)               16512     
_________________________________________________________________
batch_normalization_37 (Batc (None, 128)               512       
_________________________________________________________________
activation_44 (Activation)   (None, 128)               0         
_________________________________________________________________
dropout_37 (Dropout)         (None, 128)               0         
_________________________________________________________________
dense_45 (Dense)             (None, 128)               16512     
_________________________________________________________________
batch_normalization_38 (Batc (None, 128)               512       
_________________________________________________________________
activation_45 (Activation)   (None, 128)               0         
_________________________________________________________________
dropout_38 (Dropout)         (None, 128)               0         
_________________________________________________________________
dense_46 (Dense)             (None, 128)               16512     
_________________________________________________________________
batch_normalization_39 (Batc (None, 128)               512       
_________________________________________________________________
activation_46 (Activation)   (None, 128)               0         
_________________________________________________________________
dropout_39 (Dropout)         (None, 128)               0         
_________________________________________________________________
dense_47 (Dense)             (None, 128)               16512     
_________________________________________________________________
batch_normalization_40 (Batc (None, 128)               512       
_________________________________________________________________
activation_47 (Activation)   (None, 128)               0         
_________________________________________________________________
dropout_40 (Dropout)         (None, 128)               0         
_________________________________________________________________
dense_48 (Dense)             (None, 2)                 258       
_________________________________________________________________
activation_48 (Activation)   (None, 2)                 0         
=================================================================
Total params: 71,682
Trainable params: 70,402
Non-trainable params: 1,280
_________________________________________________________________
---sig_test---
<self.testtree_sig> OutTree/sig
/data6/Users/jhchoi/TMVA/TMVA_TOOL/inputs/EEMu_MuMuE_Method/v2405.4/2016preVFP/EEMu_MuMuE_Method_DYJetsToEE_MiNNLO.root
/data6/Users/jhchoi/TMVA/TMVA_TOOL/inputs/EEMu_MuMuE_Method/v2405.4/2016preVFP/EEMu_MuMuE_Method_DYJetsToMuMu_MiNNLO.root
…
--SKIP FOLLOWING VARS
['bmuon_normchi2', 'bmuon_ntracklayers', 'bmuon_ntrackhits', 'bmuon_nmatchedstations', 'bmuon_nvalidmuonhits', 'bmuon_nsip3d']
sigcut-> (bmuon_charge*bjet_partonFlavour < 0)&&Has_bMuon
bkgcut-> (bmuon_charge*bjet_partonFlavour > 0)&&Has_bMuon
<sig cut>= (bmuon_charge*bjet_partonFlavour < 0)&&Has_bMuon
<bkg cut>= (bmuon_charge*bjet_partonFlavour > 0)&&Has_bMuon
_________________________________________________________________
Layer (type)                 Output Shape              Param #   
=================================================================
dense_49 (Dense)             (None, 128)               2688      
_________________________________________________________________
batch_normalization_41 (Batc (None, 128)               512       
_________________________________________________________________
activation_49 (Activation)   (None, 128)               0         
_________________________________________________________________
dropout_41 (Dropout)         (None, 128)               0         
_________________________________________________________________
dense_50 (Dense)             (None, 128)               16512     
_________________________________________________________________
batch_normalization_42 (Batc (None, 128)               512       
_________________________________________________________________
activation_50 (Activation)   (None, 128)               0         
_________________________________________________________________
dropout_42 (Dropout)         (None, 128)               0         
_________________________________________________________________
dense_51 (Dense)             (None, 128)               16512     
_________________________________________________________________
batch_normalization_43 (Batc (None, 128)               512       
_________________________________________________________________
activation_51 (Activation)   (None, 128)               0         
_________________________________________________________________
dropout_43 (Dropout)         (None, 128)               0         
_________________________________________________________________
dense_52 (Dense)             (None, 128)               16512     
_________________________________________________________________
batch_normalization_44 (Batc (None, 128)               512       
_________________________________________________________________
activation_52 (Activation)   (None, 128)               0         
_________________________________________________________________
dropout_44 (Dropout)         (None, 128)               0         
_________________________________________________________________
dense_53 (Dense)             (None, 128)               16512     
_________________________________________________________________
batch_normalization_45 (Batc (None, 128)               512       
_________________________________________________________________
activation_53 (Activation)   (None, 128)               0         
_________________________________________________________________
dropout_45 (Dropout)         (None, 128)               0         
_________________________________________________________________
dense_54 (Dense)             (None, 2)                 258       
_________________________________________________________________
activation_54 (Activation)   (None, 2)                 0         
=================================================================
Total params: 71,554
Trainable params: 70,274
Non-trainable params: 1,280
_________________________________________________________________
---sig_test---
<self.testtree_sig> OutTree/sig
/data6/Users/jhchoi/TMVA/TMVA_TOOL/inputs/EEMu_MuMuE_Method/v2405.4/2016preVFP/EEMu_MuMuE_Method_DYJetsToEE_MiNNLO.root
/data6/Users/jhchoi/TMVA/TMVA_TOOL/inputs/EEMu_MuMuE_Method/v2405.4/2016preVFP/EEMu_MuMuE_Method_DYJetsToMuMu_MiNNLO.root
…
['bmuon_normchi2', 'bmuon_ntracklayers', 'bmuon_ntrackhits', 'bmuon_nmatchedstations', 'bmuon_nvalidmuonhits', 'bmuon_reliso', 'bmuon_aeta']
sigcut-> (bmuon_charge*bjet_partonFlavour < 0)&&Has_bMuon
bkgcut-> (bmuon_charge*bjet_partonFlavour > 0)&&Has_bMuon
<sig cut>= (bmuon_charge*bjet_partonFlavour < 0)&&Has_bMuon
<bkg cut>= (bmuon_charge*bjet_partonFlavour > 0)&&Has_bMuon
_________________________________________________________________
Layer (type)                 Output Shape              Param #   
=================================================================
dense_91 (Dense)             (None, 128)               2560      
_________________________________________________________________
batch_normalization_76 (Batc (None, 128)               512       
_________________________________________________________________
activation_91 (Activation)   (None, 128)               0         
_________________________________________________________________
dropout_76 (Dropout)         (None, 128)               0         
_________________________________________________________________
dense_92 (Dense)             (None, 128)               16512     
_________________________________________________________________
batch_normalization_77 (Batc (None, 128)               512       
_________________________________________________________________
activation_92 (Activation)   (None, 128)               0         
_________________________________________________________________
dropout_77 (Dropout)         (None, 128)               0         
_________________________________________________________________
dense_93 (Dense)             (None, 128)               16512     
_________________________________________________________________
batch_normalization_78 (Batc (None, 128)               512       
_________________________________________________________________
activation_93 (Activation)   (None, 128)               0         
_________________________________________________________________
dropout_78 (Dropout)         (None, 128)               0         
_________________________________________________________________
dense_94 (Dense)             (None, 128)               16512     
_________________________________________________________________
batch_normalization_79 (Batc (None, 128)               512       
_________________________________________________________________
activation_94 (Activation)   (None, 128)               0         
_________________________________________________________________
dropout_79 (Dropout)         (None, 128)               0         
_________________________________________________________________
dense_95 (Dense)             (None, 128)               16512     
_________________________________________________________________
batch_normalization_80 (Batc (None, 128)               512       
_________________________________________________________________
activation_95 (Activation)   (None, 128)               0         
_________________________________________________________________
dropout_80 (Dropout)         (None, 128)               0         
_________________________________________________________________
dense_96 (Dense)             (None, 2)                 258       
_________________________________________________________________
activation_96 (Activation)   (None, 2)                 0         
=================================================================
Total params: 71,426
Trainable params: 70,146
Non-trainable params: 1,280
_________________________________________________________________
---sig_test---
<self.testtree_sig> OutTree/sig
/data6/Users/jhchoi/TMVA/TMVA_TOOL/inputs/EEMu_MuMuE_Method/v2405.4/2016preVFP/EEMu_MuMuE_Method_DYJetsToEE_MiNNLO.root
/data6/Users/jhchoi/TMVA/TMVA_TOOL/inputs/EEMu_MuMuE_Method/v2405.4/2016preVFP/EEMu_MuMuE_Method_DYJetsToMuMu_MiNNLO.root
…
['bmuon_normchi2', 'bmuon_ntracklayers', 'bmuon_ntrackhits', 'bmuon_nmatchedstations', 'bmuon_nvalidmuonhits', 'bmuon_reliso', 'bmuon_aeta', 'bmuon_pt']
sigcut-> (bmuon_charge*bjet_partonFlavour < 0)&&Has_bMuon
bkgcut-> (bmuon_charge*bjet_partonFlavour > 0)&&Has_bMuon
<sig cut>= (bmuon_charge*bjet_partonFlavour < 0)&&Has_bMuon
<bkg cut>= (bmuon_charge*bjet_partonFlavour > 0)&&Has_bMuon
_________________________________________________________________
Layer (type)                 Output Shape              Param #   
=================================================================
dense_97 (Dense)             (None, 128)               2432      
_________________________________________________________________
batch_normalization_81 (Batc (None, 128)               512       
_________________________________________________________________
activation_97 (Activation)   (None, 128)               0         
_________________________________________________________________
dropout_81 (Dropout)         (None, 128)               0         
_________________________________________________________________
dense_98 (Dense)             (None, 128)               16512     
_________________________________________________________________
batch_normalization_82 (Batc (None, 128)               512       
_________________________________________________________________
activation_98 (Activation)   (None, 128)               0         
_________________________________________________________________
dropout_82 (Dropout)         (None, 128)               0         
_________________________________________________________________
dense_99 (Dense)             (None, 128)               16512     
_________________________________________________________________
batch_normalization_83 (Batc (None, 128)               512       
_________________________________________________________________
activation_99 (Activation)   (None, 128)               0         
_________________________________________________________________
dropout_83 (Dropout)         (None, 128)               0         
_________________________________________________________________
dense_100 (Dense)            (None, 128)               16512     
_________________________________________________________________
batch_normalization_84 (Batc (None, 128)               512       
_________________________________________________________________
activation_100 (Activation)  (None, 128)               0         
_________________________________________________________________
dropout_84 (Dropout)         (None, 128)               0         
_________________________________________________________________
dense_101 (Dense)            (None, 128)               16512     
_________________________________________________________________
batch_normalization_85 (Batc (None, 128)               512       
_________________________________________________________________
activation_101 (Activation)  (None, 128)               0         
_________________________________________________________________
dropout_85 (Dropout)         (None, 128)               0         
_________________________________________________________________
dense_102 (Dense)            (None, 2)                 258       
_________________________________________________________________
activation_102 (Activation)  (None, 2)                 0         
=================================================================
Total params: 71,298
Trainable params: 70,018
Non-trainable params: 1,280
_________________________________________________________________
---sig_test---
<self.testtree_sig> OutTree/sig
/data6/Users/jhchoi/TMVA/TMVA_TOOL/inputs/EEMu_MuMuE_Method/v2405.4/2016preVFP/EEMu_MuMuE_Method_DYJetsToEE_MiNNLO.root
/data6/Users/jhchoi/TMVA/TMVA_TOOL/inputs/EEMu_MuMuE_Method/v2405.4/2016preVFP/EEMu_MuMuE_Method_DYJetsToMuMu_MiNNLO.root
…
['bmuon_normchi2', 'bmuon_ntracklayers', 'bmuon_ntrackhits', 'bmuon_nmatchedstations', 'bmuon_nvalidmuonhits', 'bmuon_reliso', 'bmuon_aeta', 'bmuon_pt', 'bmuon_dR_l_j']
sigcut-> (bmuon_charge*bjet_partonFlavour < 0)&&Has_bMuon
bkgcut-> (bmuon_charge*bjet_partonFlavour > 0)&&Has_bMuon
<sig cut>= (bmuon_charge*bjet_partonFlavour < 0)&&Has_bMuon
<bkg cut>= (bmuon_charge*bjet_partonFlavour > 0)&&Has_bMuon
_________________________________________________________________
Layer (type)                 Output Shape              Param #   
=================================================================
dense_103 (Dense)            (None, 128)               2304      
_________________________________________________________________
batch_normalization_86 (Batc (None, 128)               512       
_________________________________________________________________
activation_103 (Activation)  (None, 128)               0         
_________________________________________________________________
dropout_86 (Dropout)         (None, 128)               0         
_________________________________________________________________
dense_104 (Dense)            (None, 128)               16512     
_________________________________________________________________
batch_normalization_87 (Batc (None, 128)               512       
_________________________________________________________________
activation_104 (Activation)  (None, 128)               0         
_________________________________________________________________
dropout_87 (Dropout)         (None, 128)               0         
_________________________________________________________________
dense_105 (Dense)            (None, 128)               16512     
_________________________________________________________________
batch_normalization_88 (Batc (None, 128)               512       
_________________________________________________________________
activation_105 (Activation)  (None, 128)               0         
_________________________________________________________________
dropout_88 (Dropout)         (None, 128)               0         
_________________________________________________________________
dense_106 (Dense)            (None, 128)               16512     
_________________________________________________________________
batch_normalization_89 (Batc (None, 128)               512       
_________________________________________________________________
activation_106 (Activation)  (None, 128)               0         
_________________________________________________________________
dropout_89 (Dropout)         (None, 128)               0         
_________________________________________________________________
dense_107 (Dense)            (None, 128)               16512     
_________________________________________________________________
batch_normalization_90 (Batc (None, 128)               512       
_________________________________________________________________
activation_107 (Activation)  (None, 128)               0         
_________________________________________________________________
dropout_90 (Dropout)         (None, 128)               0         
_________________________________________________________________
dense_108 (Dense)            (None, 2)                 258       
_________________________________________________________________
activation_108 (Activation)  (None, 2)                 0         
=================================================================
Total params: 71,170
Trainable params: 69,890
Non-trainable params: 1,280
_________________________________________________________________
---sig_test---
<self.testtree_sig> OutTree/sig
/data6/Users/jhchoi/TMVA/TMVA_TOOL/inputs/EEMu_MuMuE_Method/v2405.4/2016preVFP/EEMu_MuMuE_Method_DYJetsToEE_MiNNLO.root
/data6/Users/jhchoi/TMVA/TMVA_TOOL/inputs/EEMu_MuMuE_Method/v2405.4/2016preVFP/EEMu_MuMuE_Method_DYJetsToMuMu_MiNNLO.root
…
['bmuon_normchi2', 'bmuon_ntracklayers', 'bmuon_ntrackhits', 'bmuon_nmatchedstations', 'bmuon_nvalidmuonhits', 'bmuon_reliso', 'bmuon_aeta', 'bmuon_pt', 'bmuon_dR_l_j', 'bmuon_palongjet']
sigcut-> (bmuon_charge*bjet_partonFlavour < 0)&&Has_bMuon
bkgcut-> (bmuon_charge*bjet_partonFlavour > 0)&&Has_bMuon
<sig cut>= (bmuon_charge*bjet_partonFlavour < 0)&&Has_bMuon
<bkg cut>= (bmuon_charge*bjet_partonFlavour > 0)&&Has_bMuon
_________________________________________________________________
Layer (type)                 Output Shape              Param #   
=================================================================
dense_115 (Dense)            (None, 128)               2176      
_________________________________________________________________
batch_normalization_96 (Batc (None, 128)               512       
_________________________________________________________________
activation_115 (Activation)  (None, 128)               0         
_________________________________________________________________
dropout_96 (Dropout)         (None, 128)               0         
_________________________________________________________________
dense_116 (Dense)            (None, 128)               16512     
_________________________________________________________________
batch_normalization_97 (Batc (None, 128)               512       
_________________________________________________________________
activation_116 (Activation)  (None, 128)               0         
_________________________________________________________________
dropout_97 (Dropout)         (None, 128)               0         
_________________________________________________________________
dense_117 (Dense)            (None, 128)               16512     
_________________________________________________________________
batch_normalization_98 (Batc (None, 128)               512       
_________________________________________________________________
activation_117 (Activation)  (None, 128)               0         
_________________________________________________________________
dropout_98 (Dropout)         (None, 128)               0         
_________________________________________________________________
dense_118 (Dense)            (None, 128)               16512     
_________________________________________________________________
batch_normalization_99 (Batc (None, 128)               512       
_________________________________________________________________
activation_118 (Activation)  (None, 128)               0         
_________________________________________________________________
dropout_99 (Dropout)         (None, 128)               0         
_________________________________________________________________
dense_119 (Dense)            (None, 128)               16512     
_________________________________________________________________
batch_normalization_100 (Bat (None, 128)               512       
_________________________________________________________________
activation_119 (Activation)  (None, 128)               0         
_________________________________________________________________
dropout_100 (Dropout)        (None, 128)               0         
_________________________________________________________________
dense_120 (Dense)            (None, 2)                 258       
_________________________________________________________________
activation_120 (Activation)  (None, 2)                 0         
=================================================================
Total params: 71,042
Trainable params: 69,762
Non-trainable params: 1,280
_________________________________________________________________
---sig_test---
<self.testtree_sig> OutTree/sig
/data6/Users/jhchoi/TMVA/TMVA_TOOL/inputs/EEMu_MuMuE_Method/v2405.4/2016preVFP/EEMu_MuMuE_Method_DYJetsToEE_MiNNLO.root
/data6/Users/jhchoi/TMVA/TMVA_TOOL/inputs/EEMu_MuMuE_Method/v2405.4/2016preVFP/EEMu_MuMuE_Method_DYJetsToMuMu_MiNNLO.root
…
['bmuon_normchi2', 'bmuon_ntracklayers', 'bmuon_ntrackhits', 'bmuon_nmatchedstations', 'bmuon_nvalidmuonhits', 'bmuon_reliso', 'bmuon_aeta', 'bmuon_pt', 'bmuon_dR_l_j', 'bmuon_palongjet', 'bmuon_palongjetratio']
sigcut-> (bmuon_charge*bjet_partonFlavour < 0)&&Has_bMuon
bkgcut-> (bmuon_charge*bjet_partonFlavour > 0)&&Has_bMuon
<sig cut>= (bmuon_charge*bjet_partonFlavour < 0)&&Has_bMuon
<bkg cut>= (bmuon_charge*bjet_partonFlavour > 0)&&Has_bMuon
_________________________________________________________________
Layer (type)                 Output Shape              Param #   
=================================================================
dense_121 (Dense)            (None, 128)               2048      
_________________________________________________________________
batch_normalization_101 (Bat (None, 128)               512       
_________________________________________________________________
activation_121 (Activation)  (None, 128)               0         
_________________________________________________________________
dropout_101 (Dropout)        (None, 128)               0         
_________________________________________________________________
dense_122 (Dense)            (None, 128)               16512     
_________________________________________________________________
batch_normalization_102 (Bat (None, 128)               512       
_________________________________________________________________
activation_122 (Activation)  (None, 128)               0         
_________________________________________________________________
dropout_102 (Dropout)        (None, 128)               0         
_________________________________________________________________
dense_123 (Dense)            (None, 128)               16512     
_________________________________________________________________
batch_normalization_103 (Bat (None, 128)               512       
_________________________________________________________________
activation_123 (Activation)  (None, 128)               0         
_________________________________________________________________
dropout_103 (Dropout)        (None, 128)               0         
_________________________________________________________________
dense_124 (Dense)            (None, 128)               16512     
_________________________________________________________________
batch_normalization_104 (Bat (None, 128)               512       
_________________________________________________________________
activation_124 (Activation)  (None, 128)               0         
_________________________________________________________________
dropout_104 (Dropout)        (None, 128)               0         
_________________________________________________________________
dense_125 (Dense)            (None, 128)               16512     
_________________________________________________________________
batch_normalization_105 (Bat (None, 128)               512       
_________________________________________________________________
activation_125 (Activation)  (None, 128)               0         
_________________________________________________________________
dropout_105 (Dropout)        (None, 128)               0         
_________________________________________________________________
dense_126 (Dense)            (None, 2)                 258       
_________________________________________________________________
activation_126 (Activation)  (None, 2)                 0         
=================================================================
Total params: 70,914
Trainable params: 69,634
Non-trainable params: 1,280
_________________________________________________________________
---sig_test---
<self.testtree_sig> OutTree/sig
/data6/Users/jhchoi/TMVA/TMVA_TOOL/inputs/EEMu_MuMuE_Method/v2405.4/2016preVFP/EEMu_MuMuE_Method_DYJetsToEE_MiNNLO.root
/data6/Users/jhchoi/TMVA/TMVA_TOOL/inputs/EEMu_MuMuE_Method/v2405.4/2016preVFP/EEMu_MuMuE_Method_DYJetsToMuMu_MiNNLO.root
…
['bmuon_normchi2', 'bmuon_ntracklayers', 'bmuon_ntrackhits', 'bmuon_nmatchedstations', 'bmuon_nvalidmuonhits', 'bmuon_reliso', 'bmuon_aeta', 'bmuon_pt', 'bmuon_dR_l_j', 'bmuon_palongjet', 'bmuon_palongjetratio', 'bmuon_ptwrtbjet']
sigcut-> (bmuon_charge*bjet_partonFlavour < 0)&&Has_bMuon
bkgcut-> (bmuon_charge*bjet_partonFlavour > 0)&&Has_bMuon
<sig cut>= (bmuon_charge*bjet_partonFlavour < 0)&&Has_bMuon
<bkg cut>= (bmuon_charge*bjet_partonFlavour > 0)&&Has_bMuon
_________________________________________________________________
Layer (type)                 Output Shape              Param #   
=================================================================
dense_127 (Dense)            (None, 128)               1920      
_________________________________________________________________
batch_normalization_106 (Bat (None, 128)               512       
_________________________________________________________________
activation_127 (Activation)  (None, 128)               0         
_________________________________________________________________
dropout_106 (Dropout)        (None, 128)               0         
_________________________________________________________________
dense_128 (Dense)            (None, 128)               16512     
_________________________________________________________________
batch_normalization_107 (Bat (None, 128)               512       
_________________________________________________________________
activation_128 (Activation)  (None, 128)               0         
_________________________________________________________________
dropout_107 (Dropout)        (None, 128)               0         
_________________________________________________________________
dense_129 (Dense)            (None, 128)               16512     
_________________________________________________________________
batch_normalization_108 (Bat (None, 128)               512       
_________________________________________________________________
activation_129 (Activation)  (None, 128)               0         
_________________________________________________________________
dropout_108 (Dropout)        (None, 128)               0         
_________________________________________________________________
dense_130 (Dense)            (None, 128)               16512     
_________________________________________________________________
batch_normalization_109 (Bat (None, 128)               512       
_________________________________________________________________
activation_130 (Activation)  (None, 128)               0         
_________________________________________________________________
dropout_109 (Dropout)        (None, 128)               0         
_________________________________________________________________
dense_131 (Dense)            (None, 128)               16512     
_________________________________________________________________
batch_normalization_110 (Bat (None, 128)               512       
_________________________________________________________________
activation_131 (Activation)  (None, 128)               0         
_________________________________________________________________
dropout_110 (Dropout)        (None, 128)               0         
_________________________________________________________________
dense_132 (Dense)            (None, 2)                 258       
_________________________________________________________________
activation_132 (Activation)  (None, 2)                 0         
=================================================================
Total params: 70,786
Trainable params: 69,506
Non-trainable params: 1,280
_________________________________________________________________
---sig_test---
<self.testtree_sig> OutTree/sig
/data6/Users/jhchoi/TMVA/TMVA_TOOL/inputs/EEMu_MuMuE_Method/v2405.4/2016preVFP/EEMu_MuMuE_Method_DYJetsToEE_MiNNLO.root
/data6/Users/jhchoi/TMVA/TMVA_TOOL/inputs/EEMu_MuMuE_Method/v2405.4/2016preVFP/EEMu_MuMuE_Method_DYJetsToMuMu_MiNNLO.root
…
['bmuon_normchi2', 'bmuon_ntracklayers', 'bmuon_ntrackhits', 'bmuon_nmatchedstations', 'bmuon_nvalidmuonhits', 'bmuon_reliso', 'bmuon_aeta', 'bmuon_pt', 'bmuon_dR_l_j', 'bmuon_palongjet', 'bmuon_palongjetratio', 'bjet_ChargedHadronEnergyFraction', 'bjet_NeutralHadronEnergyFraction']
sigcut-> (bmuon_charge*bjet_partonFlavour < 0)&&Has_bMuon
bkgcut-> (bmuon_charge*bjet_partonFlavour > 0)&&Has_bMuon
<sig cut>= (bmuon_charge*bjet_partonFlavour < 0)&&Has_bMuon
<bkg cut>= (bmuon_charge*bjet_partonFlavour > 0)&&Has_bMuon
_________________________________________________________________
Layer (type)                 Output Shape              Param #   
=================================================================
dense_187 (Dense)            (None, 128)               1792      
_________________________________________________________________
batch_normalization_156 (Bat (None, 128)               512       
_________________________________________________________________
activation_187 (Activation)  (None, 128)               0         
_________________________________________________________________
dropout_156 (Dropout)        (None, 128)               0         
_________________________________________________________________
dense_188 (Dense)            (None, 128)               16512     
_________________________________________________________________
batch_normalization_157 (Bat (None, 128)               512       
_________________________________________________________________
activation_188 (Activation)  (None, 128)               0         
_________________________________________________________________
dropout_157 (Dropout)        (None, 128)               0         
_________________________________________________________________
dense_189 (Dense)            (None, 128)               16512     
_________________________________________________________________
batch_normalization_158 (Bat (None, 128)               512       
_________________________________________________________________
activation_189 (Activation)  (None, 128)               0         
_________________________________________________________________
dropout_158 (Dropout)        (None, 128)               0         
_________________________________________________________________
dense_190 (Dense)            (None, 128)               16512     
_________________________________________________________________
batch_normalization_159 (Bat (None, 128)               512       
_________________________________________________________________
activation_190 (Activation)  (None, 128)               0         
_________________________________________________________________
dropout_159 (Dropout)        (None, 128)               0         
_________________________________________________________________
dense_191 (Dense)            (None, 128)               16512     
_________________________________________________________________
batch_normalization_160 (Bat (None, 128)               512       
_________________________________________________________________
activation_191 (Activation)  (None, 128)               0         
_________________________________________________________________
dropout_160 (Dropout)        (None, 128)               0         
_________________________________________________________________
dense_192 (Dense)            (None, 2)                 258       
_________________________________________________________________
activation_192 (Activation)  (None, 2)                 0         
=================================================================
Total params: 70,658
Trainable params: 69,378
Non-trainable params: 1,280
_________________________________________________________________
---sig_test---
<self.testtree_sig> OutTree/sig
/data6/Users/jhchoi/TMVA/TMVA_TOOL/inputs/EEMu_MuMuE_Method/v2405.4/2016preVFP/EEMu_MuMuE_Method_DYJetsToEE_MiNNLO.root
/data6/Users/jhchoi/TMVA/TMVA_TOOL/inputs/EEMu_MuMuE_Method/v2405.4/2016preVFP/EEMu_MuMuE_Method_DYJetsToMuMu_MiNNLO.root
…
['bmuon_normchi2', 'bmuon_ntracklayers', 'bmuon_ntrackhits', 'bmuon_nmatchedstations', 'bmuon_nvalidmuonhits', 'bmuon_reliso', 'bmuon_aeta', 'bmuon_pt', 'bmuon_dR_l_j', 'bmuon_palongjet', 'bmuon_palongjetratio', 'bjet_ChargedHadronEnergyFraction', 'bjet_NeutralHadronEnergyFraction', 'bjet_NeutralEmEnergyFraction']
sigcut-> (bmuon_charge*bjet_partonFlavour < 0)&&Has_bMuon
bkgcut-> (bmuon_charge*bjet_partonFlavour > 0)&&Has_bMuon
<sig cut>= (bmuon_charge*bjet_partonFlavour < 0)&&Has_bMuon
<bkg cut>= (bmuon_charge*bjet_partonFlavour > 0)&&Has_bMuon
_________________________________________________________________
Layer (type)                 Output Shape              Param #   
=================================================================
dense_193 (Dense)            (None, 128)               1664      
_________________________________________________________________
batch_normalization_161 (Bat (None, 128)               512       
_________________________________________________________________
activation_193 (Activation)  (None, 128)               0         
_________________________________________________________________
dropout_161 (Dropout)        (None, 128)               0         
_________________________________________________________________
dense_194 (Dense)            (None, 128)               16512     
_________________________________________________________________
batch_normalization_162 (Bat (None, 128)               512       
_________________________________________________________________
activation_194 (Activation)  (None, 128)               0         
_________________________________________________________________
dropout_162 (Dropout)        (None, 128)               0         
_________________________________________________________________
dense_195 (Dense)            (None, 128)               16512     
_________________________________________________________________
batch_normalization_163 (Bat (None, 128)               512       
_________________________________________________________________
activation_195 (Activation)  (None, 128)               0         
_________________________________________________________________
dropout_163 (Dropout)        (None, 128)               0         
_________________________________________________________________
dense_196 (Dense)            (None, 128)               16512     
_________________________________________________________________
batch_normalization_164 (Bat (None, 128)               512       
_________________________________________________________________
activation_196 (Activation)  (None, 128)               0         
_________________________________________________________________
dropout_164 (Dropout)        (None, 128)               0         
_________________________________________________________________
dense_197 (Dense)            (None, 128)               16512     
_________________________________________________________________
batch_normalization_165 (Bat (None, 128)               512       
_________________________________________________________________
activation_197 (Activation)  (None, 128)               0         
_________________________________________________________________
dropout_165 (Dropout)        (None, 128)               0         
_________________________________________________________________
dense_198 (Dense)            (None, 2)                 258       
_________________________________________________________________
activation_198 (Activation)  (None, 2)                 0         
=================================================================
Total params: 70,530
Trainable params: 69,250
Non-trainable params: 1,280
_________________________________________________________________
---sig_test---
<self.testtree_sig> OutTree/sig
/data6/Users/jhchoi/TMVA/TMVA_TOOL/inputs/EEMu_MuMuE_Method/v2405.4/2016preVFP/EEMu_MuMuE_Method_DYJetsToEE_MiNNLO.root
/data6/Users/jhchoi/TMVA/TMVA_TOOL/inputs/EEMu_MuMuE_Method/v2405.4/2016preVFP/EEMu_MuMuE_Method_DYJetsToMuMu_MiNNLO.root
…
['bmuon_normchi2', 'bmuon_ntracklayers', 'bmuon_ntrackhits', 'bmuon_nmatchedstations', 'bmuon_nvalidmuonhits', 'bmuon_reliso', 'bmuon_aeta', 'bmuon_pt', 'bmuon_dR_l_j', 'bmuon_palongjet', 'bmuon_palongjetratio', 'bjet_ChargedHadronEnergyFraction', 'bjet_NeutralHadronEnergyFraction', 'bjet_NeutralEmEnergyFraction', 'bjet_ChargedEmEnergyFraction']
sigcut-> (bmuon_charge*bjet_partonFlavour < 0)&&Has_bMuon
bkgcut-> (bmuon_charge*bjet_partonFlavour > 0)&&Has_bMuon
<sig cut>= (bmuon_charge*bjet_partonFlavour < 0)&&Has_bMuon
<bkg cut>= (bmuon_charge*bjet_partonFlavour > 0)&&Has_bMuon
_________________________________________________________________
Layer (type)                 Output Shape              Param #   
=================================================================
dense_199 (Dense)            (None, 128)               1536      
_________________________________________________________________
batch_normalization_166 (Bat (None, 128)               512       
_________________________________________________________________
activation_199 (Activation)  (None, 128)               0         
_________________________________________________________________
dropout_166 (Dropout)        (None, 128)               0         
_________________________________________________________________
dense_200 (Dense)            (None, 128)               16512     
_________________________________________________________________
batch_normalization_167 (Bat (None, 128)               512       
_________________________________________________________________
activation_200 (Activation)  (None, 128)               0         
_________________________________________________________________
dropout_167 (Dropout)        (None, 128)               0         
_________________________________________________________________
dense_201 (Dense)            (None, 128)               16512     
_________________________________________________________________
batch_normalization_168 (Bat (None, 128)               512       
_________________________________________________________________
activation_201 (Activation)  (None, 128)               0         
_________________________________________________________________
dropout_168 (Dropout)        (None, 128)               0         
_________________________________________________________________
dense_202 (Dense)            (None, 128)               16512     
_________________________________________________________________
batch_normalization_169 (Bat (None, 128)               512       
_________________________________________________________________
activation_202 (Activation)  (None, 128)               0         
_________________________________________________________________
dropout_169 (Dropout)        (None, 128)               0         
_________________________________________________________________
dense_203 (Dense)            (None, 128)               16512     
_________________________________________________________________
batch_normalization_170 (Bat (None, 128)               512       
_________________________________________________________________
activation_203 (Activation)  (None, 128)               0         
_________________________________________________________________
dropout_170 (Dropout)        (None, 128)               0         
_________________________________________________________________
dense_204 (Dense)            (None, 2)                 258       
_________________________________________________________________
activation_204 (Activation)  (None, 2)                 0         
=================================================================
Total params: 70,402
Trainable params: 69,122
Non-trainable params: 1,280
_________________________________________________________________
---sig_test---
<self.testtree_sig> OutTree/sig
/data6/Users/jhchoi/TMVA/TMVA_TOOL/inputs/EEMu_MuMuE_Method/v2405.4/2016preVFP/EEMu_MuMuE_Method_DYJetsToEE_MiNNLO.root
/data6/Users/jhchoi/TMVA/TMVA_TOOL/inputs/EEMu_MuMuE_Method/v2405.4/2016preVFP/EEMu_MuMuE_Method_DYJetsToMuMu_MiNNLO.root
…
['bmuon_normchi2', 'bmuon_ntracklayers', 'bmuon_ntrackhits', 'bmuon_nmatchedstations', 'bmuon_nvalidmuonhits', 'bmuon_reliso', 'bmuon_aeta', 'bmuon_pt', 'bmuon_dR_l_j', 'bmuon_palongjet', 'bmuon_palongjetratio', 'bjet_ChargedHadronEnergyFraction', 'bjet_NeutralHadronEnergyFraction', 'bjet_NeutralEmEnergyFraction', 'bjet_ChargedEmEnergyFraction', 'bjet_MuonEnergyFraction']
sigcut-> (bmuon_charge*bjet_partonFlavour < 0)&&Has_bMuon
bkgcut-> (bmuon_charge*bjet_partonFlavour > 0)&&Has_bMuon
<sig cut>= (bmuon_charge*bjet_partonFlavour < 0)&&Has_bMuon
<bkg cut>= (bmuon_charge*bjet_partonFlavour > 0)&&Has_bMuon
_________________________________________________________________
Layer (type)                 Output Shape              Param #   
=================================================================
dense_217 (Dense)            (None, 128)               1408      
_________________________________________________________________
batch_normalization_181 (Bat (None, 128)               512       
_________________________________________________________________
activation_217 (Activation)  (None, 128)               0         
_________________________________________________________________
dropout_181 (Dropout)        (None, 128)               0         
_________________________________________________________________
dense_218 (Dense)            (None, 128)               16512     
_________________________________________________________________
batch_normalization_182 (Bat (None, 128)               512       
_________________________________________________________________
activation_218 (Activation)  (None, 128)               0         
_________________________________________________________________
dropout_182 (Dropout)        (None, 128)               0         
_________________________________________________________________
dense_219 (Dense)            (None, 128)               16512     
_________________________________________________________________
batch_normalization_183 (Bat (None, 128)               512       
_________________________________________________________________
activation_219 (Activation)  (None, 128)               0         
_________________________________________________________________
dropout_183 (Dropout)        (None, 128)               0         
_________________________________________________________________
dense_220 (Dense)            (None, 128)               16512     
_________________________________________________________________
batch_normalization_184 (Bat (None, 128)               512       
_________________________________________________________________
activation_220 (Activation)  (None, 128)               0         
_________________________________________________________________
dropout_184 (Dropout)        (None, 128)               0         
_________________________________________________________________
dense_221 (Dense)            (None, 128)               16512     
_________________________________________________________________
batch_normalization_185 (Bat (None, 128)               512       
_________________________________________________________________
activation_221 (Activation)  (None, 128)               0         
_________________________________________________________________
dropout_185 (Dropout)        (None, 128)               0         
_________________________________________________________________
dense_222 (Dense)            (None, 2)                 258       
_________________________________________________________________
activation_222 (Activation)  (None, 2)                 0         
=================================================================
Total params: 70,274
Trainable params: 68,994
Non-trainable params: 1,280
_________________________________________________________________
---sig_test---
<self.testtree_sig> OutTree/sig
/data6/Users/jhchoi/TMVA/TMVA_TOOL/inputs/EEMu_MuMuE_Method/v2405.4/2016preVFP/EEMu_MuMuE_Method_DYJetsToEE_MiNNLO.root
/data6/Users/jhchoi/TMVA/TMVA_TOOL/inputs/EEMu_MuMuE_Method/v2405.4/2016preVFP/EEMu_MuMuE_Method_DYJetsToMuMu_MiNNLO.root
…
['bmuon_normchi2', 'bmuon_ntracklayers', 'bmuon_ntrackhits', 'bmuon_nmatchedstations', 'bmuon_nvalidmuonhits', 'bmuon_reliso', 'bmuon_aeta', 'bmuon_pt', 'bmuon_dR_l_j', 'bmuon_palongjet', 'bmuon_palongjetratio', 'bjet_ChargedHadronEnergyFraction', 'bjet_NeutralHadronEnergyFraction', 'bjet_NeutralEmEnergyFraction', 'bjet_ChargedEmEnergyFraction', 'bjet_NeutralMultiplicity', 'bjet_pt']
sigcut-> (bmuon_charge*bjet_partonFlavour < 0)&&Has_bMuon
bkgcut-> (bmuon_charge*bjet_partonFlavour > 0)&&Has_bMuon
<sig cut>= (bmuon_charge*bjet_partonFlavour < 0)&&Has_bMuon
<bkg cut>= (bmuon_charge*bjet_partonFlavour > 0)&&Has_bMuon
_________________________________________________________________
Layer (type)                 Output Shape              Param #   
=================================================================
dense_265 (Dense)            (None, 128)               1280      
_________________________________________________________________
batch_normalization_221 (Bat (None, 128)               512       
_________________________________________________________________
activation_265 (Activation)  (None, 128)               0         
_________________________________________________________________
dropout_221 (Dropout)        (None, 128)               0         
_________________________________________________________________
dense_266 (Dense)            (None, 128)               16512     
_________________________________________________________________
batch_normalization_222 (Bat (None, 128)               512       
_________________________________________________________________
activation_266 (Activation)  (None, 128)               0         
_________________________________________________________________
dropout_222 (Dropout)        (None, 128)               0         
_________________________________________________________________
dense_267 (Dense)            (None, 128)               16512     
_________________________________________________________________
batch_normalization_223 (Bat (None, 128)               512       
_________________________________________________________________
activation_267 (Activation)  (None, 128)               0         
_________________________________________________________________
dropout_223 (Dropout)        (None, 128)               0         
_________________________________________________________________
dense_268 (Dense)            (None, 128)               16512     
_________________________________________________________________
batch_normalization_224 (Bat (None, 128)               512       
_________________________________________________________________
activation_268 (Activation)  (None, 128)               0         
_________________________________________________________________
dropout_224 (Dropout)        (None, 128)               0         
_________________________________________________________________
dense_269 (Dense)            (None, 128)               16512     
_________________________________________________________________
batch_normalization_225 (Bat (None, 128)               512       
_________________________________________________________________
activation_269 (Activation)  (None, 128)               0         
_________________________________________________________________
dropout_225 (Dropout)        (None, 128)               0         
_________________________________________________________________
dense_270 (Dense)            (None, 2)                 258       
_________________________________________________________________
activation_270 (Activation)  (None, 2)                 0         
=================================================================
Total params: 70,146
Trainable params: 68,866
Non-trainable params: 1,280
_________________________________________________________________
---sig_test---
<self.testtree_sig> OutTree/sig
/data6/Users/jhchoi/TMVA/TMVA_TOOL/inputs/EEMu_MuMuE_Method/v2405.4/2016preVFP/EEMu_MuMuE_Method_DYJetsToEE_MiNNLO.root
/data6/Users/jhchoi/TMVA/TMVA_TOOL/inputs/EEMu_MuMuE_Method/v2405.4/2016preVFP/EEMu_MuMuE_Method_DYJetsToMuMu_MiNNLO.root
…
['bmuon_normchi2', 'bmuon_ntracklayers', 'bmuon_ntrackhits', 'bmuon_nmatchedstations', 'bmuon_nvalidmuonhits', 'bmuon_reliso', 'bmuon_aeta', 'bmuon_pt', 'bmuon_dR_l_j', 'bmuon_palongjet', 'bmuon_palongjetratio', 'bjet_ChargedHadronEnergyFraction', 'bjet_NeutralHadronEnergyFraction', 'bjet_NeutralEmEnergyFraction', 'bjet_ChargedEmEnergyFraction', 'bjet_NeutralMultiplicity', 'bjet_pt', 'bjet_aeta']
sigcut-> (bmuon_charge*bjet_partonFlavour < 0)&&Has_bMuon
bkgcut-> (bmuon_charge*bjet_partonFlavour > 0)&&Has_bMuon
<sig cut>= (bmuon_charge*bjet_partonFlavour < 0)&&Has_bMuon
<bkg cut>= (bmuon_charge*bjet_partonFlavour > 0)&&Has_bMuon
_________________________________________________________________
Layer (type)                 Output Shape              Param #   
=================================================================
dense_271 (Dense)            (None, 128)               1152      
_________________________________________________________________
batch_normalization_226 (Bat (None, 128)               512       
_________________________________________________________________
activation_271 (Activation)  (None, 128)               0         
_________________________________________________________________
dropout_226 (Dropout)        (None, 128)               0         
_________________________________________________________________
dense_272 (Dense)            (None, 128)               16512     
_________________________________________________________________
batch_normalization_227 (Bat (None, 128)               512       
_________________________________________________________________
activation_272 (Activation)  (None, 128)               0         
_________________________________________________________________
dropout_227 (Dropout)        (None, 128)               0         
_________________________________________________________________
dense_273 (Dense)            (None, 128)               16512     
_________________________________________________________________
batch_normalization_228 (Bat (None, 128)               512       
_________________________________________________________________
activation_273 (Activation)  (None, 128)               0         
_________________________________________________________________
dropout_228 (Dropout)        (None, 128)               0         
_________________________________________________________________
dense_274 (Dense)            (None, 128)               16512     
_________________________________________________________________
batch_normalization_229 (Bat (None, 128)               512       
_________________________________________________________________
activation_274 (Activation)  (None, 128)               0         
_________________________________________________________________
dropout_229 (Dropout)        (None, 128)               0         
_________________________________________________________________
dense_275 (Dense)            (None, 128)               16512     
_________________________________________________________________
batch_normalization_230 (Bat (None, 128)               512       
_________________________________________________________________
activation_275 (Activation)  (None, 128)               0         
_________________________________________________________________
dropout_230 (Dropout)        (None, 128)               0         
_________________________________________________________________
dense_276 (Dense)            (None, 2)                 258       
_________________________________________________________________
activation_276 (Activation)  (None, 2)                 0         
=================================================================
Total params: 70,018
Trainable params: 68,738
Non-trainable params: 1,280
_________________________________________________________________
---sig_test---
<self.testtree_sig> OutTree/sig
/data6/Users/jhchoi/TMVA/TMVA_TOOL/inputs/EEMu_MuMuE_Method/v2405.4/2016preVFP/EEMu_MuMuE_Method_DYJetsToEE_MiNNLO.root
/data6/Users/jhchoi/TMVA/TMVA_TOOL/inputs/EEMu_MuMuE_Method/v2405.4/2016preVFP/EEMu_MuMuE_Method_DYJetsToMuMu_MiNNLO.root
…
['bmuon_normchi2', 'bmuon_ntracklayers', 'bmuon_ntrackhits', 'bmuon_nmatchedstations', 'bmuon_nvalidmuonhits', 'bmuon_reliso', 'bmuon_aeta', 'bmuon_pt', 'bmuon_dR_l_j', 'bmuon_palongjet', 'bmuon_palongjetratio', 'bjet_ChargedHadronEnergyFraction', 'bjet_NeutralHadronEnergyFraction', 'bjet_NeutralEmEnergyFraction', 'bjet_ChargedEmEnergyFraction', 'bjet_NeutralMultiplicity', 'bjet_pt', 'bjet_aeta', 'fabs(bjet_charge)']
sigcut-> (bmuon_charge*bjet_partonFlavour < 0)&&Has_bMuon
bkgcut-> (bmuon_charge*bjet_partonFlavour > 0)&&Has_bMuon
<sig cut>= (bmuon_charge*bjet_partonFlavour < 0)&&Has_bMuon
<bkg cut>= (bmuon_charge*bjet_partonFlavour > 0)&&Has_bMuon
_________________________________________________________________
Layer (type)                 Output Shape              Param #   
=================================================================
dense_277 (Dense)            (None, 128)               1024      
_________________________________________________________________
batch_normalization_231 (Bat (None, 128)               512       
_________________________________________________________________
activation_277 (Activation)  (None, 128)               0         
_________________________________________________________________
dropout_231 (Dropout)        (None, 128)               0         
_________________________________________________________________
dense_278 (Dense)            (None, 128)               16512     
_________________________________________________________________
batch_normalization_232 (Bat (None, 128)               512       
_________________________________________________________________
activation_278 (Activation)  (None, 128)               0         
_________________________________________________________________
dropout_232 (Dropout)        (None, 128)               0         
_________________________________________________________________
dense_279 (Dense)            (None, 128)               16512     
_________________________________________________________________
batch_normalization_233 (Bat (None, 128)               512       
_________________________________________________________________
activation_279 (Activation)  (None, 128)               0         
_________________________________________________________________
dropout_233 (Dropout)        (None, 128)               0         
_________________________________________________________________
dense_280 (Dense)            (None, 128)               16512     
_________________________________________________________________
batch_normalization_234 (Bat (None, 128)               512       
_________________________________________________________________
activation_280 (Activation)  (None, 128)               0         
_________________________________________________________________
dropout_234 (Dropout)        (None, 128)               0         
_________________________________________________________________
dense_281 (Dense)            (None, 128)               16512     
_________________________________________________________________
batch_normalization_235 (Bat (None, 128)               512       
_________________________________________________________________
activation_281 (Activation)  (None, 128)               0         
_________________________________________________________________
dropout_235 (Dropout)        (None, 128)               0         
_________________________________________________________________
dense_282 (Dense)            (None, 2)                 258       
_________________________________________________________________
activation_282 (Activation)  (None, 2)                 0         
=================================================================
Total params: 69,890
Trainable params: 68,610
Non-trainable params: 1,280
_________________________________________________________________
---sig_test---
<self.testtree_sig> OutTree/sig
/data6/Users/jhchoi/TMVA/TMVA_TOOL/inputs/EEMu_MuMuE_Method/v2405.4/2016preVFP/EEMu_MuMuE_Method_DYJetsToEE_MiNNLO.root
/data6/Users/jhchoi/TMVA/TMVA_TOOL/inputs/EEMu_MuMuE_Method/v2405.4/2016preVFP/EEMu_MuMuE_Method_DYJetsToMuMu_MiNNLO.root
…
