…
NeutralMultiplicity', 'bjet_pt', 'bjet_aeta', 'fabs(bjet_charge)']
======
TEST-> bmuon_normchi2
--SKIP FOLLOWING VARS
['bmuon_normchi2']
sigcut-> (bmuon_charge*bjet_partonFlavour < 0)&&Has_bMuon
bkgcut-> (bmuon_charge*bjet_partonFlavour > 0)&&Has_bMuon
<sig cut>= (bmuon_charge*bjet_partonFlavour < 0)&&Has_bMuon
<bkg cut>= (bmuon_charge*bjet_partonFlavour > 0)&&Has_bMuon
_________________________________________________________________
Layer (type)                 Output Shape              Param #   
=================================================================
dense_1 (Dense)              (None, 128)               3328      
_________________________________________________________________
batch_normalization_1 (Batch (None, 128)               512       
_________________________________________________________________
activation_1 (Activation)    (None, 128)               0         
_________________________________________________________________
dropout_1 (Dropout)          (None, 128)               0         
_________________________________________________________________
dense_2 (Dense)              (None, 128)               16512     
_________________________________________________________________
batch_normalization_2 (Batch (None, 128)               512       
_________________________________________________________________
activation_2 (Activation)    (None, 128)               0         
_________________________________________________________________
dropout_2 (Dropout)          (None, 128)               0         
_________________________________________________________________
dense_3 (Dense)              (None, 128)               16512     
_________________________________________________________________
batch_normalization_3 (Batch (None, 128)               512       
_________________________________________________________________
activation_3 (Activation)    (None, 128)               0         
_________________________________________________________________
dropout_3 (Dropout)          (None, 128)               0         
_________________________________________________________________
dense_4 (Dense)              (None, 128)               16512     
_________________________________________________________________
batch_normalization_4 (Batch (None, 128)               512       
_________________________________________________________________
activation_4 (Activation)    (None, 128)               0         
_________________________________________________________________
dropout_4 (Dropout)          (None, 128)               0         
_________________________________________________________________
dense_5 (Dense)              (None, 128)               16512     
_________________________________________________________________
batch_normalization_5 (Batch (None, 128)               512       
_________________________________________________________________
activation_5 (Activation)    (None, 128)               0         
_________________________________________________________________
dropout_5 (Dropout)          (None, 128)               0         
_________________________________________________________________
dense_6 (Dense)              (None, 2)                 258       
_________________________________________________________________
activation_6 (Activation)    (None, 2)                 0         
=================================================================
Total params: 72,194
Trainable params: 70,914
Non-trainable params: 1,280
_________________________________________________________________
---sig_test---
<self.testtree_sig> OutTree/sig
/data6/Users/jhchoi/TMVA/TMVA_TOOL/inputs/EEMu_MuMuE_Method/v2405.4/2018/EEMu_MuMuE_Method_DYJetsToEE_MiNNLO.root
/data6/Users/jhchoi/TMVA/TMVA_TOOL/inputs/EEMu_MuMuE_Method/v2405.4/2018/EEMu_MuMuE_Method_DYJetsToMuMu_MiNNLO.root
…
no  bmuon_normchi2 -->AUC= 0.765442226753
AUC cut= 0.763
======
TEST-> bmuon_ntracklayers
--SKIP FOLLOWING VARS
['bmuon_normchi2', 'bmuon_ntracklayers']
sigcut-> (bmuon_charge*bjet_partonFlavour < 0)&&Has_bMuon
bkgcut-> (bmuon_charge*bjet_partonFlavour > 0)&&Has_bMuon
<sig cut>= (bmuon_charge*bjet_partonFlavour < 0)&&Has_bMuon
<bkg cut>= (bmuon_charge*bjet_partonFlavour > 0)&&Has_bMuon
_________________________________________________________________
Layer (type)                 Output Shape              Param #   
=================================================================
dense_7 (Dense)              (None, 128)               3200      
_________________________________________________________________
batch_normalization_6 (Batch (None, 128)               512       
_________________________________________________________________
activation_7 (Activation)    (None, 128)               0         
_________________________________________________________________
dropout_6 (Dropout)          (None, 128)               0         
_________________________________________________________________
dense_8 (Dense)              (None, 128)               16512     
_________________________________________________________________
batch_normalization_7 (Batch (None, 128)               512       
_________________________________________________________________
activation_8 (Activation)    (None, 128)               0         
_________________________________________________________________
dropout_7 (Dropout)          (None, 128)               0         
_________________________________________________________________
dense_9 (Dense)              (None, 128)               16512     
_________________________________________________________________
batch_normalization_8 (Batch (None, 128)               512       
_________________________________________________________________
activation_9 (Activation)    (None, 128)               0         
_________________________________________________________________
dropout_8 (Dropout)          (None, 128)               0         
_________________________________________________________________
dense_10 (Dense)             (None, 128)               16512     
_________________________________________________________________
batch_normalization_9 (Batch (None, 128)               512       
_________________________________________________________________
activation_10 (Activation)   (None, 128)               0         
_________________________________________________________________
dropout_9 (Dropout)          (None, 128)               0         
_________________________________________________________________
dense_11 (Dense)             (None, 128)               16512     
_________________________________________________________________
batch_normalization_10 (Batc (None, 128)               512       
_________________________________________________________________
activation_11 (Activation)   (None, 128)               0         
_________________________________________________________________
dropout_10 (Dropout)         (None, 128)               0         
_________________________________________________________________
dense_12 (Dense)             (None, 2)                 258       
_________________________________________________________________
activation_12 (Activation)   (None, 2)                 0         
=================================================================
Total params: 72,066
Trainable params: 70,786
Non-trainable params: 1,280
_________________________________________________________________
---sig_test---
<self.testtree_sig> OutTree/sig
/data6/Users/jhchoi/TMVA/TMVA_TOOL/inputs/EEMu_MuMuE_Method/v2405.4/2018/EEMu_MuMuE_Method_DYJetsToEE_MiNNLO.root
/data6/Users/jhchoi/TMVA/TMVA_TOOL/inputs/EEMu_MuMuE_Method/v2405.4/2018/EEMu_MuMuE_Method_DYJetsToMuMu_MiNNLO.root
…
no  bmuon_ntracklayers -->AUC= 0.765604974278
AUC cut= 0.763
======
TEST-> bmuon_ntrackhits
--SKIP FOLLOWING VARS
['bmuon_normchi2', 'bmuon_ntracklayers', 'bmuon_ntrackhits']
sigcut-> (bmuon_charge*bjet_partonFlavour < 0)&&Has_bMuon
bkgcut-> (bmuon_charge*bjet_partonFlavour > 0)&&Has_bMuon
<sig cut>= (bmuon_charge*bjet_partonFlavour < 0)&&Has_bMuon
<bkg cut>= (bmuon_charge*bjet_partonFlavour > 0)&&Has_bMuon
_________________________________________________________________
Layer (type)                 Output Shape              Param #   
=================================================================
dense_13 (Dense)             (None, 128)               3072      
_________________________________________________________________
batch_normalization_11 (Batc (None, 128)               512       
_________________________________________________________________
activation_13 (Activation)   (None, 128)               0         
_________________________________________________________________
dropout_11 (Dropout)         (None, 128)               0         
_________________________________________________________________
dense_14 (Dense)             (None, 128)               16512     
_________________________________________________________________
batch_normalization_12 (Batc (None, 128)               512       
_________________________________________________________________
activation_14 (Activation)   (None, 128)               0         
_________________________________________________________________
dropout_12 (Dropout)         (None, 128)               0         
_________________________________________________________________
dense_15 (Dense)             (None, 128)               16512     
_________________________________________________________________
batch_normalization_13 (Batc (None, 128)               512       
_________________________________________________________________
activation_15 (Activation)   (None, 128)               0         
_________________________________________________________________
dropout_13 (Dropout)         (None, 128)               0         
_________________________________________________________________
dense_16 (Dense)             (None, 128)               16512     
_________________________________________________________________
batch_normalization_14 (Batc (None, 128)               512       
_________________________________________________________________
activation_16 (Activation)   (None, 128)               0         
_________________________________________________________________
dropout_14 (Dropout)         (None, 128)               0         
_________________________________________________________________
dense_17 (Dense)             (None, 128)               16512     
_________________________________________________________________
batch_normalization_15 (Batc (None, 128)               512       
_________________________________________________________________
activation_17 (Activation)   (None, 128)               0         
_________________________________________________________________
dropout_15 (Dropout)         (None, 128)               0         
_________________________________________________________________
dense_18 (Dense)             (None, 2)                 258       
_________________________________________________________________
activation_18 (Activation)   (None, 2)                 0         
=================================================================
Total params: 71,938
Trainable params: 70,658
Non-trainable params: 1,280
_________________________________________________________________
---sig_test---
<self.testtree_sig> OutTree/sig
/data6/Users/jhchoi/TMVA/TMVA_TOOL/inputs/EEMu_MuMuE_Method/v2405.4/2018/EEMu_MuMuE_Method_DYJetsToEE_MiNNLO.root
/data6/Users/jhchoi/TMVA/TMVA_TOOL/inputs/EEMu_MuMuE_Method/v2405.4/2018/EEMu_MuMuE_Method_DYJetsToMuMu_MiNNLO.root
…
TEST-> bmuon_nmatchedstations
--SKIP FOLLOWING VARS
['bmuon_normchi2', 'bmuon_ntracklayers', 'bmuon_ntrackhits', 'bmuon_nmatchedstations']
sigcut-> (bmuon_charge*bjet_partonFlavour < 0)&&Has_bMuon
bkgcut-> (bmuon_charge*bjet_partonFlavour > 0)&&Has_bMuon
<sig cut>= (bmuon_charge*bjet_partonFlavour < 0)&&Has_bMuon
<bkg cut>= (bmuon_charge*bjet_partonFlavour > 0)&&Has_bMuon
_________________________________________________________________
Layer (type)                 Output Shape              Param #   
=================================================================
dense_19 (Dense)             (None, 128)               2944      
_________________________________________________________________
batch_normalization_16 (Batc (None, 128)               512       
_________________________________________________________________
activation_19 (Activation)   (None, 128)               0         
_________________________________________________________________
dropout_16 (Dropout)         (None, 128)               0         
_________________________________________________________________
dense_20 (Dense)             (None, 128)               16512     
_________________________________________________________________
batch_normalization_17 (Batc (None, 128)               512       
_________________________________________________________________
activation_20 (Activation)   (None, 128)               0         
_________________________________________________________________
dropout_17 (Dropout)         (None, 128)               0         
_________________________________________________________________
dense_21 (Dense)             (None, 128)               16512     
_________________________________________________________________
batch_normalization_18 (Batc (None, 128)               512       
_________________________________________________________________
activation_21 (Activation)   (None, 128)               0         
_________________________________________________________________
dropout_18 (Dropout)         (None, 128)               0         
_________________________________________________________________
dense_22 (Dense)             (None, 128)               16512     
_________________________________________________________________
batch_normalization_19 (Batc (None, 128)               512       
_________________________________________________________________
activation_22 (Activation)   (None, 128)               0         
_________________________________________________________________
dropout_19 (Dropout)         (None, 128)               0         
_________________________________________________________________
dense_23 (Dense)             (None, 128)               16512     
_________________________________________________________________
batch_normalization_20 (Batc (None, 128)               512       
_________________________________________________________________
activation_23 (Activation)   (None, 128)               0         
_________________________________________________________________
dropout_20 (Dropout)         (None, 128)               0         
_________________________________________________________________
dense_24 (Dense)             (None, 2)                 258       
_________________________________________________________________
activation_24 (Activation)   (None, 2)                 0         
=================================================================
Total params: 71,810
Trainable params: 70,530
Non-trainable params: 1,280
_________________________________________________________________
---sig_test---
<self.testtree_sig> OutTree/sig
/data6/Users/jhchoi/TMVA/TMVA_TOOL/inputs/EEMu_MuMuE_Method/v2405.4/2018/EEMu_MuMuE_Method_DYJetsToEE_MiNNLO.root
/data6/Users/jhchoi/TMVA/TMVA_TOOL/inputs/EEMu_MuMuE_Method/v2405.4/2018/EEMu_MuMuE_Method_DYJetsToMuMu_MiNNLO.root
…
TEST-> bmuon_nvalidmuonhits
--SKIP FOLLOWING VARS
['bmuon_normchi2', 'bmuon_ntracklayers', 'bmuon_ntrackhits', 'bmuon_nmatchedstations', 'bmuon_nvalidmuonhits']
sigcut-> (bmuon_charge*bjet_partonFlavour < 0)&&Has_bMuon
bkgcut-> (bmuon_charge*bjet_partonFlavour > 0)&&Has_bMuon
<sig cut>= (bmuon_charge*bjet_partonFlavour < 0)&&Has_bMuon
<bkg cut>= (bmuon_charge*bjet_partonFlavour > 0)&&Has_bMuon
_________________________________________________________________
Layer (type)                 Output Shape              Param #   
=================================================================
dense_25 (Dense)             (None, 128)               2816      
_________________________________________________________________
batch_normalization_21 (Batc (None, 128)               512       
_________________________________________________________________
activation_25 (Activation)   (None, 128)               0         
_________________________________________________________________
dropout_21 (Dropout)         (None, 128)               0         
_________________________________________________________________
dense_26 (Dense)             (None, 128)               16512     
_________________________________________________________________
batch_normalization_22 (Batc (None, 128)               512       
_________________________________________________________________
activation_26 (Activation)   (None, 128)               0         
_________________________________________________________________
dropout_22 (Dropout)         (None, 128)               0         
_________________________________________________________________
dense_27 (Dense)             (None, 128)               16512     
_________________________________________________________________
batch_normalization_23 (Batc (None, 128)               512       
_________________________________________________________________
activation_27 (Activation)   (None, 128)               0         
_________________________________________________________________
dropout_23 (Dropout)         (None, 128)               0         
_________________________________________________________________
dense_28 (Dense)             (None, 128)               16512     
_________________________________________________________________
batch_normalization_24 (Batc (None, 128)               512       
_________________________________________________________________
activation_28 (Activation)   (None, 128)               0         
_________________________________________________________________
dropout_24 (Dropout)         (None, 128)               0         
_________________________________________________________________
dense_29 (Dense)             (None, 128)               16512     
_________________________________________________________________
batch_normalization_25 (Batc (None, 128)               512       
_________________________________________________________________
activation_29 (Activation)   (None, 128)               0         
_________________________________________________________________
dropout_25 (Dropout)         (None, 128)               0         
_________________________________________________________________
dense_30 (Dense)             (None, 2)                 258       
_________________________________________________________________
activation_30 (Activation)   (None, 2)                 0         
=================================================================
Total params: 71,682
Trainable params: 70,402
Non-trainable params: 1,280
_________________________________________________________________
---sig_test---
<self.testtree_sig> OutTree/sig
/data6/Users/jhchoi/TMVA/TMVA_TOOL/inputs/EEMu_MuMuE_Method/v2405.4/2018/EEMu_MuMuE_Method_DYJetsToEE_MiNNLO.root
/data6/Users/jhchoi/TMVA/TMVA_TOOL/inputs/EEMu_MuMuE_Method/v2405.4/2018/EEMu_MuMuE_Method_DYJetsToMuMu_MiNNLO.root
…
--SKIP FOLLOWING VARS
['bmuon_normchi2', 'bmuon_ntracklayers', 'bmuon_ntrackhits', 'bmuon_nmatchedstations', 'bmuon_nvalidmuonhits', 'bmuon_nsip3d']
sigcut-> (bmuon_charge*bjet_partonFlavour < 0)&&Has_bMuon
bkgcut-> (bmuon_charge*bjet_partonFlavour > 0)&&Has_bMuon
<sig cut>= (bmuon_charge*bjet_partonFlavour < 0)&&Has_bMuon
<bkg cut>= (bmuon_charge*bjet_partonFlavour > 0)&&Has_bMuon
_________________________________________________________________
Layer (type)                 Output Shape              Param #   
=================================================================
dense_31 (Dense)             (None, 128)               2688      
_________________________________________________________________
batch_normalization_26 (Batc (None, 128)               512       
_________________________________________________________________
activation_31 (Activation)   (None, 128)               0         
_________________________________________________________________
dropout_26 (Dropout)         (None, 128)               0         
_________________________________________________________________
dense_32 (Dense)             (None, 128)               16512     
_________________________________________________________________
batch_normalization_27 (Batc (None, 128)               512       
_________________________________________________________________
activation_32 (Activation)   (None, 128)               0         
_________________________________________________________________
dropout_27 (Dropout)         (None, 128)               0         
_________________________________________________________________
dense_33 (Dense)             (None, 128)               16512     
_________________________________________________________________
batch_normalization_28 (Batc (None, 128)               512       
_________________________________________________________________
activation_33 (Activation)   (None, 128)               0         
_________________________________________________________________
dropout_28 (Dropout)         (None, 128)               0         
_________________________________________________________________
dense_34 (Dense)             (None, 128)               16512     
_________________________________________________________________
batch_normalization_29 (Batc (None, 128)               512       
_________________________________________________________________
activation_34 (Activation)   (None, 128)               0         
_________________________________________________________________
dropout_29 (Dropout)         (None, 128)               0         
_________________________________________________________________
dense_35 (Dense)             (None, 128)               16512     
_________________________________________________________________
batch_normalization_30 (Batc (None, 128)               512       
_________________________________________________________________
activation_35 (Activation)   (None, 128)               0         
_________________________________________________________________
dropout_30 (Dropout)         (None, 128)               0         
_________________________________________________________________
dense_36 (Dense)             (None, 2)                 258       
_________________________________________________________________
activation_36 (Activation)   (None, 2)                 0         
=================================================================
Total params: 71,554
Trainable params: 70,274
Non-trainable params: 1,280
_________________________________________________________________
---sig_test---
<self.testtree_sig> OutTree/sig
/data6/Users/jhchoi/TMVA/TMVA_TOOL/inputs/EEMu_MuMuE_Method/v2405.4/2018/EEMu_MuMuE_Method_DYJetsToEE_MiNNLO.root
/data6/Users/jhchoi/TMVA/TMVA_TOOL/inputs/EEMu_MuMuE_Method/v2405.4/2018/EEMu_MuMuE_Method_DYJetsToMuMu_MiNNLO.root
…
['bmuon_normchi2', 'bmuon_ntracklayers', 'bmuon_ntrackhits', 'bmuon_nmatchedstations', 'bmuon_nvalidmuonhits', 'bmuon_reltrkiso', 'bmuon_reliso']
sigcut-> (bmuon_charge*bjet_partonFlavour < 0)&&Has_bMuon
bkgcut-> (bmuon_charge*bjet_partonFlavour > 0)&&Has_bMuon
<sig cut>= (bmuon_charge*bjet_partonFlavour < 0)&&Has_bMuon
<bkg cut>= (bmuon_charge*bjet_partonFlavour > 0)&&Has_bMuon
_________________________________________________________________
Layer (type)                 Output Shape              Param #   
=================================================================
dense_55 (Dense)             (None, 128)               2560      
_________________________________________________________________
batch_normalization_46 (Batc (None, 128)               512       
_________________________________________________________________
activation_55 (Activation)   (None, 128)               0         
_________________________________________________________________
dropout_46 (Dropout)         (None, 128)               0         
_________________________________________________________________
dense_56 (Dense)             (None, 128)               16512     
_________________________________________________________________
batch_normalization_47 (Batc (None, 128)               512       
_________________________________________________________________
activation_56 (Activation)   (None, 128)               0         
_________________________________________________________________
dropout_47 (Dropout)         (None, 128)               0         
_________________________________________________________________
dense_57 (Dense)             (None, 128)               16512     
_________________________________________________________________
batch_normalization_48 (Batc (None, 128)               512       
_________________________________________________________________
activation_57 (Activation)   (None, 128)               0         
_________________________________________________________________
dropout_48 (Dropout)         (None, 128)               0         
_________________________________________________________________
dense_58 (Dense)             (None, 128)               16512     
_________________________________________________________________
batch_normalization_49 (Batc (None, 128)               512       
_________________________________________________________________
activation_58 (Activation)   (None, 128)               0         
_________________________________________________________________
dropout_49 (Dropout)         (None, 128)               0         
_________________________________________________________________
dense_59 (Dense)             (None, 128)               16512     
_________________________________________________________________
batch_normalization_50 (Batc (None, 128)               512       
_________________________________________________________________
activation_59 (Activation)   (None, 128)               0         
_________________________________________________________________
dropout_50 (Dropout)         (None, 128)               0         
_________________________________________________________________
dense_60 (Dense)             (None, 2)                 258       
_________________________________________________________________
activation_60 (Activation)   (None, 2)                 0         
=================================================================
Total params: 71,426
Trainable params: 70,146
Non-trainable params: 1,280
_________________________________________________________________
---sig_test---
<self.testtree_sig> OutTree/sig
/data6/Users/jhchoi/TMVA/TMVA_TOOL/inputs/EEMu_MuMuE_Method/v2405.4/2018/EEMu_MuMuE_Method_DYJetsToEE_MiNNLO.root
/data6/Users/jhchoi/TMVA/TMVA_TOOL/inputs/EEMu_MuMuE_Method/v2405.4/2018/EEMu_MuMuE_Method_DYJetsToMuMu_MiNNLO.root
…
['bmuon_normchi2', 'bmuon_ntracklayers', 'bmuon_ntrackhits', 'bmuon_nmatchedstations', 'bmuon_nvalidmuonhits', 'bmuon_reltrkiso', 'bmuon_reliso', 'bmuon_aeta']
sigcut-> (bmuon_charge*bjet_partonFlavour < 0)&&Has_bMuon
bkgcut-> (bmuon_charge*bjet_partonFlavour > 0)&&Has_bMuon
<sig cut>= (bmuon_charge*bjet_partonFlavour < 0)&&Has_bMuon
<bkg cut>= (bmuon_charge*bjet_partonFlavour > 0)&&Has_bMuon
_________________________________________________________________
Layer (type)                 Output Shape              Param #   
=================================================================
dense_61 (Dense)             (None, 128)               2432      
_________________________________________________________________
batch_normalization_51 (Batc (None, 128)               512       
_________________________________________________________________
activation_61 (Activation)   (None, 128)               0         
_________________________________________________________________
dropout_51 (Dropout)         (None, 128)               0         
_________________________________________________________________
dense_62 (Dense)             (None, 128)               16512     
_________________________________________________________________
batch_normalization_52 (Batc (None, 128)               512       
_________________________________________________________________
activation_62 (Activation)   (None, 128)               0         
_________________________________________________________________
dropout_52 (Dropout)         (None, 128)               0         
_________________________________________________________________
dense_63 (Dense)             (None, 128)               16512     
_________________________________________________________________
batch_normalization_53 (Batc (None, 128)               512       
_________________________________________________________________
activation_63 (Activation)   (None, 128)               0         
_________________________________________________________________
dropout_53 (Dropout)         (None, 128)               0         
_________________________________________________________________
dense_64 (Dense)             (None, 128)               16512     
_________________________________________________________________
batch_normalization_54 (Batc (None, 128)               512       
_________________________________________________________________
activation_64 (Activation)   (None, 128)               0         
_________________________________________________________________
dropout_54 (Dropout)         (None, 128)               0         
_________________________________________________________________
dense_65 (Dense)             (None, 128)               16512     
_________________________________________________________________
batch_normalization_55 (Batc (None, 128)               512       
_________________________________________________________________
activation_65 (Activation)   (None, 128)               0         
_________________________________________________________________
dropout_55 (Dropout)         (None, 128)               0         
_________________________________________________________________
dense_66 (Dense)             (None, 2)                 258       
_________________________________________________________________
activation_66 (Activation)   (None, 2)                 0         
=================================================================
Total params: 71,298
Trainable params: 70,018
Non-trainable params: 1,280
_________________________________________________________________
---sig_test---
<self.testtree_sig> OutTree/sig
/data6/Users/jhchoi/TMVA/TMVA_TOOL/inputs/EEMu_MuMuE_Method/v2405.4/2018/EEMu_MuMuE_Method_DYJetsToEE_MiNNLO.root
/data6/Users/jhchoi/TMVA/TMVA_TOOL/inputs/EEMu_MuMuE_Method/v2405.4/2018/EEMu_MuMuE_Method_DYJetsToMuMu_MiNNLO.root
…
['bmuon_normchi2', 'bmuon_ntracklayers', 'bmuon_ntrackhits', 'bmuon_nmatchedstations', 'bmuon_nvalidmuonhits', 'bmuon_reltrkiso', 'bmuon_reliso', 'bmuon_aeta', 'bmuon_pt']
sigcut-> (bmuon_charge*bjet_partonFlavour < 0)&&Has_bMuon
bkgcut-> (bmuon_charge*bjet_partonFlavour > 0)&&Has_bMuon
<sig cut>= (bmuon_charge*bjet_partonFlavour < 0)&&Has_bMuon
<bkg cut>= (bmuon_charge*bjet_partonFlavour > 0)&&Has_bMuon
_________________________________________________________________
Layer (type)                 Output Shape              Param #   
=================================================================
dense_67 (Dense)             (None, 128)               2304      
_________________________________________________________________
batch_normalization_56 (Batc (None, 128)               512       
_________________________________________________________________
activation_67 (Activation)   (None, 128)               0         
_________________________________________________________________
dropout_56 (Dropout)         (None, 128)               0         
_________________________________________________________________
dense_68 (Dense)             (None, 128)               16512     
_________________________________________________________________
batch_normalization_57 (Batc (None, 128)               512       
_________________________________________________________________
activation_68 (Activation)   (None, 128)               0         
_________________________________________________________________
dropout_57 (Dropout)         (None, 128)               0         
_________________________________________________________________
dense_69 (Dense)             (None, 128)               16512     
_________________________________________________________________
batch_normalization_58 (Batc (None, 128)               512       
_________________________________________________________________
activation_69 (Activation)   (None, 128)               0         
_________________________________________________________________
dropout_58 (Dropout)         (None, 128)               0         
_________________________________________________________________
dense_70 (Dense)             (None, 128)               16512     
_________________________________________________________________
batch_normalization_59 (Batc (None, 128)               512       
_________________________________________________________________
activation_70 (Activation)   (None, 128)               0         
_________________________________________________________________
dropout_59 (Dropout)         (None, 128)               0         
_________________________________________________________________
dense_71 (Dense)             (None, 128)               16512     
_________________________________________________________________
batch_normalization_60 (Batc (None, 128)               512       
_________________________________________________________________
activation_71 (Activation)   (None, 128)               0         
_________________________________________________________________
dropout_60 (Dropout)         (None, 128)               0         
_________________________________________________________________
dense_72 (Dense)             (None, 2)                 258       
_________________________________________________________________
activation_72 (Activation)   (None, 2)                 0         
=================================================================
Total params: 71,170
Trainable params: 69,890
Non-trainable params: 1,280
_________________________________________________________________
---sig_test---
<self.testtree_sig> OutTree/sig
/data6/Users/jhchoi/TMVA/TMVA_TOOL/inputs/EEMu_MuMuE_Method/v2405.4/2018/EEMu_MuMuE_Method_DYJetsToEE_MiNNLO.root
/data6/Users/jhchoi/TMVA/TMVA_TOOL/inputs/EEMu_MuMuE_Method/v2405.4/2018/EEMu_MuMuE_Method_DYJetsToMuMu_MiNNLO.root
…
['bmuon_normchi2', 'bmuon_ntracklayers', 'bmuon_ntrackhits', 'bmuon_nmatchedstations', 'bmuon_nvalidmuonhits', 'bmuon_reltrkiso', 'bmuon_reliso', 'bmuon_aeta', 'bmuon_pt', 'bmuon_dR_l_j']
sigcut-> (bmuon_charge*bjet_partonFlavour < 0)&&Has_bMuon
bkgcut-> (bmuon_charge*bjet_partonFlavour > 0)&&Has_bMuon
<sig cut>= (bmuon_charge*bjet_partonFlavour < 0)&&Has_bMuon
<bkg cut>= (bmuon_charge*bjet_partonFlavour > 0)&&Has_bMuon
_________________________________________________________________
Layer (type)                 Output Shape              Param #   
=================================================================
dense_73 (Dense)             (None, 128)               2176      
_________________________________________________________________
batch_normalization_61 (Batc (None, 128)               512       
_________________________________________________________________
activation_73 (Activation)   (None, 128)               0         
_________________________________________________________________
dropout_61 (Dropout)         (None, 128)               0         
_________________________________________________________________
dense_74 (Dense)             (None, 128)               16512     
_________________________________________________________________
batch_normalization_62 (Batc (None, 128)               512       
_________________________________________________________________
activation_74 (Activation)   (None, 128)               0         
_________________________________________________________________
dropout_62 (Dropout)         (None, 128)               0         
_________________________________________________________________
dense_75 (Dense)             (None, 128)               16512     
_________________________________________________________________
batch_normalization_63 (Batc (None, 128)               512       
_________________________________________________________________
activation_75 (Activation)   (None, 128)               0         
_________________________________________________________________
dropout_63 (Dropout)         (None, 128)               0         
_________________________________________________________________
dense_76 (Dense)             (None, 128)               16512     
_________________________________________________________________
batch_normalization_64 (Batc (None, 128)               512       
_________________________________________________________________
activation_76 (Activation)   (None, 128)               0         
_________________________________________________________________
dropout_64 (Dropout)         (None, 128)               0         
_________________________________________________________________
dense_77 (Dense)             (None, 128)               16512     
_________________________________________________________________
batch_normalization_65 (Batc (None, 128)               512       
_________________________________________________________________
activation_77 (Activation)   (None, 128)               0         
_________________________________________________________________
dropout_65 (Dropout)         (None, 128)               0         
_________________________________________________________________
dense_78 (Dense)             (None, 2)                 258       
_________________________________________________________________
activation_78 (Activation)   (None, 2)                 0         
=================================================================
Total params: 71,042
Trainable params: 69,762
Non-trainable params: 1,280
_________________________________________________________________
---sig_test---
<self.testtree_sig> OutTree/sig
/data6/Users/jhchoi/TMVA/TMVA_TOOL/inputs/EEMu_MuMuE_Method/v2405.4/2018/EEMu_MuMuE_Method_DYJetsToEE_MiNNLO.root
/data6/Users/jhchoi/TMVA/TMVA_TOOL/inputs/EEMu_MuMuE_Method/v2405.4/2018/EEMu_MuMuE_Method_DYJetsToMuMu_MiNNLO.root
…
['bmuon_normchi2', 'bmuon_ntracklayers', 'bmuon_ntrackhits', 'bmuon_nmatchedstations', 'bmuon_nvalidmuonhits', 'bmuon_reltrkiso', 'bmuon_reliso', 'bmuon_aeta', 'bmuon_pt', 'bmuon_dR_l_j', 'bmuon_palongjet']
sigcut-> (bmuon_charge*bjet_partonFlavour < 0)&&Has_bMuon
bkgcut-> (bmuon_charge*bjet_partonFlavour > 0)&&Has_bMuon
<sig cut>= (bmuon_charge*bjet_partonFlavour < 0)&&Has_bMuon
<bkg cut>= (bmuon_charge*bjet_partonFlavour > 0)&&Has_bMuon
_________________________________________________________________
Layer (type)                 Output Shape              Param #   
=================================================================
dense_79 (Dense)             (None, 128)               2048      
_________________________________________________________________
batch_normalization_66 (Batc (None, 128)               512       
_________________________________________________________________
activation_79 (Activation)   (None, 128)               0         
_________________________________________________________________
dropout_66 (Dropout)         (None, 128)               0         
_________________________________________________________________
dense_80 (Dense)             (None, 128)               16512     
_________________________________________________________________
batch_normalization_67 (Batc (None, 128)               512       
_________________________________________________________________
activation_80 (Activation)   (None, 128)               0         
_________________________________________________________________
dropout_67 (Dropout)         (None, 128)               0         
_________________________________________________________________
dense_81 (Dense)             (None, 128)               16512     
_________________________________________________________________
batch_normalization_68 (Batc (None, 128)               512       
_________________________________________________________________
activation_81 (Activation)   (None, 128)               0         
_________________________________________________________________
dropout_68 (Dropout)         (None, 128)               0         
_________________________________________________________________
dense_82 (Dense)             (None, 128)               16512     
_________________________________________________________________
batch_normalization_69 (Batc (None, 128)               512       
_________________________________________________________________
activation_82 (Activation)   (None, 128)               0         
_________________________________________________________________
dropout_69 (Dropout)         (None, 128)               0         
_________________________________________________________________
dense_83 (Dense)             (None, 128)               16512     
_________________________________________________________________
batch_normalization_70 (Batc (None, 128)               512       
_________________________________________________________________
activation_83 (Activation)   (None, 128)               0         
_________________________________________________________________
dropout_70 (Dropout)         (None, 128)               0         
_________________________________________________________________
dense_84 (Dense)             (None, 2)                 258       
_________________________________________________________________
activation_84 (Activation)   (None, 2)                 0         
=================================================================
Total params: 70,914
Trainable params: 69,634
Non-trainable params: 1,280
_________________________________________________________________
---sig_test---
<self.testtree_sig> OutTree/sig
/data6/Users/jhchoi/TMVA/TMVA_TOOL/inputs/EEMu_MuMuE_Method/v2405.4/2018/EEMu_MuMuE_Method_DYJetsToEE_MiNNLO.root
/data6/Users/jhchoi/TMVA/TMVA_TOOL/inputs/EEMu_MuMuE_Method/v2405.4/2018/EEMu_MuMuE_Method_DYJetsToMuMu_MiNNLO.root
…
['bmuon_normchi2', 'bmuon_ntracklayers', 'bmuon_ntrackhits', 'bmuon_nmatchedstations', 'bmuon_nvalidmuonhits', 'bmuon_reltrkiso', 'bmuon_reliso', 'bmuon_aeta', 'bmuon_pt', 'bmuon_dR_l_j', 'bmuon_palongjet', 'bmuon_palongjetratio']
sigcut-> (bmuon_charge*bjet_partonFlavour < 0)&&Has_bMuon
bkgcut-> (bmuon_charge*bjet_partonFlavour > 0)&&Has_bMuon
<sig cut>= (bmuon_charge*bjet_partonFlavour < 0)&&Has_bMuon
<bkg cut>= (bmuon_charge*bjet_partonFlavour > 0)&&Has_bMuon
_________________________________________________________________
Layer (type)                 Output Shape              Param #   
=================================================================
dense_85 (Dense)             (None, 128)               1920      
_________________________________________________________________
batch_normalization_71 (Batc (None, 128)               512       
_________________________________________________________________
activation_85 (Activation)   (None, 128)               0         
_________________________________________________________________
dropout_71 (Dropout)         (None, 128)               0         
_________________________________________________________________
dense_86 (Dense)             (None, 128)               16512     
_________________________________________________________________
batch_normalization_72 (Batc (None, 128)               512       
_________________________________________________________________
activation_86 (Activation)   (None, 128)               0         
_________________________________________________________________
dropout_72 (Dropout)         (None, 128)               0         
_________________________________________________________________
dense_87 (Dense)             (None, 128)               16512     
_________________________________________________________________
batch_normalization_73 (Batc (None, 128)               512       
_________________________________________________________________
activation_87 (Activation)   (None, 128)               0         
_________________________________________________________________
dropout_73 (Dropout)         (None, 128)               0         
_________________________________________________________________
dense_88 (Dense)             (None, 128)               16512     
_________________________________________________________________
batch_normalization_74 (Batc (None, 128)               512       
_________________________________________________________________
activation_88 (Activation)   (None, 128)               0         
_________________________________________________________________
dropout_74 (Dropout)         (None, 128)               0         
_________________________________________________________________
dense_89 (Dense)             (None, 128)               16512     
_________________________________________________________________
batch_normalization_75 (Batc (None, 128)               512       
_________________________________________________________________
activation_89 (Activation)   (None, 128)               0         
_________________________________________________________________
dropout_75 (Dropout)         (None, 128)               0         
_________________________________________________________________
dense_90 (Dense)             (None, 2)                 258       
_________________________________________________________________
activation_90 (Activation)   (None, 2)                 0         
=================================================================
Total params: 70,786
Trainable params: 69,506
Non-trainable params: 1,280
_________________________________________________________________
---sig_test---
<self.testtree_sig> OutTree/sig
/data6/Users/jhchoi/TMVA/TMVA_TOOL/inputs/EEMu_MuMuE_Method/v2405.4/2018/EEMu_MuMuE_Method_DYJetsToEE_MiNNLO.root
/data6/Users/jhchoi/TMVA/TMVA_TOOL/inputs/EEMu_MuMuE_Method/v2405.4/2018/EEMu_MuMuE_Method_DYJetsToMuMu_MiNNLO.root
…
['bmuon_normchi2', 'bmuon_ntracklayers', 'bmuon_ntrackhits', 'bmuon_nmatchedstations', 'bmuon_nvalidmuonhits', 'bmuon_reltrkiso', 'bmuon_reliso', 'bmuon_aeta', 'bmuon_pt', 'bmuon_dR_l_j', 'bmuon_palongjet', 'bmuon_palongjetratio', 'bmuon_ptwrtbjet']
sigcut-> (bmuon_charge*bjet_partonFlavour < 0)&&Has_bMuon
bkgcut-> (bmuon_charge*bjet_partonFlavour > 0)&&Has_bMuon
<sig cut>= (bmuon_charge*bjet_partonFlavour < 0)&&Has_bMuon
<bkg cut>= (bmuon_charge*bjet_partonFlavour > 0)&&Has_bMuon
_________________________________________________________________
Layer (type)                 Output Shape              Param #   
=================================================================
dense_91 (Dense)             (None, 128)               1792      
_________________________________________________________________
batch_normalization_76 (Batc (None, 128)               512       
_________________________________________________________________
activation_91 (Activation)   (None, 128)               0         
_________________________________________________________________
dropout_76 (Dropout)         (None, 128)               0         
_________________________________________________________________
dense_92 (Dense)             (None, 128)               16512     
_________________________________________________________________
batch_normalization_77 (Batc (None, 128)               512       
_________________________________________________________________
activation_92 (Activation)   (None, 128)               0         
_________________________________________________________________
dropout_77 (Dropout)         (None, 128)               0         
_________________________________________________________________
dense_93 (Dense)             (None, 128)               16512     
_________________________________________________________________
batch_normalization_78 (Batc (None, 128)               512       
_________________________________________________________________
activation_93 (Activation)   (None, 128)               0         
_________________________________________________________________
dropout_78 (Dropout)         (None, 128)               0         
_________________________________________________________________
dense_94 (Dense)             (None, 128)               16512     
_________________________________________________________________
batch_normalization_79 (Batc (None, 128)               512       
_________________________________________________________________
activation_94 (Activation)   (None, 128)               0         
_________________________________________________________________
dropout_79 (Dropout)         (None, 128)               0         
_________________________________________________________________
dense_95 (Dense)             (None, 128)               16512     
_________________________________________________________________
batch_normalization_80 (Batc (None, 128)               512       
_________________________________________________________________
activation_95 (Activation)   (None, 128)               0         
_________________________________________________________________
dropout_80 (Dropout)         (None, 128)               0         
_________________________________________________________________
dense_96 (Dense)             (None, 2)                 258       
_________________________________________________________________
activation_96 (Activation)   (None, 2)                 0         
=================================================================
Total params: 70,658
Trainable params: 69,378
Non-trainable params: 1,280
_________________________________________________________________
---sig_test---
<self.testtree_sig> OutTree/sig
/data6/Users/jhchoi/TMVA/TMVA_TOOL/inputs/EEMu_MuMuE_Method/v2405.4/2018/EEMu_MuMuE_Method_DYJetsToEE_MiNNLO.root
/data6/Users/jhchoi/TMVA/TMVA_TOOL/inputs/EEMu_MuMuE_Method/v2405.4/2018/EEMu_MuMuE_Method_DYJetsToMuMu_MiNNLO.root
…
['bmuon_normchi2', 'bmuon_ntracklayers', 'bmuon_ntrackhits', 'bmuon_nmatchedstations', 'bmuon_nvalidmuonhits', 'bmuon_reltrkiso', 'bmuon_reliso', 'bmuon_aeta', 'bmuon_pt', 'bmuon_dR_l_j', 'bmuon_palongjet', 'bmuon_palongjetratio', 'bmuon_P_jetrest', 'bjet_charge*bmuon_charge']
sigcut-> (bmuon_charge*bjet_partonFlavour < 0)&&Has_bMuon
bkgcut-> (bmuon_charge*bjet_partonFlavour > 0)&&Has_bMuon
<sig cut>= (bmuon_charge*bjet_partonFlavour < 0)&&Has_bMuon
<bkg cut>= (bmuon_charge*bjet_partonFlavour > 0)&&Has_bMuon
_________________________________________________________________
Layer (type)                 Output Shape              Param #   
=================================================================
dense_115 (Dense)            (None, 128)               1664      
_________________________________________________________________
batch_normalization_96 (Batc (None, 128)               512       
_________________________________________________________________
activation_115 (Activation)  (None, 128)               0         
_________________________________________________________________
dropout_96 (Dropout)         (None, 128)               0         
_________________________________________________________________
dense_116 (Dense)            (None, 128)               16512     
_________________________________________________________________
batch_normalization_97 (Batc (None, 128)               512       
_________________________________________________________________
activation_116 (Activation)  (None, 128)               0         
_________________________________________________________________
dropout_97 (Dropout)         (None, 128)               0         
_________________________________________________________________
dense_117 (Dense)            (None, 128)               16512     
_________________________________________________________________
batch_normalization_98 (Batc (None, 128)               512       
_________________________________________________________________
activation_117 (Activation)  (None, 128)               0         
_________________________________________________________________
dropout_98 (Dropout)         (None, 128)               0         
_________________________________________________________________
dense_118 (Dense)            (None, 128)               16512     
_________________________________________________________________
batch_normalization_99 (Batc (None, 128)               512       
_________________________________________________________________
activation_118 (Activation)  (None, 128)               0         
_________________________________________________________________
dropout_99 (Dropout)         (None, 128)               0         
_________________________________________________________________
dense_119 (Dense)            (None, 128)               16512     
_________________________________________________________________
batch_normalization_100 (Bat (None, 128)               512       
_________________________________________________________________
activation_119 (Activation)  (None, 128)               0         
_________________________________________________________________
dropout_100 (Dropout)        (None, 128)               0         
_________________________________________________________________
dense_120 (Dense)            (None, 2)                 258       
_________________________________________________________________
activation_120 (Activation)  (None, 2)                 0         
=================================================================
Total params: 70,530
Trainable params: 69,250
Non-trainable params: 1,280
_________________________________________________________________
---sig_test---
<self.testtree_sig> OutTree/sig
/data6/Users/jhchoi/TMVA/TMVA_TOOL/inputs/EEMu_MuMuE_Method/v2405.4/2018/EEMu_MuMuE_Method_DYJetsToEE_MiNNLO.root
/data6/Users/jhchoi/TMVA/TMVA_TOOL/inputs/EEMu_MuMuE_Method/v2405.4/2018/EEMu_MuMuE_Method_DYJetsToMuMu_MiNNLO.root
…
['bmuon_normchi2', 'bmuon_ntracklayers', 'bmuon_ntrackhits', 'bmuon_nmatchedstations', 'bmuon_nvalidmuonhits', 'bmuon_reltrkiso', 'bmuon_reliso', 'bmuon_aeta', 'bmuon_pt', 'bmuon_dR_l_j', 'bmuon_palongjet', 'bmuon_palongjetratio', 'bmuon_P_jetrest', 'bjet_ChargedHadronEnergyFraction', 'bjet_NeutralHadronEnergyFraction']
sigcut-> (bmuon_charge*bjet_partonFlavour < 0)&&Has_bMuon
bkgcut-> (bmuon_charge*bjet_partonFlavour > 0)&&Has_bMuon
<sig cut>= (bmuon_charge*bjet_partonFlavour < 0)&&Has_bMuon
<bkg cut>= (bmuon_charge*bjet_partonFlavour > 0)&&Has_bMuon
_________________________________________________________________
Layer (type)                 Output Shape              Param #   
=================================================================
dense_151 (Dense)            (None, 128)               1536      
_________________________________________________________________
batch_normalization_126 (Bat (None, 128)               512       
_________________________________________________________________
activation_151 (Activation)  (None, 128)               0         
_________________________________________________________________
dropout_126 (Dropout)        (None, 128)               0         
_________________________________________________________________
dense_152 (Dense)            (None, 128)               16512     
_________________________________________________________________
batch_normalization_127 (Bat (None, 128)               512       
_________________________________________________________________
activation_152 (Activation)  (None, 128)               0         
_________________________________________________________________
dropout_127 (Dropout)        (None, 128)               0         
_________________________________________________________________
dense_153 (Dense)            (None, 128)               16512     
_________________________________________________________________
batch_normalization_128 (Bat (None, 128)               512       
_________________________________________________________________
activation_153 (Activation)  (None, 128)               0         
_________________________________________________________________
dropout_128 (Dropout)        (None, 128)               0         
_________________________________________________________________
dense_154 (Dense)            (None, 128)               16512     
_________________________________________________________________
batch_normalization_129 (Bat (None, 128)               512       
_________________________________________________________________
activation_154 (Activation)  (None, 128)               0         
_________________________________________________________________
dropout_129 (Dropout)        (None, 128)               0         
_________________________________________________________________
dense_155 (Dense)            (None, 128)               16512     
_________________________________________________________________
batch_normalization_130 (Bat (None, 128)               512       
_________________________________________________________________
activation_155 (Activation)  (None, 128)               0         
_________________________________________________________________
dropout_130 (Dropout)        (None, 128)               0         
_________________________________________________________________
dense_156 (Dense)            (None, 2)                 258       
_________________________________________________________________
activation_156 (Activation)  (None, 2)                 0         
=================================================================
Total params: 70,402
Trainable params: 69,122
Non-trainable params: 1,280
_________________________________________________________________
---sig_test---
<self.testtree_sig> OutTree/sig
/data6/Users/jhchoi/TMVA/TMVA_TOOL/inputs/EEMu_MuMuE_Method/v2405.4/2018/EEMu_MuMuE_Method_DYJetsToEE_MiNNLO.root
/data6/Users/jhchoi/TMVA/TMVA_TOOL/inputs/EEMu_MuMuE_Method/v2405.4/2018/EEMu_MuMuE_Method_DYJetsToMuMu_MiNNLO.root
…
['bmuon_normchi2', 'bmuon_ntracklayers', 'bmuon_ntrackhits', 'bmuon_nmatchedstations', 'bmuon_nvalidmuonhits', 'bmuon_reltrkiso', 'bmuon_reliso', 'bmuon_aeta', 'bmuon_pt', 'bmuon_dR_l_j', 'bmuon_palongjet', 'bmuon_palongjetratio', 'bmuon_P_jetrest', 'bjet_ChargedHadronEnergyFraction', 'bjet_NeutralMultiplicity', 'bjet_pt']
sigcut-> (bmuon_charge*bjet_partonFlavour < 0)&&Has_bMuon
bkgcut-> (bmuon_charge*bjet_partonFlavour > 0)&&Has_bMuon
<sig cut>= (bmuon_charge*bjet_partonFlavour < 0)&&Has_bMuon
<bkg cut>= (bmuon_charge*bjet_partonFlavour > 0)&&Has_bMuon
_________________________________________________________________
Layer (type)                 Output Shape              Param #   
=================================================================
dense_253 (Dense)            (None, 128)               1408      
_________________________________________________________________
batch_normalization_211 (Bat (None, 128)               512       
_________________________________________________________________
activation_253 (Activation)  (None, 128)               0         
_________________________________________________________________
dropout_211 (Dropout)        (None, 128)               0         
_________________________________________________________________
dense_254 (Dense)            (None, 128)               16512     
_________________________________________________________________
batch_normalization_212 (Bat (None, 128)               512       
_________________________________________________________________
activation_254 (Activation)  (None, 128)               0         
_________________________________________________________________
dropout_212 (Dropout)        (None, 128)               0         
_________________________________________________________________
dense_255 (Dense)            (None, 128)               16512     
_________________________________________________________________
batch_normalization_213 (Bat (None, 128)               512       
_________________________________________________________________
activation_255 (Activation)  (None, 128)               0         
_________________________________________________________________
dropout_213 (Dropout)        (None, 128)               0         
_________________________________________________________________
dense_256 (Dense)            (None, 128)               16512     
_________________________________________________________________
batch_normalization_214 (Bat (None, 128)               512       
_________________________________________________________________
activation_256 (Activation)  (None, 128)               0         
_________________________________________________________________
dropout_214 (Dropout)        (None, 128)               0         
_________________________________________________________________
dense_257 (Dense)            (None, 128)               16512     
_________________________________________________________________
batch_normalization_215 (Bat (None, 128)               512       
_________________________________________________________________
activation_257 (Activation)  (None, 128)               0         
_________________________________________________________________
dropout_215 (Dropout)        (None, 128)               0         
_________________________________________________________________
dense_258 (Dense)            (None, 2)                 258       
_________________________________________________________________
activation_258 (Activation)  (None, 2)                 0         
=================================================================
Total params: 70,274
Trainable params: 68,994
Non-trainable params: 1,280
_________________________________________________________________
---sig_test---
<self.testtree_sig> OutTree/sig
/data6/Users/jhchoi/TMVA/TMVA_TOOL/inputs/EEMu_MuMuE_Method/v2405.4/2018/EEMu_MuMuE_Method_DYJetsToEE_MiNNLO.root
/data6/Users/jhchoi/TMVA/TMVA_TOOL/inputs/EEMu_MuMuE_Method/v2405.4/2018/EEMu_MuMuE_Method_DYJetsToMuMu_MiNNLO.root
…
['bmuon_normchi2', 'bmuon_ntracklayers', 'bmuon_ntrackhits', 'bmuon_nmatchedstations', 'bmuon_nvalidmuonhits', 'bmuon_reltrkiso', 'bmuon_reliso', 'bmuon_aeta', 'bmuon_pt', 'bmuon_dR_l_j', 'bmuon_palongjet', 'bmuon_palongjetratio', 'bmuon_P_jetrest', 'bjet_ChargedHadronEnergyFraction', 'bjet_NeutralMultiplicity', 'bjet_aeta', 'fabs(bjet_charge)']
sigcut-> (bmuon_charge*bjet_partonFlavour < 0)&&Has_bMuon
bkgcut-> (bmuon_charge*bjet_partonFlavour > 0)&&Has_bMuon
<sig cut>= (bmuon_charge*bjet_partonFlavour < 0)&&Has_bMuon
<bkg cut>= (bmuon_charge*bjet_partonFlavour > 0)&&Has_bMuon
_________________________________________________________________
Layer (type)                 Output Shape              Param #   
=================================================================
dense_277 (Dense)            (None, 128)               1280      
_________________________________________________________________
batch_normalization_231 (Bat (None, 128)               512       
_________________________________________________________________
activation_277 (Activation)  (None, 128)               0         
_________________________________________________________________
dropout_231 (Dropout)        (None, 128)               0         
_________________________________________________________________
dense_278 (Dense)            (None, 128)               16512     
_________________________________________________________________
batch_normalization_232 (Bat (None, 128)               512       
_________________________________________________________________
activation_278 (Activation)  (None, 128)               0         
_________________________________________________________________
dropout_232 (Dropout)        (None, 128)               0         
_________________________________________________________________
dense_279 (Dense)            (None, 128)               16512     
_________________________________________________________________
batch_normalization_233 (Bat (None, 128)               512       
_________________________________________________________________
activation_279 (Activation)  (None, 128)               0         
_________________________________________________________________
dropout_233 (Dropout)        (None, 128)               0         
_________________________________________________________________
dense_280 (Dense)            (None, 128)               16512     
_________________________________________________________________
batch_normalization_234 (Bat (None, 128)               512       
_________________________________________________________________
activation_280 (Activation)  (None, 128)               0         
_________________________________________________________________
dropout_234 (Dropout)        (None, 128)               0         
_________________________________________________________________
dense_281 (Dense)            (None, 128)               16512     
_________________________________________________________________
batch_normalization_235 (Bat (None, 128)               512       
_________________________________________________________________
activation_281 (Activation)  (None, 128)               0         
_________________________________________________________________
dropout_235 (Dropout)        (None, 128)               0         
_________________________________________________________________
dense_282 (Dense)            (None, 2)                 258       
_________________________________________________________________
activation_282 (Activation)  (None, 2)                 0         
=================================================================
Total params: 70,146
Trainable params: 68,866
Non-trainable params: 1,280
_________________________________________________________________
---sig_test---
<self.testtree_sig> OutTree/sig
/data6/Users/jhchoi/TMVA/TMVA_TOOL/inputs/EEMu_MuMuE_Method/v2405.4/2018/EEMu_MuMuE_Method_DYJetsToEE_MiNNLO.root
/data6/Users/jhchoi/TMVA/TMVA_TOOL/inputs/EEMu_MuMuE_Method/v2405.4/2018/EEMu_MuMuE_Method_DYJetsToMuMu_MiNNLO.root
…
