…
======
TEST-> belectron_full5x5sigmaietaieta
--SKIP FOLLOWING VARS
['belectron_full5x5sigmaietaieta']
sigcut-> (belectron_charge*bjet_partonFlavour < 0)&&(Has_bElectron)
bkgcut-> (belectron_charge*bjet_partonFlavour > 0)&&(Has_bElectron)
<sig cut>= (belectron_charge*bjet_partonFlavour < 0)&&(Has_bElectron)
<bkg cut>= (belectron_charge*bjet_partonFlavour > 0)&&(Has_bElectron)
_________________________________________________________________
Layer (type)                 Output Shape              Param #   
=================================================================
dense_1 (Dense)              (None, 128)               3200      
_________________________________________________________________
batch_normalization_1 (Batch (None, 128)               512       
_________________________________________________________________
activation_1 (Activation)    (None, 128)               0         
_________________________________________________________________
dropout_1 (Dropout)          (None, 128)               0         
_________________________________________________________________
dense_2 (Dense)              (None, 128)               16512     
_________________________________________________________________
batch_normalization_2 (Batch (None, 128)               512       
_________________________________________________________________
activation_2 (Activation)    (None, 128)               0         
_________________________________________________________________
dropout_2 (Dropout)          (None, 128)               0         
_________________________________________________________________
dense_3 (Dense)              (None, 128)               16512     
_________________________________________________________________
batch_normalization_3 (Batch (None, 128)               512       
_________________________________________________________________
activation_3 (Activation)    (None, 128)               0         
_________________________________________________________________
dropout_3 (Dropout)          (None, 128)               0         
_________________________________________________________________
dense_4 (Dense)              (None, 128)               16512     
_________________________________________________________________
batch_normalization_4 (Batch (None, 128)               512       
_________________________________________________________________
activation_4 (Activation)    (None, 128)               0         
_________________________________________________________________
dropout_4 (Dropout)          (None, 128)               0         
_________________________________________________________________
dense_5 (Dense)              (None, 128)               16512     
_________________________________________________________________
batch_normalization_5 (Batch (None, 128)               512       
_________________________________________________________________
activation_5 (Activation)    (None, 128)               0         
_________________________________________________________________
dropout_5 (Dropout)          (None, 128)               0         
_________________________________________________________________
dense_6 (Dense)              (None, 2)                 258       
_________________________________________________________________
activation_6 (Activation)    (None, 2)                 0         
=================================================================
Total params: 72,066
Trainable params: 70,786
Non-trainable params: 1,280
_________________________________________________________________
---sig_test---
<self.testtree_sig> OutTree/sig
/data6/Users/jhchoi/TMVA/TMVA_TOOL/inputs/EEMu_MuMuE_Method/v2405.4/2018/EEMu_MuMuE_Method_DYJetsToEE_MiNNLO.root
/data6/Users/jhchoi/TMVA/TMVA_TOOL/inputs/EEMu_MuMuE_Method/v2405.4/2018/EEMu_MuMuE_Method_DYJetsToMuMu_MiNNLO.root
…
TEST-> fabs(belectron_detaseed)
--SKIP FOLLOWING VARS
['belectron_full5x5sigmaietaieta', 'fabs(belectron_detaseed)']
sigcut-> (belectron_charge*bjet_partonFlavour < 0)&&(Has_bElectron)
bkgcut-> (belectron_charge*bjet_partonFlavour > 0)&&(Has_bElectron)
<sig cut>= (belectron_charge*bjet_partonFlavour < 0)&&(Has_bElectron)
<bkg cut>= (belectron_charge*bjet_partonFlavour > 0)&&(Has_bElectron)
_________________________________________________________________
Layer (type)                 Output Shape              Param #   
=================================================================
dense_7 (Dense)              (None, 128)               3072      
_________________________________________________________________
batch_normalization_6 (Batch (None, 128)               512       
_________________________________________________________________
activation_7 (Activation)    (None, 128)               0         
_________________________________________________________________
dropout_6 (Dropout)          (None, 128)               0         
_________________________________________________________________
dense_8 (Dense)              (None, 128)               16512     
_________________________________________________________________
batch_normalization_7 (Batch (None, 128)               512       
_________________________________________________________________
activation_8 (Activation)    (None, 128)               0         
_________________________________________________________________
dropout_7 (Dropout)          (None, 128)               0         
_________________________________________________________________
dense_9 (Dense)              (None, 128)               16512     
_________________________________________________________________
batch_normalization_8 (Batch (None, 128)               512       
_________________________________________________________________
activation_9 (Activation)    (None, 128)               0         
_________________________________________________________________
dropout_8 (Dropout)          (None, 128)               0         
_________________________________________________________________
dense_10 (Dense)             (None, 128)               16512     
_________________________________________________________________
batch_normalization_9 (Batch (None, 128)               512       
_________________________________________________________________
activation_10 (Activation)   (None, 128)               0         
_________________________________________________________________
dropout_9 (Dropout)          (None, 128)               0         
_________________________________________________________________
dense_11 (Dense)             (None, 128)               16512     
_________________________________________________________________
batch_normalization_10 (Batc (None, 128)               512       
_________________________________________________________________
activation_11 (Activation)   (None, 128)               0         
_________________________________________________________________
dropout_10 (Dropout)         (None, 128)               0         
_________________________________________________________________
dense_12 (Dense)             (None, 2)                 258       
_________________________________________________________________
activation_12 (Activation)   (None, 2)                 0         
=================================================================
Total params: 71,938
Trainable params: 70,658
Non-trainable params: 1,280
_________________________________________________________________
---sig_test---
<self.testtree_sig> OutTree/sig
/data6/Users/jhchoi/TMVA/TMVA_TOOL/inputs/EEMu_MuMuE_Method/v2405.4/2018/EEMu_MuMuE_Method_DYJetsToEE_MiNNLO.root
/data6/Users/jhchoi/TMVA/TMVA_TOOL/inputs/EEMu_MuMuE_Method/v2405.4/2018/EEMu_MuMuE_Method_DYJetsToMuMu_MiNNLO.root
…
--SKIP FOLLOWING VARS
['belectron_full5x5sigmaietaieta', 'fabs(belectron_detaseed)', 'belectron_HoverE']
sigcut-> (belectron_charge*bjet_partonFlavour < 0)&&(Has_bElectron)
bkgcut-> (belectron_charge*bjet_partonFlavour > 0)&&(Has_bElectron)
<sig cut>= (belectron_charge*bjet_partonFlavour < 0)&&(Has_bElectron)
<bkg cut>= (belectron_charge*bjet_partonFlavour > 0)&&(Has_bElectron)
_________________________________________________________________
Layer (type)                 Output Shape              Param #   
=================================================================
dense_13 (Dense)             (None, 128)               2944      
_________________________________________________________________
batch_normalization_11 (Batc (None, 128)               512       
_________________________________________________________________
activation_13 (Activation)   (None, 128)               0         
_________________________________________________________________
dropout_11 (Dropout)         (None, 128)               0         
_________________________________________________________________
dense_14 (Dense)             (None, 128)               16512     
_________________________________________________________________
batch_normalization_12 (Batc (None, 128)               512       
_________________________________________________________________
activation_14 (Activation)   (None, 128)               0         
_________________________________________________________________
dropout_12 (Dropout)         (None, 128)               0         
_________________________________________________________________
dense_15 (Dense)             (None, 128)               16512     
_________________________________________________________________
batch_normalization_13 (Batc (None, 128)               512       
_________________________________________________________________
activation_15 (Activation)   (None, 128)               0         
_________________________________________________________________
dropout_13 (Dropout)         (None, 128)               0         
_________________________________________________________________
dense_16 (Dense)             (None, 128)               16512     
_________________________________________________________________
batch_normalization_14 (Batc (None, 128)               512       
_________________________________________________________________
activation_16 (Activation)   (None, 128)               0         
_________________________________________________________________
dropout_14 (Dropout)         (None, 128)               0         
_________________________________________________________________
dense_17 (Dense)             (None, 128)               16512     
_________________________________________________________________
batch_normalization_15 (Batc (None, 128)               512       
_________________________________________________________________
activation_17 (Activation)   (None, 128)               0         
_________________________________________________________________
dropout_15 (Dropout)         (None, 128)               0         
_________________________________________________________________
dense_18 (Dense)             (None, 2)                 258       
_________________________________________________________________
activation_18 (Activation)   (None, 2)                 0         
=================================================================
Total params: 71,810
Trainable params: 70,530
Non-trainable params: 1,280
_________________________________________________________________
---sig_test---
<self.testtree_sig> OutTree/sig
/data6/Users/jhchoi/TMVA/TMVA_TOOL/inputs/EEMu_MuMuE_Method/v2405.4/2018/EEMu_MuMuE_Method_DYJetsToEE_MiNNLO.root
/data6/Users/jhchoi/TMVA/TMVA_TOOL/inputs/EEMu_MuMuE_Method/v2405.4/2018/EEMu_MuMuE_Method_DYJetsToMuMu_MiNNLO.root
…
['belectron_full5x5sigmaietaieta', 'fabs(belectron_detaseed)', 'belectron_HoverE', 'belectron_InvEminusInvP']
sigcut-> (belectron_charge*bjet_partonFlavour < 0)&&(Has_bElectron)
bkgcut-> (belectron_charge*bjet_partonFlavour > 0)&&(Has_bElectron)
<sig cut>= (belectron_charge*bjet_partonFlavour < 0)&&(Has_bElectron)
<bkg cut>= (belectron_charge*bjet_partonFlavour > 0)&&(Has_bElectron)
_________________________________________________________________
Layer (type)                 Output Shape              Param #   
=================================================================
dense_19 (Dense)             (None, 128)               2816      
_________________________________________________________________
batch_normalization_16 (Batc (None, 128)               512       
_________________________________________________________________
activation_19 (Activation)   (None, 128)               0         
_________________________________________________________________
dropout_16 (Dropout)         (None, 128)               0         
_________________________________________________________________
dense_20 (Dense)             (None, 128)               16512     
_________________________________________________________________
batch_normalization_17 (Batc (None, 128)               512       
_________________________________________________________________
activation_20 (Activation)   (None, 128)               0         
_________________________________________________________________
dropout_17 (Dropout)         (None, 128)               0         
_________________________________________________________________
dense_21 (Dense)             (None, 128)               16512     
_________________________________________________________________
batch_normalization_18 (Batc (None, 128)               512       
_________________________________________________________________
activation_21 (Activation)   (None, 128)               0         
_________________________________________________________________
dropout_18 (Dropout)         (None, 128)               0         
_________________________________________________________________
dense_22 (Dense)             (None, 128)               16512     
_________________________________________________________________
batch_normalization_19 (Batc (None, 128)               512       
_________________________________________________________________
activation_22 (Activation)   (None, 128)               0         
_________________________________________________________________
dropout_19 (Dropout)         (None, 128)               0         
_________________________________________________________________
dense_23 (Dense)             (None, 128)               16512     
_________________________________________________________________
batch_normalization_20 (Batc (None, 128)               512       
_________________________________________________________________
activation_23 (Activation)   (None, 128)               0         
_________________________________________________________________
dropout_20 (Dropout)         (None, 128)               0         
_________________________________________________________________
dense_24 (Dense)             (None, 2)                 258       
_________________________________________________________________
activation_24 (Activation)   (None, 2)                 0         
=================================================================
Total params: 71,682
Trainable params: 70,402
Non-trainable params: 1,280
_________________________________________________________________
---sig_test---
<self.testtree_sig> OutTree/sig
/data6/Users/jhchoi/TMVA/TMVA_TOOL/inputs/EEMu_MuMuE_Method/v2405.4/2018/EEMu_MuMuE_Method_DYJetsToEE_MiNNLO.root
/data6/Users/jhchoi/TMVA/TMVA_TOOL/inputs/EEMu_MuMuE_Method/v2405.4/2018/EEMu_MuMuE_Method_DYJetsToMuMu_MiNNLO.root
…
['belectron_full5x5sigmaietaieta', 'fabs(belectron_detaseed)', 'belectron_HoverE', 'belectron_InvEminusInvP', 'belectron_nsip3d']
sigcut-> (belectron_charge*bjet_partonFlavour < 0)&&(Has_bElectron)
bkgcut-> (belectron_charge*bjet_partonFlavour > 0)&&(Has_bElectron)
<sig cut>= (belectron_charge*bjet_partonFlavour < 0)&&(Has_bElectron)
<bkg cut>= (belectron_charge*bjet_partonFlavour > 0)&&(Has_bElectron)
_________________________________________________________________
Layer (type)                 Output Shape              Param #   
=================================================================
dense_25 (Dense)             (None, 128)               2688      
_________________________________________________________________
batch_normalization_21 (Batc (None, 128)               512       
_________________________________________________________________
activation_25 (Activation)   (None, 128)               0         
_________________________________________________________________
dropout_21 (Dropout)         (None, 128)               0         
_________________________________________________________________
dense_26 (Dense)             (None, 128)               16512     
_________________________________________________________________
batch_normalization_22 (Batc (None, 128)               512       
_________________________________________________________________
activation_26 (Activation)   (None, 128)               0         
_________________________________________________________________
dropout_22 (Dropout)         (None, 128)               0         
_________________________________________________________________
dense_27 (Dense)             (None, 128)               16512     
_________________________________________________________________
batch_normalization_23 (Batc (None, 128)               512       
_________________________________________________________________
activation_27 (Activation)   (None, 128)               0         
_________________________________________________________________
dropout_23 (Dropout)         (None, 128)               0         
_________________________________________________________________
dense_28 (Dense)             (None, 128)               16512     
_________________________________________________________________
batch_normalization_24 (Batc (None, 128)               512       
_________________________________________________________________
activation_28 (Activation)   (None, 128)               0         
_________________________________________________________________
dropout_24 (Dropout)         (None, 128)               0         
_________________________________________________________________
dense_29 (Dense)             (None, 128)               16512     
_________________________________________________________________
batch_normalization_25 (Batc (None, 128)               512       
_________________________________________________________________
activation_29 (Activation)   (None, 128)               0         
_________________________________________________________________
dropout_25 (Dropout)         (None, 128)               0         
_________________________________________________________________
dense_30 (Dense)             (None, 2)                 258       
_________________________________________________________________
activation_30 (Activation)   (None, 2)                 0         
=================================================================
Total params: 71,554
Trainable params: 70,274
Non-trainable params: 1,280
_________________________________________________________________
---sig_test---
<self.testtree_sig> OutTree/sig
/data6/Users/jhchoi/TMVA/TMVA_TOOL/inputs/EEMu_MuMuE_Method/v2405.4/2018/EEMu_MuMuE_Method_DYJetsToEE_MiNNLO.root
/data6/Users/jhchoi/TMVA/TMVA_TOOL/inputs/EEMu_MuMuE_Method/v2405.4/2018/EEMu_MuMuE_Method_DYJetsToMuMu_MiNNLO.root
…
['belectron_full5x5sigmaietaieta', 'fabs(belectron_detaseed)', 'belectron_HoverE', 'belectron_InvEminusInvP', 'belectron_reltrkiso', 'belectron_reliso']
sigcut-> (belectron_charge*bjet_partonFlavour < 0)&&(Has_bElectron)
bkgcut-> (belectron_charge*bjet_partonFlavour > 0)&&(Has_bElectron)
<sig cut>= (belectron_charge*bjet_partonFlavour < 0)&&(Has_bElectron)
<bkg cut>= (belectron_charge*bjet_partonFlavour > 0)&&(Has_bElectron)
_________________________________________________________________
Layer (type)                 Output Shape              Param #   
=================================================================
dense_37 (Dense)             (None, 128)               2560      
_________________________________________________________________
batch_normalization_31 (Batc (None, 128)               512       
_________________________________________________________________
activation_37 (Activation)   (None, 128)               0         
_________________________________________________________________
dropout_31 (Dropout)         (None, 128)               0         
_________________________________________________________________
dense_38 (Dense)             (None, 128)               16512     
_________________________________________________________________
batch_normalization_32 (Batc (None, 128)               512       
_________________________________________________________________
activation_38 (Activation)   (None, 128)               0         
_________________________________________________________________
dropout_32 (Dropout)         (None, 128)               0         
_________________________________________________________________
dense_39 (Dense)             (None, 128)               16512     
_________________________________________________________________
batch_normalization_33 (Batc (None, 128)               512       
_________________________________________________________________
activation_39 (Activation)   (None, 128)               0         
_________________________________________________________________
dropout_33 (Dropout)         (None, 128)               0         
_________________________________________________________________
dense_40 (Dense)             (None, 128)               16512     
_________________________________________________________________
batch_normalization_34 (Batc (None, 128)               512       
_________________________________________________________________
activation_40 (Activation)   (None, 128)               0         
_________________________________________________________________
dropout_34 (Dropout)         (None, 128)               0         
_________________________________________________________________
dense_41 (Dense)             (None, 128)               16512     
_________________________________________________________________
batch_normalization_35 (Batc (None, 128)               512       
_________________________________________________________________
activation_41 (Activation)   (None, 128)               0         
_________________________________________________________________
dropout_35 (Dropout)         (None, 128)               0         
_________________________________________________________________
dense_42 (Dense)             (None, 2)                 258       
_________________________________________________________________
activation_42 (Activation)   (None, 2)                 0         
=================================================================
Total params: 71,426
Trainable params: 70,146
Non-trainable params: 1,280
_________________________________________________________________
---sig_test---
<self.testtree_sig> OutTree/sig
/data6/Users/jhchoi/TMVA/TMVA_TOOL/inputs/EEMu_MuMuE_Method/v2405.4/2018/EEMu_MuMuE_Method_DYJetsToEE_MiNNLO.root
/data6/Users/jhchoi/TMVA/TMVA_TOOL/inputs/EEMu_MuMuE_Method/v2405.4/2018/EEMu_MuMuE_Method_DYJetsToMuMu_MiNNLO.root
…
['belectron_full5x5sigmaietaieta', 'fabs(belectron_detaseed)', 'belectron_HoverE', 'belectron_InvEminusInvP', 'belectron_reltrkiso', 'belectron_reliso', 'belectron_aeta']
sigcut-> (belectron_charge*bjet_partonFlavour < 0)&&(Has_bElectron)
bkgcut-> (belectron_charge*bjet_partonFlavour > 0)&&(Has_bElectron)
<sig cut>= (belectron_charge*bjet_partonFlavour < 0)&&(Has_bElectron)
<bkg cut>= (belectron_charge*bjet_partonFlavour > 0)&&(Has_bElectron)
_________________________________________________________________
Layer (type)                 Output Shape              Param #   
=================================================================
dense_43 (Dense)             (None, 128)               2432      
_________________________________________________________________
batch_normalization_36 (Batc (None, 128)               512       
_________________________________________________________________
activation_43 (Activation)   (None, 128)               0         
_________________________________________________________________
dropout_36 (Dropout)         (None, 128)               0         
_________________________________________________________________
dense_44 (Dense)             (None, 128)               16512     
_________________________________________________________________
batch_normalization_37 (Batc (None, 128)               512       
_________________________________________________________________
activation_44 (Activation)   (None, 128)               0         
_________________________________________________________________
dropout_37 (Dropout)         (None, 128)               0         
_________________________________________________________________
dense_45 (Dense)             (None, 128)               16512     
_________________________________________________________________
batch_normalization_38 (Batc (None, 128)               512       
_________________________________________________________________
activation_45 (Activation)   (None, 128)               0         
_________________________________________________________________
dropout_38 (Dropout)         (None, 128)               0         
_________________________________________________________________
dense_46 (Dense)             (None, 128)               16512     
_________________________________________________________________
batch_normalization_39 (Batc (None, 128)               512       
_________________________________________________________________
activation_46 (Activation)   (None, 128)               0         
_________________________________________________________________
dropout_39 (Dropout)         (None, 128)               0         
_________________________________________________________________
dense_47 (Dense)             (None, 128)               16512     
_________________________________________________________________
batch_normalization_40 (Batc (None, 128)               512       
_________________________________________________________________
activation_47 (Activation)   (None, 128)               0         
_________________________________________________________________
dropout_40 (Dropout)         (None, 128)               0         
_________________________________________________________________
dense_48 (Dense)             (None, 2)                 258       
_________________________________________________________________
activation_48 (Activation)   (None, 2)                 0         
=================================================================
Total params: 71,298
Trainable params: 70,018
Non-trainable params: 1,280
_________________________________________________________________
---sig_test---
<self.testtree_sig> OutTree/sig
/data6/Users/jhchoi/TMVA/TMVA_TOOL/inputs/EEMu_MuMuE_Method/v2405.4/2018/EEMu_MuMuE_Method_DYJetsToEE_MiNNLO.root
/data6/Users/jhchoi/TMVA/TMVA_TOOL/inputs/EEMu_MuMuE_Method/v2405.4/2018/EEMu_MuMuE_Method_DYJetsToMuMu_MiNNLO.root
…
['belectron_full5x5sigmaietaieta', 'fabs(belectron_detaseed)', 'belectron_HoverE', 'belectron_InvEminusInvP', 'belectron_reltrkiso', 'belectron_reliso', 'belectron_aeta', 'belectron_pt']
sigcut-> (belectron_charge*bjet_partonFlavour < 0)&&(Has_bElectron)
bkgcut-> (belectron_charge*bjet_partonFlavour > 0)&&(Has_bElectron)
<sig cut>= (belectron_charge*bjet_partonFlavour < 0)&&(Has_bElectron)
<bkg cut>= (belectron_charge*bjet_partonFlavour > 0)&&(Has_bElectron)
_________________________________________________________________
Layer (type)                 Output Shape              Param #   
=================================================================
dense_49 (Dense)             (None, 128)               2304      
_________________________________________________________________
batch_normalization_41 (Batc (None, 128)               512       
_________________________________________________________________
activation_49 (Activation)   (None, 128)               0         
_________________________________________________________________
dropout_41 (Dropout)         (None, 128)               0         
_________________________________________________________________
dense_50 (Dense)             (None, 128)               16512     
_________________________________________________________________
batch_normalization_42 (Batc (None, 128)               512       
_________________________________________________________________
activation_50 (Activation)   (None, 128)               0         
_________________________________________________________________
dropout_42 (Dropout)         (None, 128)               0         
_________________________________________________________________
dense_51 (Dense)             (None, 128)               16512     
_________________________________________________________________
batch_normalization_43 (Batc (None, 128)               512       
_________________________________________________________________
activation_51 (Activation)   (None, 128)               0         
_________________________________________________________________
dropout_43 (Dropout)         (None, 128)               0         
_________________________________________________________________
dense_52 (Dense)             (None, 128)               16512     
_________________________________________________________________
batch_normalization_44 (Batc (None, 128)               512       
_________________________________________________________________
activation_52 (Activation)   (None, 128)               0         
_________________________________________________________________
dropout_44 (Dropout)         (None, 128)               0         
_________________________________________________________________
dense_53 (Dense)             (None, 128)               16512     
_________________________________________________________________
batch_normalization_45 (Batc (None, 128)               512       
_________________________________________________________________
activation_53 (Activation)   (None, 128)               0         
_________________________________________________________________
dropout_45 (Dropout)         (None, 128)               0         
_________________________________________________________________
dense_54 (Dense)             (None, 2)                 258       
_________________________________________________________________
activation_54 (Activation)   (None, 2)                 0         
=================================================================
Total params: 71,170
Trainable params: 69,890
Non-trainable params: 1,280
_________________________________________________________________
---sig_test---
<self.testtree_sig> OutTree/sig
/data6/Users/jhchoi/TMVA/TMVA_TOOL/inputs/EEMu_MuMuE_Method/v2405.4/2018/EEMu_MuMuE_Method_DYJetsToEE_MiNNLO.root
/data6/Users/jhchoi/TMVA/TMVA_TOOL/inputs/EEMu_MuMuE_Method/v2405.4/2018/EEMu_MuMuE_Method_DYJetsToMuMu_MiNNLO.root
…
['belectron_full5x5sigmaietaieta', 'fabs(belectron_detaseed)', 'belectron_HoverE', 'belectron_InvEminusInvP', 'belectron_reltrkiso', 'belectron_reliso', 'belectron_aeta', 'belectron_pt', 'belectron_dR_l_j']
sigcut-> (belectron_charge*bjet_partonFlavour < 0)&&(Has_bElectron)
bkgcut-> (belectron_charge*bjet_partonFlavour > 0)&&(Has_bElectron)
<sig cut>= (belectron_charge*bjet_partonFlavour < 0)&&(Has_bElectron)
<bkg cut>= (belectron_charge*bjet_partonFlavour > 0)&&(Has_bElectron)
_________________________________________________________________
Layer (type)                 Output Shape              Param #   
=================================================================
dense_55 (Dense)             (None, 128)               2176      
_________________________________________________________________
batch_normalization_46 (Batc (None, 128)               512       
_________________________________________________________________
activation_55 (Activation)   (None, 128)               0         
_________________________________________________________________
dropout_46 (Dropout)         (None, 128)               0         
_________________________________________________________________
dense_56 (Dense)             (None, 128)               16512     
_________________________________________________________________
batch_normalization_47 (Batc (None, 128)               512       
_________________________________________________________________
activation_56 (Activation)   (None, 128)               0         
_________________________________________________________________
dropout_47 (Dropout)         (None, 128)               0         
_________________________________________________________________
dense_57 (Dense)             (None, 128)               16512     
_________________________________________________________________
batch_normalization_48 (Batc (None, 128)               512       
_________________________________________________________________
activation_57 (Activation)   (None, 128)               0         
_________________________________________________________________
dropout_48 (Dropout)         (None, 128)               0         
_________________________________________________________________
dense_58 (Dense)             (None, 128)               16512     
_________________________________________________________________
batch_normalization_49 (Batc (None, 128)               512       
_________________________________________________________________
activation_58 (Activation)   (None, 128)               0         
_________________________________________________________________
dropout_49 (Dropout)         (None, 128)               0         
_________________________________________________________________
dense_59 (Dense)             (None, 128)               16512     
_________________________________________________________________
batch_normalization_50 (Batc (None, 128)               512       
_________________________________________________________________
activation_59 (Activation)   (None, 128)               0         
_________________________________________________________________
dropout_50 (Dropout)         (None, 128)               0         
_________________________________________________________________
dense_60 (Dense)             (None, 2)                 258       
_________________________________________________________________
activation_60 (Activation)   (None, 2)                 0         
=================================================================
Total params: 71,042
Trainable params: 69,762
Non-trainable params: 1,280
_________________________________________________________________
---sig_test---
<self.testtree_sig> OutTree/sig
/data6/Users/jhchoi/TMVA/TMVA_TOOL/inputs/EEMu_MuMuE_Method/v2405.4/2018/EEMu_MuMuE_Method_DYJetsToEE_MiNNLO.root
/data6/Users/jhchoi/TMVA/TMVA_TOOL/inputs/EEMu_MuMuE_Method/v2405.4/2018/EEMu_MuMuE_Method_DYJetsToMuMu_MiNNLO.root
…
['belectron_full5x5sigmaietaieta', 'fabs(belectron_detaseed)', 'belectron_HoverE', 'belectron_InvEminusInvP', 'belectron_reltrkiso', 'belectron_reliso', 'belectron_aeta', 'belectron_pt', 'belectron_dR_l_j', 'belectron_palongjet']
sigcut-> (belectron_charge*bjet_partonFlavour < 0)&&(Has_bElectron)
bkgcut-> (belectron_charge*bjet_partonFlavour > 0)&&(Has_bElectron)
<sig cut>= (belectron_charge*bjet_partonFlavour < 0)&&(Has_bElectron)
<bkg cut>= (belectron_charge*bjet_partonFlavour > 0)&&(Has_bElectron)
_________________________________________________________________
Layer (type)                 Output Shape              Param #   
=================================================================
dense_61 (Dense)             (None, 128)               2048      
_________________________________________________________________
batch_normalization_51 (Batc (None, 128)               512       
_________________________________________________________________
activation_61 (Activation)   (None, 128)               0         
_________________________________________________________________
dropout_51 (Dropout)         (None, 128)               0         
_________________________________________________________________
dense_62 (Dense)             (None, 128)               16512     
_________________________________________________________________
batch_normalization_52 (Batc (None, 128)               512       
_________________________________________________________________
activation_62 (Activation)   (None, 128)               0         
_________________________________________________________________
dropout_52 (Dropout)         (None, 128)               0         
_________________________________________________________________
dense_63 (Dense)             (None, 128)               16512     
_________________________________________________________________
batch_normalization_53 (Batc (None, 128)               512       
_________________________________________________________________
activation_63 (Activation)   (None, 128)               0         
_________________________________________________________________
dropout_53 (Dropout)         (None, 128)               0         
_________________________________________________________________
dense_64 (Dense)             (None, 128)               16512     
_________________________________________________________________
batch_normalization_54 (Batc (None, 128)               512       
_________________________________________________________________
activation_64 (Activation)   (None, 128)               0         
_________________________________________________________________
dropout_54 (Dropout)         (None, 128)               0         
_________________________________________________________________
dense_65 (Dense)             (None, 128)               16512     
_________________________________________________________________
batch_normalization_55 (Batc (None, 128)               512       
_________________________________________________________________
activation_65 (Activation)   (None, 128)               0         
_________________________________________________________________
dropout_55 (Dropout)         (None, 128)               0         
_________________________________________________________________
dense_66 (Dense)             (None, 2)                 258       
_________________________________________________________________
activation_66 (Activation)   (None, 2)                 0         
=================================================================
Total params: 70,914
Trainable params: 69,634
Non-trainable params: 1,280
_________________________________________________________________
---sig_test---
<self.testtree_sig> OutTree/sig
/data6/Users/jhchoi/TMVA/TMVA_TOOL/inputs/EEMu_MuMuE_Method/v2405.4/2018/EEMu_MuMuE_Method_DYJetsToEE_MiNNLO.root
/data6/Users/jhchoi/TMVA/TMVA_TOOL/inputs/EEMu_MuMuE_Method/v2405.4/2018/EEMu_MuMuE_Method_DYJetsToMuMu_MiNNLO.root
…
['belectron_full5x5sigmaietaieta', 'fabs(belectron_detaseed)', 'belectron_HoverE', 'belectron_InvEminusInvP', 'belectron_reltrkiso', 'belectron_reliso', 'belectron_aeta', 'belectron_pt', 'belectron_dR_l_j', 'belectron_palongjet', 'belectron_palongjetratio']
sigcut-> (belectron_charge*bjet_partonFlavour < 0)&&(Has_bElectron)
bkgcut-> (belectron_charge*bjet_partonFlavour > 0)&&(Has_bElectron)
<sig cut>= (belectron_charge*bjet_partonFlavour < 0)&&(Has_bElectron)
<bkg cut>= (belectron_charge*bjet_partonFlavour > 0)&&(Has_bElectron)
_________________________________________________________________
Layer (type)                 Output Shape              Param #   
=================================================================
dense_67 (Dense)             (None, 128)               1920      
_________________________________________________________________
batch_normalization_56 (Batc (None, 128)               512       
_________________________________________________________________
activation_67 (Activation)   (None, 128)               0         
_________________________________________________________________
dropout_56 (Dropout)         (None, 128)               0         
_________________________________________________________________
dense_68 (Dense)             (None, 128)               16512     
_________________________________________________________________
batch_normalization_57 (Batc (None, 128)               512       
_________________________________________________________________
activation_68 (Activation)   (None, 128)               0         
_________________________________________________________________
dropout_57 (Dropout)         (None, 128)               0         
_________________________________________________________________
dense_69 (Dense)             (None, 128)               16512     
_________________________________________________________________
batch_normalization_58 (Batc (None, 128)               512       
_________________________________________________________________
activation_69 (Activation)   (None, 128)               0         
_________________________________________________________________
dropout_58 (Dropout)         (None, 128)               0         
_________________________________________________________________
dense_70 (Dense)             (None, 128)               16512     
_________________________________________________________________
batch_normalization_59 (Batc (None, 128)               512       
_________________________________________________________________
activation_70 (Activation)   (None, 128)               0         
_________________________________________________________________
dropout_59 (Dropout)         (None, 128)               0         
_________________________________________________________________
dense_71 (Dense)             (None, 128)               16512     
_________________________________________________________________
batch_normalization_60 (Batc (None, 128)               512       
_________________________________________________________________
activation_71 (Activation)   (None, 128)               0         
_________________________________________________________________
dropout_60 (Dropout)         (None, 128)               0         
_________________________________________________________________
dense_72 (Dense)             (None, 2)                 258       
_________________________________________________________________
activation_72 (Activation)   (None, 2)                 0         
=================================================================
Total params: 70,786
Trainable params: 69,506
Non-trainable params: 1,280
_________________________________________________________________
---sig_test---
<self.testtree_sig> OutTree/sig
/data6/Users/jhchoi/TMVA/TMVA_TOOL/inputs/EEMu_MuMuE_Method/v2405.4/2018/EEMu_MuMuE_Method_DYJetsToEE_MiNNLO.root
/data6/Users/jhchoi/TMVA/TMVA_TOOL/inputs/EEMu_MuMuE_Method/v2405.4/2018/EEMu_MuMuE_Method_DYJetsToMuMu_MiNNLO.root
…
['belectron_full5x5sigmaietaieta', 'fabs(belectron_detaseed)', 'belectron_HoverE', 'belectron_InvEminusInvP', 'belectron_reltrkiso', 'belectron_reliso', 'belectron_aeta', 'belectron_pt', 'belectron_dR_l_j', 'belectron_palongjet', 'belectron_ptwrtbjet', 'belectron_P_jetrest']
sigcut-> (belectron_charge*bjet_partonFlavour < 0)&&(Has_bElectron)
bkgcut-> (belectron_charge*bjet_partonFlavour > 0)&&(Has_bElectron)
<sig cut>= (belectron_charge*bjet_partonFlavour < 0)&&(Has_bElectron)
<bkg cut>= (belectron_charge*bjet_partonFlavour > 0)&&(Has_bElectron)
_________________________________________________________________
Layer (type)                 Output Shape              Param #   
=================================================================
dense_79 (Dense)             (None, 128)               1792      
_________________________________________________________________
batch_normalization_66 (Batc (None, 128)               512       
_________________________________________________________________
activation_79 (Activation)   (None, 128)               0         
_________________________________________________________________
dropout_66 (Dropout)         (None, 128)               0         
_________________________________________________________________
dense_80 (Dense)             (None, 128)               16512     
_________________________________________________________________
batch_normalization_67 (Batc (None, 128)               512       
_________________________________________________________________
activation_80 (Activation)   (None, 128)               0         
_________________________________________________________________
dropout_67 (Dropout)         (None, 128)               0         
_________________________________________________________________
dense_81 (Dense)             (None, 128)               16512     
_________________________________________________________________
batch_normalization_68 (Batc (None, 128)               512       
_________________________________________________________________
activation_81 (Activation)   (None, 128)               0         
_________________________________________________________________
dropout_68 (Dropout)         (None, 128)               0         
_________________________________________________________________
dense_82 (Dense)             (None, 128)               16512     
_________________________________________________________________
batch_normalization_69 (Batc (None, 128)               512       
_________________________________________________________________
activation_82 (Activation)   (None, 128)               0         
_________________________________________________________________
dropout_69 (Dropout)         (None, 128)               0         
_________________________________________________________________
dense_83 (Dense)             (None, 128)               16512     
_________________________________________________________________
batch_normalization_70 (Batc (None, 128)               512       
_________________________________________________________________
activation_83 (Activation)   (None, 128)               0         
_________________________________________________________________
dropout_70 (Dropout)         (None, 128)               0         
_________________________________________________________________
dense_84 (Dense)             (None, 2)                 258       
_________________________________________________________________
activation_84 (Activation)   (None, 2)                 0         
=================================================================
Total params: 70,658
Trainable params: 69,378
Non-trainable params: 1,280
_________________________________________________________________
---sig_test---
<self.testtree_sig> OutTree/sig
/data6/Users/jhchoi/TMVA/TMVA_TOOL/inputs/EEMu_MuMuE_Method/v2405.4/2018/EEMu_MuMuE_Method_DYJetsToEE_MiNNLO.root
/data6/Users/jhchoi/TMVA/TMVA_TOOL/inputs/EEMu_MuMuE_Method/v2405.4/2018/EEMu_MuMuE_Method_DYJetsToMuMu_MiNNLO.root
…
['belectron_full5x5sigmaietaieta', 'fabs(belectron_detaseed)', 'belectron_HoverE', 'belectron_InvEminusInvP', 'belectron_reltrkiso', 'belectron_reliso', 'belectron_aeta', 'belectron_pt', 'belectron_dR_l_j', 'belectron_palongjet', 'belectron_ptwrtbjet', 'bjet_ChargedHadronEnergyFraction', 'bjet_NeutralHadronEnergyFraction']
sigcut-> (belectron_charge*bjet_partonFlavour < 0)&&(Has_bElectron)
bkgcut-> (belectron_charge*bjet_partonFlavour > 0)&&(Has_bElectron)
<sig cut>= (belectron_charge*bjet_partonFlavour < 0)&&(Has_bElectron)
<bkg cut>= (belectron_charge*bjet_partonFlavour > 0)&&(Has_bElectron)
_________________________________________________________________
Layer (type)                 Output Shape              Param #   
=================================================================
dense_97 (Dense)             (None, 128)               1664      
_________________________________________________________________
batch_normalization_81 (Batc (None, 128)               512       
_________________________________________________________________
activation_97 (Activation)   (None, 128)               0         
_________________________________________________________________
dropout_81 (Dropout)         (None, 128)               0         
_________________________________________________________________
dense_98 (Dense)             (None, 128)               16512     
_________________________________________________________________
batch_normalization_82 (Batc (None, 128)               512       
_________________________________________________________________
activation_98 (Activation)   (None, 128)               0         
_________________________________________________________________
dropout_82 (Dropout)         (None, 128)               0         
_________________________________________________________________
dense_99 (Dense)             (None, 128)               16512     
_________________________________________________________________
batch_normalization_83 (Batc (None, 128)               512       
_________________________________________________________________
activation_99 (Activation)   (None, 128)               0         
_________________________________________________________________
dropout_83 (Dropout)         (None, 128)               0         
_________________________________________________________________
dense_100 (Dense)            (None, 128)               16512     
_________________________________________________________________
batch_normalization_84 (Batc (None, 128)               512       
_________________________________________________________________
activation_100 (Activation)  (None, 128)               0         
_________________________________________________________________
dropout_84 (Dropout)         (None, 128)               0         
_________________________________________________________________
dense_101 (Dense)            (None, 128)               16512     
_________________________________________________________________
batch_normalization_85 (Batc (None, 128)               512       
_________________________________________________________________
activation_101 (Activation)  (None, 128)               0         
_________________________________________________________________
dropout_85 (Dropout)         (None, 128)               0         
_________________________________________________________________
dense_102 (Dense)            (None, 2)                 258       
_________________________________________________________________
activation_102 (Activation)  (None, 2)                 0         
=================================================================
Total params: 70,530
Trainable params: 69,250
Non-trainable params: 1,280
_________________________________________________________________
---sig_test---
<self.testtree_sig> OutTree/sig
/data6/Users/jhchoi/TMVA/TMVA_TOOL/inputs/EEMu_MuMuE_Method/v2405.4/2018/EEMu_MuMuE_Method_DYJetsToEE_MiNNLO.root
/data6/Users/jhchoi/TMVA/TMVA_TOOL/inputs/EEMu_MuMuE_Method/v2405.4/2018/EEMu_MuMuE_Method_DYJetsToMuMu_MiNNLO.root
…
['belectron_full5x5sigmaietaieta', 'fabs(belectron_detaseed)', 'belectron_HoverE', 'belectron_InvEminusInvP', 'belectron_reltrkiso', 'belectron_reliso', 'belectron_aeta', 'belectron_pt', 'belectron_dR_l_j', 'belectron_palongjet', 'belectron_ptwrtbjet', 'bjet_ChargedHadronEnergyFraction', 'bjet_NeutralHadronEnergyFraction', 'bjet_NeutralEmEnergyFraction']
sigcut-> (belectron_charge*bjet_partonFlavour < 0)&&(Has_bElectron)
bkgcut-> (belectron_charge*bjet_partonFlavour > 0)&&(Has_bElectron)
<sig cut>= (belectron_charge*bjet_partonFlavour < 0)&&(Has_bElectron)
<bkg cut>= (belectron_charge*bjet_partonFlavour > 0)&&(Has_bElectron)
_________________________________________________________________
Layer (type)                 Output Shape              Param #   
=================================================================
dense_103 (Dense)            (None, 128)               1536      
_________________________________________________________________
batch_normalization_86 (Batc (None, 128)               512       
_________________________________________________________________
activation_103 (Activation)  (None, 128)               0         
_________________________________________________________________
dropout_86 (Dropout)         (None, 128)               0         
_________________________________________________________________
dense_104 (Dense)            (None, 128)               16512     
_________________________________________________________________
batch_normalization_87 (Batc (None, 128)               512       
_________________________________________________________________
activation_104 (Activation)  (None, 128)               0         
_________________________________________________________________
dropout_87 (Dropout)         (None, 128)               0         
_________________________________________________________________
dense_105 (Dense)            (None, 128)               16512     
_________________________________________________________________
batch_normalization_88 (Batc (None, 128)               512       
_________________________________________________________________
activation_105 (Activation)  (None, 128)               0         
_________________________________________________________________
dropout_88 (Dropout)         (None, 128)               0         
_________________________________________________________________
dense_106 (Dense)            (None, 128)               16512     
_________________________________________________________________
batch_normalization_89 (Batc (None, 128)               512       
_________________________________________________________________
activation_106 (Activation)  (None, 128)               0         
_________________________________________________________________
dropout_89 (Dropout)         (None, 128)               0         
_________________________________________________________________
dense_107 (Dense)            (None, 128)               16512     
_________________________________________________________________
batch_normalization_90 (Batc (None, 128)               512       
_________________________________________________________________
activation_107 (Activation)  (None, 128)               0         
_________________________________________________________________
dropout_90 (Dropout)         (None, 128)               0         
_________________________________________________________________
dense_108 (Dense)            (None, 2)                 258       
_________________________________________________________________
activation_108 (Activation)  (None, 2)                 0         
=================================================================
Total params: 70,402
Trainable params: 69,122
Non-trainable params: 1,280
_________________________________________________________________
---sig_test---
<self.testtree_sig> OutTree/sig
/data6/Users/jhchoi/TMVA/TMVA_TOOL/inputs/EEMu_MuMuE_Method/v2405.4/2018/EEMu_MuMuE_Method_DYJetsToEE_MiNNLO.root
/data6/Users/jhchoi/TMVA/TMVA_TOOL/inputs/EEMu_MuMuE_Method/v2405.4/2018/EEMu_MuMuE_Method_DYJetsToMuMu_MiNNLO.root
…
['belectron_full5x5sigmaietaieta', 'fabs(belectron_detaseed)', 'belectron_HoverE', 'belectron_InvEminusInvP', 'belectron_reltrkiso', 'belectron_reliso', 'belectron_aeta', 'belectron_pt', 'belectron_dR_l_j', 'belectron_palongjet', 'belectron_ptwrtbjet', 'bjet_ChargedHadronEnergyFraction', 'bjet_NeutralHadronEnergyFraction', 'bjet_NeutralMultiplicity', 'bjet_pt']
sigcut-> (belectron_charge*bjet_partonFlavour < 0)&&(Has_bElectron)
bkgcut-> (belectron_charge*bjet_partonFlavour > 0)&&(Has_bElectron)
<sig cut>= (belectron_charge*bjet_partonFlavour < 0)&&(Has_bElectron)
<bkg cut>= (belectron_charge*bjet_partonFlavour > 0)&&(Has_bElectron)
_________________________________________________________________
Layer (type)                 Output Shape              Param #   
=================================================================
dense_133 (Dense)            (None, 128)               1408      
_________________________________________________________________
batch_normalization_111 (Bat (None, 128)               512       
_________________________________________________________________
activation_133 (Activation)  (None, 128)               0         
_________________________________________________________________
dropout_111 (Dropout)        (None, 128)               0         
_________________________________________________________________
dense_134 (Dense)            (None, 128)               16512     
_________________________________________________________________
batch_normalization_112 (Bat (None, 128)               512       
_________________________________________________________________
activation_134 (Activation)  (None, 128)               0         
_________________________________________________________________
dropout_112 (Dropout)        (None, 128)               0         
_________________________________________________________________
dense_135 (Dense)            (None, 128)               16512     
_________________________________________________________________
batch_normalization_113 (Bat (None, 128)               512       
_________________________________________________________________
activation_135 (Activation)  (None, 128)               0         
_________________________________________________________________
dropout_113 (Dropout)        (None, 128)               0         
_________________________________________________________________
dense_136 (Dense)            (None, 128)               16512     
_________________________________________________________________
batch_normalization_114 (Bat (None, 128)               512       
_________________________________________________________________
activation_136 (Activation)  (None, 128)               0         
_________________________________________________________________
dropout_114 (Dropout)        (None, 128)               0         
_________________________________________________________________
dense_137 (Dense)            (None, 128)               16512     
_________________________________________________________________
batch_normalization_115 (Bat (None, 128)               512       
_________________________________________________________________
activation_137 (Activation)  (None, 128)               0         
_________________________________________________________________
dropout_115 (Dropout)        (None, 128)               0         
_________________________________________________________________
dense_138 (Dense)            (None, 2)                 258       
_________________________________________________________________
activation_138 (Activation)  (None, 2)                 0         
=================================================================
Total params: 70,274
Trainable params: 68,994
Non-trainable params: 1,280
_________________________________________________________________
---sig_test---
<self.testtree_sig> OutTree/sig
/data6/Users/jhchoi/TMVA/TMVA_TOOL/inputs/EEMu_MuMuE_Method/v2405.4/2018/EEMu_MuMuE_Method_DYJetsToEE_MiNNLO.root
/data6/Users/jhchoi/TMVA/TMVA_TOOL/inputs/EEMu_MuMuE_Method/v2405.4/2018/EEMu_MuMuE_Method_DYJetsToMuMu_MiNNLO.root
…
